Models/runs/Erdos_I/GAT_seed_13_thr_5_date_12-04_17-38.pt (torch, 5455 bytes, 10 tensors)

layers.0.att_src f4 [1, 1, 100]
0	0xbdb31186	-0.08743577
1	0x3c2d5237	0.010578684
2	0xbe709221	-0.23493244
3	0xbe213c26	-0.15745601
4	0xbd82b503	-0.063821815
5	0xbdaabd5c	-0.08336899
6	0x3df9868b	0.12183865
7	0x3e70021d	0.23438306
8	0xbe2c4e31	-0.16826703
9	0x3e695a98	0.22788465
10	0x3e69e296	0.22840342
11	0xbca666d8	-0.020312712
12	0xbe5ab31e	-0.2135739
13	0x3e457cbb	0.19285862
14	0x3e6b6246	0.22986707
15	0x3dc637e5	0.0967863
16	0x3e6aa14e	0.22913095
17	0xbceca1ae	-0.028885689
18	0xbe11b1ba	-0.14227954
19	0xbdddbcbb	-0.10827013
20	0x3e00066c	0.1250245
21	0xbe09dafc	-0.13462442
22	0xbe3ab7fa	-0.18234244
23	0x3e4f6585	0.2025357
24	0x3da96d75	0.082728304
25	0xbdd42f46	-0.10360579
26	0x3dd48186	0.10376267
27	0xbe129db9	-0.14317979
28	0xbe1f5dc4	-0.15563112
29	0xbe6ae063	-0.22937159
30	0x3e71da6a	0.23618475
31	0x3e5343f3	0.2063139
32	0x3e1e6365	0.15467604
33	0x3e1cf5eb	0.15328185
34	0x3d94bc3f	0.072624676
35	0xbe784795	-0.24246056
36	0xbd96e5ee	-0.07368074
37	0xbdb2ae8b	-0.08724698
38	0xbe5df15d	-0.21674104
39	0x3c592ae4	0.013254855
40	0x3c0d6585	0.008630161
41	0xbd0e42d3	-0.034731697
42	0x3ca78523	0.020449227
43	0x3e4bc725	0.19900186
44	0xbceb5d24	-0.028730936
45	0xbdf2a8c2	-0.11848594
46	0x3e52deba	0.20592776
47	0xbe11f13f	-0.14252184
48	0x3e4670e0	0.19378996
49	0xbe59acfd	-0.21257396
50	0x3e16c16d	0.14722224
51	0x3e2bcf9a	0.16778412
52	0xbe66fdca	-0.2255775
53	0xbe555dc8	-0.20836556
54	0xbe4d5735	-0.20052798
55	0x3dc67775	0.09690753
56	0xbe291e17	-0.16515385
57	0xbdf559a1	-0.11979986
58	0x3e4b2c1c	0.19841045
59	0xbc38d126	-0.011280334
60	0x3db71d00	0.08941078
61	0xbe1e5141	-0.15460683
62	0xbd3fe189	-0.046845946
63	0xbe0c3239	-0.13691033
64	0xbe4514f9	-0.19246282
65	0x3e293d4b	0.16527288
66	0x3d97962d	0.07401691
67	0x3e611825	0.21981867
68	0x3e14fd6c	0.14549798
69	0xbd780010	-0.060546935
70	0xbe248c5f	-0.16069172
71	0xbe1bf9dd	-0.15232034
72	0x3d092aed	0.033488203
73	0xbe5e0729	-0.21682419
74	0xbe0e58e4	-0.13901097
75	0x3de11c09	0.109916754
76	0xbd5b58be	-0.053551428
77	0xbd963824	-0.07334927
78	0x3e2b8b09	0.16752256
79	0x3bec7e6e	0.00721722
80	0x3e171b88	0.14756596
81	0x3da1a2dd	0.07892392
82	0x3e1cb95b	0.15305082
83	0x3e62fcc5	0.22166736
84	0x3e41ce6f	0.18926404
85	0x3dc1c0fb	0.09460636
86	0xbd636714	-0.055518225
87	0xbde7d31e	-0.11319564
88	0x3e0a43ee	0.13502476
89	0x3caae0cb	0.020859143
90	0xbe721ef0	-0.23644614
91	0xbca0738f	-0.019586353
92	0x3e39996e	0.18124935
93	0x3d249282	0.040178783
94	0xbe5359f9	-0.2063979
95	0xbe563e23	-0.20922141
96	0xbe7efa3e	-0.24900147
97	0x3e05be7b	0.13060944
98	0xbe6c1e1a	-0.23058358
99	0x3e5da216	0.21643862

layers.0.att_dst f4 [1, 1, 100]
0	0xbe6ec1db	-0.23316137
1	0xbd9c17d2	-0.07621731
2	0x3d6fe71c	0.058570012
3	0xbe7213d2	-0.23640373
4	0xbe258118	-0.16162527
5	0x3dfd0979	0.123553224
6	0xbe33e0c3	-0.17566209
7	0xbca0b4dc	-0.01961749
8	0x3e46718e	0.19379255
9	0xbe787ec6	-0.2426711
10	0xbe19b4d0	-0.1501038
11	0x3dc8a62c	0.0979732
12	0xbd983e24	-0.074337274
13	0xbe1f84d5	-0.15578015
14	0xbe29552d	-0.16536398
15	0x3c65d49c	0.014027741
16	0x3e66f0c6	0.22552785
17	0x3cfa3e08	0.030547157
18	0x3e807249	0.25087193
19	0x3e3910b8	0.18072784
20	0x3e742a32	0.23844221
21	0x3e73f6c1	0.23824598
22	0x3d7c8991	0.06165463
23	0xbc4fc64d	-0.012681556
24	0xbca98774	-0.020694472
25	0x3e0678f1	0.13132073
26	0x3e207d56	0.15672812
27	0x3d5d7371	0.05406517
28	0xbe1e7989	-0.1547605
29	0x3d4528b0	0.048134506
30	0xbcf63fa4	-0.030059643
31	0x3ddb26fa	0.107007936
32	0x3e757362	0.23969796
33	0xbe2018cb	-0.15634458
34	0xbe47d718	-0.19515646
35	0x3c896378	0.016771063
36	0xbd04a3b9	-0.0323827
37	0x3e48fc8e	0.19627592
38	0x3dcc37ea	0.09971602
39	0x3d3b1a99	0.045679662
40	0x3d41fedc	0.047362193
41	0x3dc38573	0.09546938
42	0xbd603b55	-0.054744083
43	0x3e23cc5b	0.15995924
44	0x3b8001f5	0.0039064833
45	0xbdbc2eef	-0.091886394
46	0xbe04ffd0	-0.1298821
47	0xbd8b600f	-0.06805431
48	0x3e6cfd15	0.23143418
49	0x3db75b99	0.08953018
50	0xbe3a9e2e	-0.18224403
51	0x3df97532	0.12180556
52	0x3e10ee73	0.14153461
53	0xbe1e5069	-0.15460362
54	0xbe3b4f4c	-0.18291968
55	0xbdd79275	-0.10525981
56	0x3cb4ea7b	0.022084465
57	0xbde0d003	-0.10977175
58	0x3e5c72dc	0.2152819
59	0xbe5183e8	-0.20460474
60	0x3d325b18	0.043543905
61	0x3e70dbe4	0.23521382
62	0xbd01d634	-0.03169842
63	0x3e6d5049	0.23175158
64	0x3c953841	0.0182153
65	0xbd9d400a	-0.0767823
66	0xbe38c6cd	-0.18044586
67	0xbd44ef75	-0.048079927
68	0xbdaf6c3a	-0.085655645
69	0xbd046608	-0.032323867
70	0x3e36bf1b	0.17846338
71	0x3d29c717	0.041449632
72	0xbdab201e	-0.08355735
73	0xbe159e55	-0.1461118
74	0x3e3482d2	0.17628029
75	0xbdb6b3cb	-0.089210115
76	0xbdae45b4	-0.085093886
77	0xbe409300	-0.18806076
78	0x3dd6532d	0.10465083
79	0xbe4c4bd7	-0.19950806
80	0x3db07791	0.086165555
81	0x3e43d2d0	0.19123387
82	0x3dbb626b	0.09149631
83	0xbe4b98af	-0.19882463
84	0x3983a0cf	0.0002510608
85	0xbcb5c0ef	-0.022186724
86	0xbe77bf7a	-0.24194136
87	0xbe0d1e32	-0.1378105
88	0x3e43b504	0.1911202
89	0xbca12550	-0.019671112
90	0x3dc02752	0.093825
91	0xbe2ff3b9	-0.17182817
92	0xbe307e55	-0.17235692
93	0x3e69cfc7	0.22833167
94	0xbe3b0106	-0.18262109
95	0xbce8db61	-0.02842492
96	0x3e1eebf8	0.15519702
97	0x3e525960	0.20541906
98	0xbd9929d0	-0.07478678
99	0x3e5cbcb2	0.21556357

layers.0.bias f4 [100]
0	0x00000000	0.0
1	0xbd45c8ee	-0.048287325
2	0x00000000	0.0
3	0xbccc80fd	-0.02496385
4	0xbc0a9831	-0.008459137
5	0x00000000	0.0
6	0xbd3b199b	-0.045678716
7	0x00000000	0.0
8	0x00000000	0.0
9	0x00000000	0.0
10	0xbc99626b	-0.018723687
11	0x00000000	0.0
12	0x3decb234	0.11557427
13	0x3dc86a03	0.09785845
14	0xbbfd2b3d	-0.0077261017
15	0x3ddd3404	0.10800937
16	0x3dbd2cb6	0.092370436
17	0x3dd0323b	0.10165831
18	0x3dbbd803	0.0917206
19	0x3c8ed391	0.017434867
20	0xbd456df0	-0.048200548
21	0xbd89b3e1	-0.06723762
22	0x00000000	0.0
23	0x3dd618e7	0.104539685
24	0xbd060079	-0.032715295
25	0x00000000	0.0
26	0x3dafc6bf	0.0858283
27	0x00000000	0.0
28	0xbd08891f	-0.033333894
29	0x00000000	0.0
30	0x3db81bb2	0.089896575
31	0xbd078f4a	-0.033095635
32	0x3dff0374	0.124518305
33	0x00000000	0.0
34	0x00000000	0.0
35	0xbc93380e	-0.017971065
36	0x00000000	0.0
37	0x3dfee8d6	0.12446754
38	0xbd2d6b00	-0.04233837
39	0x00000000	0.0
40	0x00000000	0.0
41	0x00000000	0.0
42	0x3db319e3	0.08745172
43	0x3db761cc	0.089542
44	0xbcaafb43	-0.020871764
45	0x00000000	0.0
46	0x00000000	0.0
47	0x3daf7f2d	0.08569179
48	0x00000000	0.0
49	0x3df8832d	0.12134395
50	0x3db3ed0f	0.0878545
51	0xbd809b3d	-0.06279609
52	0xbd467b3c	-0.04845737
53	0x3db2980e	0.087204084
54	0x00000000	0.0
55	0x00000000	0.0
56	0x00000000	0.0
57	0x3dcca93b	0.09993216
58	0x3dc31589	0.09525592
59	0xbd2f9035	-0.042862136
60	0x00000000	0.0
61	0xbd767256	-0.060167633
62	0xbd8d9c25	-0.06914548
63	0x00000000	0.0
64	0x00000000	0.0
65	0x00000000	0.0
66	0x3db6e0b3	0.08929577
67	0x3dbaa4b4	0.09113446
68	0x3e044a5f	0.12918995
69	0x00000000	0.0
70	0xbd552cd8	-0.05204472
71	0x3daef026	0.085418984
72	0x3de2b247	0.1106916
73	0xbd355817	-0.044273462
74	0x00000000	0.0
75	0xbc29377b	-0.010328169
76	0x3e01a371	0.12660004
77	0xbd0855e4	-0.033285037
78	0x3db583e1	0.088630445
79	0x3ddc7cc4	0.10765985
80	0x00000000	0.0
81	0x00000000	0.0
82	0x00000000	0.0
83	0x3db70d34	0.08938065
84	0x00000000	0.0
85	0xbc0ada40	-0.008474886
86	0x00000000	0.0
87	0x3e03ea7c	0.12882417
88	0x3dbbdeb7	0.09173339
89	0xbcf20646	-0.029544007
90	0x3db19f21	0.086729296
91	0x3dfeb129	0.12436134
92	0x3df22239	0.11822934
93	0x3db64b87	0.089011244
94	0x00000000	0.0
95	0xbcf77170	-0.030205458
96	0xbc297cc2	-0.010344686
97	0xbd203225	-0.03911032
98	0x3d5de527	0.054173615
99	0xbd3839ab	-0.04497687

layers.0.lin_src.weight f4 [100, 1]
0	0xbd80a8c3	-0.06282189
1	0x3e1e9290	0.15485597
2	0xbe390daa	-0.18071619
3	0x3cd84016	0.026397746
4	0xba956db1	-0.0011400488
5	0xbc4131a4	-0.01179162
6	0x3e163b5c	0.14671081
7	0xbdc20437	-0.0947346
8	0xbc69e953	-0.01427682
9	0xbdacfd85	-0.084467925
10	0x3bac7d19	0.0052639362
11	0xbcc548ac	-0.024082504
12	0x3e51e952	0.20499161
13	0x3e2c41a4	0.16821915
14	0xbd26c677	-0.040716615
15	0x3bbcc593	0.0057608574
16	0x3df199ee	0.11796938
17	0x3e708d7b	0.2349147
18	0x3e65eff5	0.22454818
19	0x3d929850	0.071579576
20	0x3e1e5f4c	0.1546604
21	0x3e6240f7	0.22095095
22	0xbdbe4d79	-0.092921205
23	0xbc6c7433	-0.014432001
24	0x3d34b343	0.04411627
25	0xbe77eb5b	-0.24210875
26	0x3e08e3c9	0.13368143
27	0xbd4509d0	-0.04810506
28	0x3d40c01a	0.047058202
29	0xbd9fa653	-0.07795396
30	0x3e3fda8e	0.18735716
31	0x3d35d840	0.044395685
32	0x3e2d2040	0.16906834
33	0xbe6d101f	-0.23150681
34	0xbe033d49	-0.12816347
35	0x3c8ebcd9	0.017424034
36	0xbc9a5e89	-0.018843906
37	0x3e72cd7f	0.23711203
38	0x3e0e078a	0.13870063
39	0xbe445bf2	-0.191757
40	0xbe3136a9	-0.17306007
41	0xbe41f23a	-0.18940058
42	0x3e78678e	0.24258253
43	0x3e1d053b	0.15334027
44	0x3c760b5d	0.015017358
45	0xbce15aef	-0.02750918
46	0xbe54f052	-0.207948
47	0x3e04671d	0.1292996
48	0xbe4745ec	-0.19460267
49	0x3d5e3408	0.05424884
50	0x3d862b89	0.065512724
51	0x3e579705	0.21053703
52	0x3e546aa3	0.20743804
53	0x3e75e3f0	0.24012733
54	0xbd54f85f	-0.051994678
55	0xbe2418ab	-0.16025035
56	0xbd9de947	-0.0771051
57	0x3e1c93d4	0.15290767
58	0x3e25dae6	0.16196784
59	0x3e0d794d	0.13815804
60	0xbe0286c5	-0.12746723
61	0x3e430632	0.19045332
62	0x3e648723	0.22317176
63	0xbd859bd8	-0.065238655
64	0xbe7f37ab	-0.2492358
65	0xbe0c68c2	-0.13711837
66	0x3e7f59f6	0.24936661
67	0x3e3873cd	0.18012924
68	0xbd872b7c	-0.06600091
69	0xbe2b502a	-0.16729799
70	0x3e29d5de	0.1658549
71	0x3e69938c	0.22810191
72	0xbcf73893	-0.030178344
73	0x3e166b3d	0.14689346
74	0xbe45a5a9	-0.19301476
75	0xbb81aec0	-0.0039575994
76	0x3d0467b6	0.03232547
77	0x3d4138e8	0.04717341
78	0x3e7d0c42	0.24711707
79	0x3da33562	0.07969166
80	0xbdaf5010	-0.085601926
81	0xbe190f31	-0.14947201
82	0xbe18e90e	-0.14932653
83	0x3e438ba2	0.19096234
84	0xbe35abc8	-0.1774131
85	0xbd85d549	-0.065348215
86	0xbe23c079	-0.15991391
87	0x3d6a0b9d	0.05713998
88	0x3d4714b0	0.048603714
89	0x3d109ccc	0.035305783
90	0x3e3b18ca	0.18271175
91	0x3c197041	0.009365142
92	0x3e7d0d01	0.24711992
93	0x3e525d01	0.2054329
94	0xbc3c6241	-0.011498035
95	0x3e6f481d	0.23367353
96	0x3a362e6c	0.00069496664
97	0x3e01087c	0.12600893
98	0x3e513f4c	0.20434302
99	0x3e368a17	0.17826115

layers.0.lin_dst.weight f4 [100, 1]
0	0xbd80a8c3	-0.06282189
1	0x3e1e9290	0.15485597
2	0xbe390daa	-0.18071619
3	0x3cd84016	0.026397746
4	0xba956db1	-0.0011400488
5	0xbc4131a4	-0.01179162
6	0x3e163b5c	0.14671081
7	0xbdc20437	-0.0947346
8	0xbc69e953	-0.01427682
9	0xbdacfd85	-0.084467925
10	0x3bac7d19	0.0052639362
11	0xbcc548ac	-0.024082504
12	0x3e51e952	0.20499161
13	0x3e2c41a4	0.16821915
14	0xbd26c677	-0.040716615
15	0x3bbcc593	0.0057608574
16	0x3df199ee	0.11796938
17	0x3e708d7b	0.2349147
18	0x3e65eff5	0.22454818
19	0x3d929850	0.071579576
20	0x3e1e5f4c	0.1546604
21	0x3e6240f7	0.22095095
22	0xbdbe4d79	-0.092921205
23	0xbc6c7433	-0.014432001
24	0x3d34b343	0.04411627
25	0xbe77eb5b	-0.24210875
26	0x3e08e3c9	0.13368143
27	0xbd4509d0	-0.04810506
28	0x3d40c01a	0.047058202
29	0xbd9fa653	-0.07795396
30	0x3e3fda8e	0.18735716
31	0x3d35d840	0.044395685
32	0x3e2d2040	0.16906834
33	0xbe6d101f	-0.23150681
34	0xbe033d49	-0.12816347
35	0x3c8ebcd9	0.017424034
36	0xbc9a5e89	-0.018843906
37	0x3e72cd7f	0.23711203
38	0x3e0e078a	0.13870063
39	0xbe445bf2	-0.191757
40	0xbe3136a9	-0.17306007
41	0xbe41f23a	-0.18940058
42	0x3e78678e	0.24258253
43	0x3e1d053b	0.15334027
44	0x3c760b5d	0.015017358
45	0xbce15aef	-0.02750918
46	0xbe54f052	-0.207948
47	0x3e04671d	0.1292996
48	0xbe4745ec	-0.19460267
49	0x3d5e3408	0.05424884
50	0x3d862b89	0.065512724
51	0x3e579705	0.21053703
52	0x3e546aa3	0.20743804
53	0x3e75e3f0	0.24012733
54	0xbd54f85f	-0.051994678
55	0xbe2418ab	-0.16025035
56	0xbd9de947	-0.0771051
57	0x3e1c93d4	0.15290767
58	0x3e25dae6	0.16196784
59	0x3e0d794d	0.13815804
60	0xbe0286c5	-0.12746723
61	0x3e430632	0.19045332
62	0x3e648723	0.22317176
63	0xbd859bd8	-0.065238655
64	0xbe7f37ab	-0.2492358
65	0xbe0c68c2	-0.13711837
66	0x3e7f59f6	0.24936661
67	0x3e3873cd	0.18012924
68	0xbd872b7c	-0.06600091
69	0xbe2b502a	-0.16729799
70	0x3e29d5de	0.1658549
71	0x3e69938c	0.22810191
72	0xbcf73893	-0.030178344
73	0x3e166b3d	0.14689346
74	0xbe45a5a9	-0.19301476
75	0xbb81aec0	-0.0039575994
76	0x3d0467b6	0.03232547
77	0x3d4138e8	0.04717341
78	0x3e7d0c42	0.24711707
79	0x3da33562	0.07969166
80	0xbdaf5010	-0.085601926
81	0xbe190f31	-0.14947201
82	0xbe18e90e	-0.14932653
83	0x3e438ba2	0.19096234
84	0xbe35abc8	-0.1774131
85	0xbd85d549	-0.065348215
86	0xbe23c079	-0.15991391
87	0x3d6a0b9d	0.05713998
88	0x3d4714b0	0.048603714
89	0x3d109ccc	0.035305783
90	0x3e3b18ca	0.18271175
91	0x3c197041	0.009365142
92	0x3e7d0d01	0.24711992
93	0x3e525d01	0.2054329
94	0xbc3c6241	-0.011498035
95	0x3e6f481d	0.23367353
96	0x3a362e6c	0.00069496664
97	0x3e01087c	0.12600893
98	0x3e513f4c	0.20434302
99	0x3e368a17	0.17826115

layers.3.att_src f4 [1, 1, 2]
0	0x3faaf78a	1.3356793
1	0xbe98b5f2	-0.29826313

layers.3.att_dst f4 [1, 1, 2]
0	0x3f1d2257	0.61380523
1	0xbf778bfc	-0.96697974

layers.3.bias f4 [2]
0	0x3da035b8	0.07822746
1	0xbda035b8	-0.07822746

layers.3.lin_src.weight f4 [2, 100]
0	0x3dcee8c4	0.1010299
1	0xbe8a5d6a	-0.27024394
2	0xbe0c1524	-0.1367994
3	0xbd9c6697	-0.07636755
4	0xbdf9a19d	-0.121890284
5	0x3cfaafc0	0.030601382
6	0xbe1639e8	-0.14670527
7	0xbd9ca1f6	-0.07648079
8	0xbdc9be90	-0.098508
9	0xbd805fe2	-0.06268288
10	0xbe01d6b8	-0.12679565
11	0x3e0df206	0.13861856
12	0xbd85d498	-0.0653469
13	0x3ce10786	0.027469408
14	0xbc82c395	-0.015962401
15	0x3e0f2dc0	0.13982296
16	0x3de44429	0.11145813
17	0x3e4a0d3f	0.19731615
18	0x3e57627f	0.21033667
19	0x3d829722	0.063764825
20	0xbe131f49	-0.14367403
21	0xbb98c620	-0.00466229
22	0x3be78560	0.00706546
23	0xbd47b8a4	-0.04876007
24	0xbe2f69f3	-0.1713026
25	0xbe390592	-0.18068531
26	0x3e896c6c	0.26840532
27	0x3d480478	0.048832387
28	0xbe22cf5d	-0.15899415
29	0xbdec5b3e	-0.115408406
30	0x3e10b4fe	0.14131543
31	0xbe0ee8a3	-0.13955931
32	0x3dabf97c	0.08397195
33	0xbdec5ba6	-0.11540918
34	0xbdbb11a8	-0.09134227
35	0x3e0fd013	0.14044218
36	0x3e135162	0.14386514
37	0x3e3daf73	0.1852396
38	0xbd163052	-0.036667176
39	0x3e5fc6b0	0.21853137
40	0xbe076de0	-0.13225508
41	0x3e654d6c	0.22392815
42	0x3e48d0a1	0.19610836
43	0x3e6dcf1b	0.23223536
44	0xbdc02fbb	-0.09384104
45	0x3e3e3026	0.18573055
46	0x3e777fde	0.24169871
47	0x3e75d5ba	0.24007311
48	0xbe32d54a	-0.17464176
49	0xbde7f69d	-0.113263346
50	0x3e1aff95	0.1513656
51	0xbe0b3e91	-0.13598086
52	0xbe48dd2b	-0.19615619
53	0x3dd98af3	0.106222056
54	0x3cc0e7c0	0.023548007
55	0x3e194a82	0.14969829
56	0x3de24708	0.110487044
57	0x3d886c58	0.0666129
58	0x3e91ef41	0.2850285
59	0xbd836eac	-0.06417593
60	0x3e21dc48	0.15806687
61	0xbe30d904	-0.17270285
62	0xbde470f3	-0.11154356
63	0x3e4dd354	0.20100147
64	0x3dbec598	0.09315032
65	0x3e7567ac	0.23965329
66	0x3dfc64e9	0.123239346
67	0x3d370258	0.04467997
68	0xbd9c33a5	-0.07627038
69	0x3db6b20c	0.089206785
70	0xbdb9cecd	-0.09072647
71	0x3e368c5f	0.17826985
72	0x3e9d981e	0.3078012
73	0x3de44ace	0.1114708
74	0xbd611c50	-0.05495864
75	0xbe2f7c31	-0.17137219
76	0x3dc83e54	0.09777513
77	0xbe0a3654	-0.13497287
78	0x3df44935	0.11928026
79	0xbdc9edaa	-0.09859784
80	0x3d82e234	0.06390801
81	0xbd7269cc	-0.059182927
82	0xbc1bf060	-0.009517759
83	0x3e88ae80	0.26695633
84	0xba737e00	-0.000928849
85	0xbd32956a	-0.043599524
86	0xbe1c95ce	-0.15291521
87	0x3c910d17	0.017706437
88	0x3e646b24	0.22306496
89	0xbc9aad00	-0.018881321
90	0x3e83f20a	0.257706
91	0x3e974dd5	0.2955157
92	0x3c9d3daf	0.019194452
93	0x3dd1474f	0.10218679
94	0xbe01b540	-0.12666798
95	0xbd9a1f5c	-0.075255126
96	0xbd5a5b43	-0.05330969
97	0xbe3e86ca	-0.18606105
98	0x3c7de581	0.0154966125
99	0x3ddf4c08	0.10903174
100	0xbdbf398e	-0.093371496
101	0xbda97602	-0.08274461
102	0x3cd60430	0.026125044
103	0xbcca5e6e	-0.02470323
104	0x3d168faa	0.036758102
105	0x3d81eb80	0.06343746
106	0x3dfac42e	0.122444496
107	0x3d57d910	0.05269724
108	0xbbd00aa0	-0.006348923
109	0x3bc96960	0.006146595
110	0x3cde1609	0.027110117
111	0xbe02798b	-0.12741677
112	0xbe3c4cf7	-0.18388735
113	0xbe26c09a	-0.16284409
114	0x3de1377a	0.109969094
115	0xbe1ee476	-0.15516838
116	0xbe230c07	-0.15922557
117	0x3d533403	0.051563274
118	0xbc694771	-0.014238224
119	0x3d917983	0.07103255
120	0x3dbd8e1b	0.0925562
121	0x3e50f63a	0.20406428
122	0xbdf54888	-0.11976725
123	0xbe5a3338	-0.21308601
124	0x3cab4396	0.02090625
125	0xbe5578c5	-0.20846851
126	0xbe1ec3c5	-0.15504368
127	0x3e77ccc2	0.24199203
128	0x3e26c462	0.16285852
129	0x3e3c0f86	0.18365297
130	0xbe02bac3	-0.12766556
131	0x3e01c4a6	0.12672672
132	0xbce01813	-0.02735523
133	0xbe5c88cc	-0.21536559
134	0xbbca8520	-0.0061804205
135	0x3e258d0e	0.1616709
136	0xbd1799e4	-0.037011996
137	0x3db53dd7	0.08849686
138	0x3e2c8607	0.16848002
139	0x3d2eb188	0.042649776
140	0xbd7f7740	-0.062369585
141	0xbe1fd0e1	-0.15607025
142	0xbdd0c3b5	-0.10193578
143	0xbd846e70	-0.06466377
144	0x3e43b32c	0.19111317
145	0xbe48532c	-0.19562978
146	0xbb86d020	-0.004114166
147	0xbe43f9af	-0.19138215
148	0xbc2b9f50	-0.010474995
149	0xbe9a3087	-0.30115148
150	0xbe9200f1	-0.28516343
151	0x3c1ca1bf	0.009560048
152	0xbdd6fea0	-0.104977846
153	0xbe503d62	-0.20335916
154	0xbe42beb2	-0.19018057
155	0x3e01a6d2	0.12661293
156	0xbdcf2b66	-0.101156995
157	0xbdf035c7	-0.11729007
158	0x3d9712ad	0.07376609
159	0x3e827e19	0.2548683
160	0xbe4b6e1f	-0.19866227
161	0x3e05134e	0.12995645
162	0x3e38e41a	0.18055764
163	0x3d854868	0.06507951
164	0x3c8d97c0	0.017284274
165	0x3b72ec00	0.0037066936
166	0xbe097012	-0.13421658
167	0xbe547873	-0.20749073
168	0xbea2ed74	-0.31821787
169	0xbdbdefb6	-0.09274237
170	0x3e5fc748	0.21853364
171	0xbe48ffd0	-0.19628835
172	0xbd9d9943	-0.07695248
173	0x3e9343e8	0.28762746
174	0x3e2e4ab2	0.17020682
175	0x3d5cb5d3	0.05388434
176	0xbdd68b5e	-0.10475801
177	0x3dd25012	0.102691785
178	0xbe14e48b	-0.14540307
179	0xbe97eab9	-0.29671267
180	0x3da26950	0.07930243
181	0x3e2b7fde	0.16747996
182	0xbd089324	-0.03334345
183	0xbba7dfd4	-0.005123118
184	0xbd949fde	-0.07257055
185	0xbb9da190	-0.0048105195
186	0xbc64f950	-0.013975456
187	0xbe177032	-0.14788893
188	0xbe1968de	-0.1498141
189	0x3e52243d	0.20521636
190	0xbdcd78b6	-0.100327894
191	0x3d6dcfc7	0.05805948
192	0xbd8bf8f6	-0.06834595
193	0xbe3161ae	-0.17322418
194	0x3c1b09a0	0.009462744
195	0xbc84c0e0	-0.016205251
196	0x3e6ae227	0.22937833
197	0x3e7cebcd	0.24699326
198	0xbb82c6d7	-0.0039909887
199	0x3e4a002e	0.19726631

layers.3.lin_dst.weight f4 [2, 100]
0	0x3dcee8c4	0.1010299
1	0xbe8a5d6a	-0.27024394
2	0xbe0c1524	-0.1367994
3	0xbd9c6697	-0.07636755
4	0xbdf9a19d	-0.121890284
5	0x3cfaafc0	0.030601382
6	0xbe1639e8	-0.14670527
7	0xbd9ca1f6	-0.07648079
8	0xbdc9be90	-0.098508
9	0xbd805fe2	-0.06268288
10	0xbe01d6b8	-0.12679565
11	0x3e0df206	0.13861856
12	0xbd85d498	-0.0653469
13	0x3ce10786	0.027469408
14	0xbc82c395	-0.015962401
15	0x3e0f2dc0	0.13982296
16	0x3de44429	0.11145813
17	0x3e4a0d3f	0.19731615
18	0x3e57627f	0.21033667
19	0x3d829722	0.063764825
20	0xbe131f49	-0.14367403
21	0xbb98c620	-0.00466229
22	0x3be78560	0.00706546
23	0xbd47b8a4	-0.04876007
24	0xbe2f69f3	-0.1713026
25	0xbe390592	-0.18068531
26	0x3e896c6c	0.26840532
27	0x3d480478	0.048832387
28	0xbe22cf5d	-0.15899415
29	0xbdec5b3e	-0.115408406
30	0x3e10b4fe	0.14131543
31	0xbe0ee8a3	-0.13955931
32	0x3dabf97c	0.08397195
33	0xbdec5ba6	-0.11540918
34	0xbdbb11a8	-0.09134227
35	0x3e0fd013	0.14044218
36	0x3e135162	0.14386514
37	0x3e3daf73	0.1852396
38	0xbd163052	-0.036667176
39	0x3e5fc6b0	0.21853137
40	0xbe076de0	-0.13225508
41	0x3e654d6c	0.22392815
42	0x3e48d0a1	0.19610836
43	0x3e6dcf1b	0.23223536
44	0xbdc02fbb	-0.09384104
45	0x3e3e3026	0.18573055
46	0x3e777fde	0.24169871
47	0x3e75d5ba	0.24007311
48	0xbe32d54a	-0.17464176
49	0xbde7f69d	-0.113263346
50	0x3e1aff95	0.1513656
51	0xbe0b3e91	-0.13598086
52	0xbe48dd2b	-0.19615619
53	0x3dd98af3	0.106222056
54	0x3cc0e7c0	0.023548007
55	0x3e194a82	0.14969829
56	0x3de24708	0.110487044
57	0x3d886c58	0.0666129
58	0x3e91ef41	0.2850285
59	0xbd836eac	-0.06417593
60	0x3e21dc48	0.15806687
61	0xbe30d904	-0.17270285
62	0xbde470f3	-0.11154356
63	0x3e4dd354	0.20100147
64	0x3dbec598	0.09315032
65	0x3e7567ac	0.23965329
66	0x3dfc64e9	0.123239346
67	0x3d370258	0.04467997
68	0xbd9c33a5	-0.07627038
69	0x3db6b20c	0.089206785
70	0xbdb9cecd	-0.09072647
71	0x3e368c5f	0.17826985
72	0x3e9d981e	0.3078012
73	0x3de44ace	0.1114708
74	0xbd611c50	-0.05495864
75	0xbe2f7c31	-0.17137219
76	0x3dc83e54	0.09777513
77	0xbe0a3654	-0.13497287
78	0x3df44935	0.11928026
79	0xbdc9edaa	-0.09859784
80	0x3d82e234	0.06390801
81	0xbd7269cc	-0.059182927
82	0xbc1bf060	-0.009517759
83	0x3e88ae80	0.26695633
84	0xba737e00	-0.000928849
85	0xbd32956a	-0.043599524
86	0xbe1c95ce	-0.15291521
87	0x3c910d17	0.017706437
88	0x3e646b24	0.22306496
89	0xbc9aad00	-0.018881321
90	0x3e83f20a	0.257706
91	0x3e974dd5	0.2955157
92	0x3c9d3daf	0.019194452
93	0x3dd1474f	0.10218679
94	0xbe01b540	-0.12666798
95	0xbd9a1f5c	-0.075255126
96	0xbd5a5b43	-0.05330969
97	0xbe3e86ca	-0.18606105
98	0x3c7de581	0.0154966125
99	0x3ddf4c08	0.10903174
100	0xbdbf398e	-0.093371496
101	0xbda97602	-0.08274461
102	0x3cd60430	0.026125044
103	0xbcca5e6e	-0.02470323
104	0x3d168faa	0.036758102
105	0x3d81eb80	0.06343746
106	0x3dfac42e	0.122444496
107	0x3d57d910	0.05269724
108	0xbbd00aa0	-0.006348923
109	0x3bc96960	0.006146595
110	0x3cde1609	0.027110117
111	0xbe02798b	-0.12741677
112	0xbe3c4cf7	-0.18388735
113	0xbe26c09a	-0.16284409
114	0x3de1377a	0.109969094
115	0xbe1ee476	-0.15516838
116	0xbe230c07	-0.15922557
117	0x3d533403	0.051563274
118	0xbc694771	-0.014238224
119	0x3d917983	0.07103255
120	0x3dbd8e1b	0.0925562
121	0x3e50f63a	0.20406428
122	0xbdf54888	-0.11976725
123	0xbe5a3338	-0.21308601
124	0x3cab4396	0.02090625
125	0xbe5578c5	-0.20846851
126	0xbe1ec3c5	-0.15504368
127	0x3e77ccc2	0.24199203
128	0x3e26c462	0.16285852
129	0x3e3c0f86	0.18365297
130	0xbe02bac3	-0.12766556
131	0x3e01c4a6	0.12672672
132	0xbce01813	-0.02735523
133	0xbe5c88cc	-0.21536559
134	0xbbca8520	-0.0061804205
135	0x3e258d0e	0.1616709
136	0xbd1799e4	-0.037011996
137	0x3db53dd7	0.08849686
138	0x3e2c8607	0.16848002
139	0x3d2eb188	0.042649776
140	0xbd7f7740	-0.062369585
141	0xbe1fd0e1	-0.15607025
142	0xbdd0c3b5	-0.10193578
143	0xbd846e70	-0.06466377
144	0x3e43b32c	0.19111317
145	0xbe48532c	-0.19562978
146	0xbb86d020	-0.004114166
147	0xbe43f9af	-0.19138215
148	0xbc2b9f50	-0.010474995
149	0xbe9a3087	-0.30115148
150	0xbe9200f1	-0.28516343
151	0x3c1ca1bf	0.009560048
152	0xbdd6fea0	-0.104977846
153	0xbe503d62	-0.20335916
154	0xbe42beb2	-0.19018057
155	0x3e01a6d2	0.12661293
156	0xbdcf2b66	-0.101156995
157	0xbdf035c7	-0.11729007
158	0x3d9712ad	0.07376609
159	0x3e827e19	0.2548683
160	0xbe4b6e1f	-0.19866227
161	0x3e05134e	0.12995645
162	0x3e38e41a	0.18055764
163	0x3d854868	0.06507951
164	0x3c8d97c0	0.017284274
165	0x3b72ec00	0.0037066936
166	0xbe097012	-0.13421658
167	0xbe547873	-0.20749073
168	0xbea2ed74	-0.31821787
169	0xbdbdefb6	-0.09274237
170	0x3e5fc748	0.21853364
171	0xbe48ffd0	-0.19628835
172	0xbd9d9943	-0.07695248
173	0x3e9343e8	0.28762746
174	0x3e2e4ab2	0.17020682
175	0x3d5cb5d3	0.05388434
176	0xbdd68b5e	-0.10475801
177	0x3dd25012	0.102691785
178	0xbe14e48b	-0.14540307
179	0xbe97eab9	-0.29671267
180	0x3da26950	0.07930243
181	0x3e2b7fde	0.16747996
182	0xbd089324	-0.03334345
183	0xbba7dfd4	-0.005123118
184	0xbd949fde	-0.07257055
185	0xbb9da190	-0.0048105195
186	0xbc64f950	-0.013975456
187	0xbe177032	-0.14788893
188	0xbe1968de	-0.1498141
189	0x3e52243d	0.20521636
190	0xbdcd78b6	-0.100327894
191	0x3d6dcfc7	0.05805948
192	0xbd8bf8f6	-0.06834595
193	0xbe3161ae	-0.17322418
194	0x3c1b09a0	0.009462744
195	0xbc84c0e0	-0.016205251
196	0x3e6ae227	0.22937833
197	0x3e7cebcd	0.24699326
198	0xbb82c6d7	-0.0039909887
199	0x3e4a002e	0.19726631
