Models/runs/scalefree/Pruebas_GA/MoreTrain/SinBC/SAGE_seed_13_thr_5_date_01-15_12-40.pt (torch, 1711 bytes, 3 tensors)

conv1.lin_l.weight f4 [2, 4]
0	0x40909c2c	4.519064
1	0x40f71691	7.7215047
2	0x40fd0ce4	7.9078236
3	0x40bfa437	5.9887958
4	0xc0df8f4f	-6.9862437
5	0xc0a0b9bb	-5.022672
6	0xc1197574	-9.591175
7	0xc04662a0	-3.0997696

conv1.lin_l.bias f4 [2]
0	0x408efdec	4.4684963
1	0x40d82084	6.753969

conv1.lin_r.weight f4 [2, 4]
0	0xc0b08787	-5.516544
1	0xc02916bc	-2.6420126
2	0xc0b4e4a5	-5.6529107
3	0xc10eefdf	-8.933562
4	0x40c66a58	6.2004814
5	0x40a3cb29	5.11855
6	0x4102ea13	8.182147
7	0x408c0f03	4.3768325
