Models/runs/optuna_sage_4/SAGE_1_mut_0.5299_cross_0.5481_type_one_point_iter_100/SAGE1_seed_13_thr_5_date_04-06_07-25.pt (torch, 1443 bytes, 3 tensors)

conv1.lin_l.weight f4 [2, 5]
000000 5c e6 02 bf 55 f0 f8 40 ee 83 6c 3f 01 d6 9a 40
       -0.5113275 7.7793374 0.9238881 4.8386235
000010 ef 22 ba 40 7a cb bf 3f ae e7 81 bf c3 fe 1f c1
       5.8167644 1.4983971 -1.0148828 -9.999698
000020 3b e6 ce 40 76 55 d3 40
       6.4656043 6.6041822

conv1.lin_l.bias f4 [2]
000000 93 da c9 3e a2 f6 2f c0
       0.3942457 -2.7494283

conv1.lin_r.weight f4 [2, 5]
000000 30 52 02 bf 24 e5 8b 40 5b 58 c4 be a7 c1 90 3f
       -0.5090666 4.3717213 -0.3834866 1.1309098
000010 3d e7 f4 c0 ed 7f b4 40 f8 4b 07 41 17 84 c5 40
       -7.6532273 5.640616 8.456047 6.1723742
000020 3e bd 8e 3e c1 64 f7 40
       0.27878755 7.731049
