Models/runs/optuna_sage_2/SAGE_2_mut_0.4_cross_0.6_type_uniform_iter_150/SAGE2_seed_13_thr_5_date_03-24_19-05.pt (torch, 2647 bytes, 6 tensors)

conv1.lin_l.weight f4 [8, 5]
0	0xc07105b8	-3.765974
1	0xc1096c6e	-8.588972
2	0xc100a8b6	-8.041189
3	0x40d8165d	6.75273
4	0xbe81f10f	-0.25379226
5	0xbe9a1de0	-0.30100918
6	0xbfd30adc	-1.6487689
7	0x40dd4a42	6.9153147
8	0xbfad557d	-1.3541714
9	0x409caf41	4.8963933
10	0xbff8eafa	-1.9446709
11	0x3ff9098c	1.9456038
12	0xbf872ca3	-1.0560497
13	0x4110f05a	9.05868
14	0xc114483a	-9.267633
15	0xbff38cf8	-1.9027395
16	0x3e43c225	0.19117029
17	0x40975449	4.7290387
18	0x40c10442	6.0317698
19	0xbff2a3a8	-1.8956194
20	0xbf5b66aa	-0.8570353
21	0xc0a3c33f	-5.1175838
22	0xc1018cfd	-8.096921
23	0xbddb63d1	-0.10712398
24	0xbfab856a	-1.340009
25	0xc0abfd02	-5.3746347
26	0xc027f37d	-2.6242363
27	0x3f957b12	1.1678183
28	0xc0ffadce	-7.9899664
29	0xc0aaa287	-5.33234
30	0xc10389fe	-8.2211895
31	0xc104c63a	-8.298395
32	0xbf195b06	-0.59904516
33	0xc10a0558	-8.626305
34	0xbf8f2415	-1.1182886
35	0x3fc3e7be	1.5305097
36	0xbf6f9a11	-0.9359446
37	0xc10bfb71	-8.748887
38	0x409fb07e	4.9902945
39	0xc10d2a20	-8.822784

conv1.lin_l.bias f4 [8]
0	0x40bb5e04	5.8552265
1	0x3f35f698	0.710794
2	0xc1052844	-8.32233
3	0x405a2e86	3.4090896
4	0xc08e6122	-4.449357
5	0x3f4577e4	0.77136064
6	0xc11d5b34	-9.834766
7	0xc0204e04	-2.5047617

conv1.lin_r.weight f4 [8, 5]
0	0x40112216	2.2677054
1	0xbdecf3b8	-0.11569923
2	0x3fa7b538	1.3102179
3	0x40b87c17	5.7651477
4	0x40c84877	6.258846
5	0xc087b998	-4.2414055
6	0xc08901d1	-4.2814717
7	0x405dba2f	3.4644887
8	0x403f1168	2.9854374
9	0xc08d1703	-4.409059
10	0x40beea74	5.96612
11	0x40bfe8cf	5.997169
12	0x3fa8c795	1.3185908
13	0x40348c97	2.821081
14	0x3f879066	1.0590942
15	0xc117d0ab	-9.488444
16	0xbfb3e42c	-1.4054008
17	0x409a06a2	4.8133097
18	0x3f81fecf	1.0155886
19	0xc06d8434	-3.711194
20	0x40a271ad	5.0763764
21	0xc039b001	-2.9013674
22	0xbf445e24	-0.7670615
23	0x4084da7e	4.1516714
24	0xc0b15285	-5.541323
25	0xc0ba0e40	-5.8142395
26	0x40f35685	7.6043115
27	0xc0cff253	-6.4983306
28	0x3e15dab6	0.14634213
29	0xc1169554	-9.411457
30	0xbf4d2972	-0.80141366
31	0x4035f6b0	2.8431816
32	0x3f922348	1.1417017
33	0x3fbc77f3	1.4724106
34	0xc0e5c645	-7.180453
35	0x405eb932	3.4800534
36	0x40891327	4.283588
37	0xc0940b26	-4.626361
38	0xc0b1d257	-5.5569263
39	0xbf30efac	-0.6911571

conv2.lin_l.weight f4 [2, 8]
0	0xbedc3186	-0.43006533
1	0x400b5bfa	2.1774888
2	0xbfe99c65	-1.8250853
3	0x4048744c	3.1320982
4	0x400cf3a6	2.2023711
5	0xc0840d94	-4.1266575
6	0xc06be954	-3.6861162
7	0x3e9cd5bd	0.3063182
8	0xbfb4da57	-1.4129132
9	0xc0bb8d6d	-5.861014
10	0xc037d827	-2.872568
11	0x40393387	2.89377
12	0xc116591b	-9.396754
13	0x3d27b609	0.040945087
14	0xbe9adaf1	-0.30245164
15	0x406ebdbb	3.7303302

conv2.lin_l.bias f4 [2]
0	0x3fa32f8e	1.2748888
1	0xc02df4a4	-2.7180567

conv2.lin_r.weight f4 [2, 8]
0	0x3ded8b05	0.115987815
1	0x40efb34d	7.4906373
2	0xc0f76880	-7.7315063
3	0x40a7b4bc	5.2408123
4	0xc0ae94eb	-5.4556785
5	0x40bea864	5.9580555
6	0xc0bba1c9	-5.863499
7	0xbf280271	-0.65628725
8	0x40ee96c3	7.4559035
9	0x3fdc3e62	1.7206538
10	0xc0d17ef7	-6.5467486
11	0x3f518b10	0.8185282
12	0xc1000d39	-8.003228
13	0x40384be0	2.879631
14	0xbf57c282	-0.8428117
15	0x40060928	2.0943089
