FastCover/runs/paper/checkpoints/Checkpoint-epoch-14.pt (torch, 12993 bytes, 8 tensors)

grat.grat1.fc.weight f4 [32, 32]
-0.14431447 -0.0072900504 0.10979645 -0.1714355 -0.17136626 0.03661655 -0.09482459 0.12844254
0.17178608 -0.10694792 -0.14742962 -0.026393488 0.14667888 -0.00710769 0.012298822 -0.08150631
-0.087321736 -0.056921065 0.119029716 -0.13121068 0.16594009 -0.017849803 -0.034272045 0.11322065
0.16942157 -0.06087718 -0.03266774 0.08047728 -0.01745464 -0.09426956 -0.16225412 -0.09045837
0.029035697 0.10669137 0.16095506 -0.08994336 -0.040967 -0.079652525 0.07350651 -0.12975907
0.15647192 -0.16658442 0.09072349 -0.04039831 0.08437491 0.10670928 0.14997353 -0.06019176
-0.12664373 0.11638532 0.048118893 0.020386962 -0.102288894 0.14091338 0.06035238 0.00021906388
-0.104055785 0.041731093 -0.14204675 0.031991754 -0.1549271 -0.048312362 -0.05016009 -0.05421133
-0.1581895 -0.16638985 -0.04556298 0.028905917 0.12379766 0.16413692 0.044896293 -0.15670896
-0.175685 -0.07101274 -0.09667819 0.017944593 -0.059549112 -0.112420246 -0.14389199 0.042646218
0.145336 -0.09298937 -0.16474107 0.16007125 -0.12400874 0.09327928 0.03032947 0.1258781
-0.08132686 0.07815675 0.09409184 0.09382445 -0.1381235 0.046118174 0.09261183 -0.14750655
0.0953431 0.058347438 -0.025601475 0.0022175002 0.06310491 -0.13952525 -0.037019324 -0.11474018
-0.047681298 -0.08928153 -0.06309763 0.14830087 0.14277904 0.13294819 0.1407472 -0.10780378
-0.14308451 0.013059681 -0.12459557 0.16997777 0.1348425 0.05217706 0.06198952 -0.07151289
0.013616754 0.02471522 0.057075996 0.051245157 0.17892875 -0.06367168 0.106949225 0.034999277
-0.1583564 0.07433596 0.12044134 0.1599821 0.024395224 -0.048184216 -0.09073403 0.11510569
-0.13810754 -0.12261226 0.14512299 -0.021484423 0.07770944 0.009193284 -0.070425995 0.009042008
0.08754131 -0.02257635 -0.041149333 -0.061801583 -0.1868091 0.031847864 -0.06799471 -0.15519507
0.13182802 0.07221535 -0.0076198154 -0.10536891 -0.039834037 0.09811649 -0.060346693 0.07414645
0.112737805 0.2707762 -0.049197856 0.1701447 -0.054855864 0.2797531 0.18982372 0.25338817
0.1590639 0.29211962 0.28935522 0.09932257 0.2594331 0.16035819 -0.021798844 0.20083588
0.15852371 0.21476379 0.15777478 0.12796456 0.013633715 0.1809273 0.0705519 0.17675588
0.28766316 0.27685142 0.15007749 0.10155763 0.08692475 0.2566533 0.20213884 0.10989547
0.16020887 0.014342092 0.1588185 -0.12507084 -0.028235175 0.16627719 0.16323553 0.037126444
-0.053639255 -0.08128847 0.014082722 0.029376961 -0.14727736 0.07745328 0.10433283 0.15004961
-0.0075054844 -0.1699945 -0.040617146 -0.0010282476 -0.054185875 0.13800122 -0.07730364 -0.015997149
-0.13864638 0.0017333399 -0.0735246 -0.11600066 0.12553395 0.06752526 -0.14599934 -0.17064047
0.22506182 0.15381826 0.13310991 0.19635902 0.12992178 0.22295652 0.17118742 0.22743706
-0.016963422 -0.042452455 0.018608933 0.23558636 0.1290871 0.28482533 0.24236752 0.14974768
0.16239552 0.21908571 0.12847589 0.22264256 0.16905113 -0.0511942 0.19649516 0.23414041
0.072545 0.18728097 0.046371482 0.1878737 -0.04752452 0.15512227 0.08279491 0.21060915
00000000: 2cc7 13be 60e1 eebb f6dc e03d ca8c 2fbe
00000010: a37a 2fbe 3cfb 153d 6533 c2bd 7186 033e
00000020: b1e8 2f3e 8307 dbbd caf7 16be 2837 d8bc
00000030: fd32 163e a0e7 e8bb 0081 493c c8ec a6bd
00000040: bdd5 b2bd 1026 69bd dac5 f33d 185c 06be
00000050: 33ec 293e c039 92bc d860 0cbd 3ae0 e73d
00000060: d97c 2d3e 5a5a 79bd 9cce 05bd 46d1 a43d
00000070: 08fd 8ebc 6610 c1bd f225 26be 3d42 b9bd
00000080: 45dc ed3c 0181 da3d 67d1 243e 3934 b8bd
00000090: 03cd 27bd dd20 a3bd 958a 963d 90df 04be
000000a0: 2d3a 203e 1b95 2abe 3dcd b93d b378 25bd
000000b0: c1cc ac3d 658a da3d a992 193e a38b 76bd
000000c0: e5ae 01be 6d5b ee3d 5118 453d 8f02 a73c
000000d0: d77c d1bd 994b 103e 0f34 773d 83b4 6539
000000e0: 331b d5bd 39ee 2a3d b474 11be c909 033d
000000f0: 36a5 1ebe 2fe3 45bd ab74 4dbd b30c 5ebd
00000100: 6efc 21be 1a62 2abe 3fa0 3abd 1acc ec3c
00000110: a189 fd3d 8213 283e 2de5 373d 5078 20be
00000120: c5e6 33be 216f 91bd 37ff c5bd 8a00 933c
00000130: c5e9 73bd 963c e6bd 6c58 13be cdad 2e3d
00000140: f6d2 143e 3671 bebd e2b1 28be b8e9 233e
00000150: 4bf8 fdbd 3509 bf3d 8275 f83c 30e6 003e
00000160: b28e a6bd a510 a03d 39b3 c03d 0927 c03d
00000170: 3f70 0dbe 69e6 3c3d 45ab bd3d f50b 17be
00000180: 3e43 c33d b9fd 6e3d 2fba d1bc 7b53 113b
00000190: 263d 813d b5df 0ebe 93a1 17bd e6fc eabd
000001a0: 774d 43bd 3cd9 b6bd 5539 81bd 2fdc 173e
000001b0: ab34 123e 9223 083e 0920 103e 3ac8 dcbd
000001c0: bf84 12be 46f8 553c f62b ffbd a70e 2e3e
000001d0: 2714 0a3e 9db7 553d b9e8 7d3d 5a75 92bd
000001e0: ce18 5f3c 9377 ca3c 85c8 693d 71e6 513d
000001f0: 1939 373e 4c66 82bd 3208 db3d 675b 0f3d
00000200: 2e28 22be 743d 983d f3a9 f63d 59d2 233e
00000210: 7ed8 c73c d05c 45bd c3d2 b9bd 88bc eb3d
00000220: 106c 0dbe 231c fbbd 1f9b 143e 1a00 b0bc
00000230: 2026 9f3d 6e9f 163c 813b 90bd ee24 143c
00000240: dc48 b33d 0af2 b8bc 348c 28bd a823 7dbd
00000250: e24a 3fbe e872 023d cf40 8bbd 75eb 1ebe
00000260: edfd 063e a4e5 933d a5af f9bb a8cb d7bd
00000270: 0429 23bd 4cf1 c83d 182e 77bd 18da 973d
00000280: 14e3 e63d 2ea3 8a3e b183 49bd 6a3a 2e3e
00000290: 8bb0 60bd cc3b 8f3e 2661 423e 18bc 813e
000002a0: a6e1 223e b490 953e 5e26 943e a269 cb3d
000002b0: 6ad4 843e f034 243e 7d93 b2bc eca7 4d3e
000002c0: 0a54 223e 0aeb 5b3e b68f 213e 2409 033e
000002d0: f25f 5f3c 0245 393e 847d 903d 7eff 343e
000002e0: 9648 933e 78bf 8d3e eaad 193e 72fd cf3d
000002f0: 9a05 b23d 1068 833e 7cfd 4e3e e010 e13d
00000300: cb0d 243e 18fb 6a3c 51a1 223e 9212 00be
00000310: 744d e7bc 9144 2a3e 3727 273e e611 183d
00000320: d6b4 5bbd 927a a6bd 38bb 663c f4a7 f03c
00000330: e0cf 16be d39f 9e3d 73ac d53d 9ba6 193e
00000340: 91f0 f5bb 0a13 2ebe 2a5e 26bd 44c6 86ba
00000350: 02f2 5dbd 3150 0d3e 5f51 9ebd 740c 83bc
00000360: 51f9 0dbe 3c31 e33a 1194 96bd c191 edbd
00000370: f98b 003e af4a 8a3d da80 15be 60bc 2ebe
00000380: 9b76 663e 8982 1d3e f74d 083e 5712 493e
00000390: 370a 053e b74e 643e c14b 2f3e 43e5 683e
000003a0: e0f6 8abc a0e2 2dbd c371 983c 8d3d 713e
000003b0: 692f 043e a0d4 913e 312f 783e 7557 193e
000003c0: 034b 263e 0158 603e 2f8f 033e 69fc 633e
000003d0: bd1b 2d3e 02b1 51bd 0736 493e 81c2 6f3e
000003e0: 7992 943d 95c6 3f3e 06f0 3d3d f761 403e
000003f0: 12a9 42bd 5fd8 1e3e 6190 a93d eda9 573e

grat.grat1.fc.bias f4 [32]
-0.06425894 -0.06811365 0.08074768 -0.1462087 0.059002638 0.028982231 -0.0023246189 0.02862911
-0.052004658 0.0023179054 0.15641019 0.040309068 -0.12169522 0.031440265 -0.1276908 0.15234369
-0.066892214 -0.15082541 -0.020532519 -0.032454852 -0.035274904 0.02971296 0.0034405142 -0.1197668
-0.066356316 0.0958081 0.15591328 0.10799775 -0.12724726 0.040668525 0.044747077 0.12751094
00000000: 319a 83bd 2b7f 8bbd 0a5f a53d bcb7 15be
00000010: c0ac 713d 256c ed3c a258 18bb 9887 ea3c
00000020: d602 55bd 00e8 173b fe29 203e 1f1b 253d
00000030: 583b f9bd 82c7 003d 61c1 02be fcff 1b3e
00000040: c9fe 88bd fa71 1abe d033 a8bc 61ef 04bd
00000050: 6b7c 10bd 9868 f33c 407a 613b 4c48 f5bd
00000060: d2e5 87bd 0a37 c43d bba7 1f3e ed2d dd3d
00000070: 1b4d 02be 0a94 263d b648 373d 3a92 023e

grat.grat1.attn_fc.weight f4 [1, 64]
0.12221942 0.06399905 0.06914341 0.029590808 -0.0051094033 -0.004750658 0.12197306 0.11657158
-0.10606811 -0.11456736 0.05505571 0.049985964 0.09471359 0.104707636 0.10177601 -0.039854493
0.054266352 -0.0727149 -0.08649524 -0.023567967 0.031443316 0.09225807 -0.0694359 -0.07798327
-0.113905646 0.0022647644 0.043333877 -0.07805749 -0.07122407 0.025396384 0.11266669 -0.011803904
-0.0041563697 0.046580825 -0.120028414 0.052451555 -0.11436582 0.08677483 -0.10224766 0.078777604
-0.04403549 -0.016317599 -0.009360635 0.11156934 -0.095657475 0.015324599 -0.0054489262 0.026832022
0.12328871 0.042731587 -0.10370187 0.063488565 -0.025755085 -0.118299566 0.096411206 0.077073134
-0.12394541 -0.08479077 0.11151003 -0.05583651 0.096246935 0.12229384 0.120610766 0.09998884
00000000: 2d4e fa3d ef11 833d 0f9b 8d3d 6c68 f23c
00000010: c86c a7bb 68ab 9bbb 03cd f93d 15bd ee3d
00000020: 3d3a d9bd 4ba2 eabd 1982 613d 15be 4c3d
00000030: 33f9 c13d f570 d63d f16f d03d 773e 23bd
00000040: 6546 5e3d 8deb 94bd 6b24 b1bd 9c11 c1bc
00000050: b5ca 003d cdf1 bc3d 6934 8ebd b1b5 9fbd
00000060: 5d47 e9bd 716c 143b dd7e 313d 9bdc 9fbd
00000070: eddd 91bd 140c d03c cbbd e63d 2965 41bc
00000080: 2832 88bb 89cb 3e3d 75d1 f5bd 71d7 563d
00000090: a138 eabd 01b7 b13d 3967 d1bd 2756 a13d
000000a0: 8f5e 34bd 7cac 85bc 595d 19bc 777e e43d
000000b0: 11e8 c3bd 0714 7b3c e88c b2bb d4ce db3c
000000c0: cb7e fc3d 5107 2f3d a561 d4bd 4b06 823d
000000d0: 54fc d2bc 0b47 f2bd 3d73 c53d 85d8 9d3d
000000e0: 17d7 fdbd c9a6 adbd 5f5f e43d d3b4 64bd
000000f0: 1d1d c53d 3175 fa3d c702 f73d f3c6 cc3d

grat.grat2.fc.weight f4 [32, 32]
0.06540069 0.07916191 0.0009086579 -0.0035963953 -0.122606166 -0.10273549 0.13796954 -0.073629506
0.076293275 0.1386198 0.056655858 -0.07549124 0.16786999 -0.16405898 -0.050265893 0.12756488
0.07682015 -0.08909477 -0.17719619 0.11009672 0.033898294 0.16855179 -0.0854879 -0.03208001
-0.15078965 -0.17452997 0.1469471 -0.023725444 0.08033399 -0.15649725 0.03528646 -0.004793794
0.12638561 -0.08343577 -0.04990096 -0.020418702 -0.008145639 0.06770609 -0.12772588 0.22413203
0.12897281 -0.05076036 0.19697212 -0.018071663 0.1836924 -0.09858631 0.0070831627 0.14786275
-0.08671044 -0.08715487 0.16513573 0.2803213 -0.07848541 -0.15741475 0.062359408 -0.1438527
0.16121602 -0.17347074 0.10515235 -0.07615516 -0.17625996 0.21738768 0.1575521 0.0075801364
-0.05073303 -0.111623466 -0.056990873 0.11990038 -0.15018088 -0.027476419 0.058378663 0.18762754
0.08323406 0.17417641 0.0123831285 0.03134827 0.05661047 -0.033095475 0.013361707 0.18102753
-0.14952952 -0.020907788 0.0977371 0.15342405 -0.16152239 -0.11820823 -0.03043291 -0.059600636
-0.028706057 0.07848157 -0.065688945 0.17638008 -0.085265584 0.15186906 0.17301482 0.18342547
-0.05089031 -0.10373647 0.07157329 0.030156946 -0.035421226 -0.06131692 0.14295089 -0.009088082
0.14242761 0.06533046 -0.13913351 0.07059991 0.10420437 0.11608572 0.0141702145 -0.023313034
-0.13883331 0.017338062 -0.019960772 -0.008454947 0.07674293 -0.03243272 -0.04383689 -0.0058124065
-0.13596404 0.035924584 0.1695023 -0.07737487 0.1348406 0.03387943 -0.06869871 0.08379931
0.00469473 -0.08681038 0.08779733 -0.11561296 -0.10766162 0.027866282 0.1335329 0.0665462
-0.13077368 0.055403247 -0.07008384 -0.16216324 0.16350947 -0.09809369 0.08185716 -0.1394652
-0.08235054 0.17388888 0.026007852 -0.021047194 0.11753674 0.021755844 -0.042697355 0.14396428
-0.120195664 -0.14031775 -0.14174601 0.09663515 -0.067826904 -0.15930665 -0.1720931 0.119752765
0.0077394247 0.123852745 -0.11828235 0.092793986 0.13787232 0.13014878 -0.15757242 0.10409568
0.17636602 0.11479764 -0.076648824 0.17070322 0.09612827 0.03047517 0.016462997 -0.09053442
-0.10095167 0.111714974 0.016989201 -0.16766247 0.097591355 0.17545553 0.12174271 -0.053870223
-0.055531614 0.13973896 -0.089729056 0.051873475 0.04896833 -0.117127225 -0.17023748 0.1721247
0.077052936 0.021555051 0.11053611 0.041036338 -0.0041104406 -0.15927427 0.15073602 0.074275926
0.14244358 0.02981481 0.09976609 0.1524631 0.065262586 0.079178646 -0.13636196 0.1453266
0.12962238 0.09395181 -0.12030482 -0.004211277 0.1591524 -0.14580925 -0.017351061 0.009829491
0.017139629 -0.0675528 -0.0064786375 -0.1601517 0.11379884 -0.10504204 -0.10000056 0.03854668
-0.028839365 0.15930204 0.020441279 -0.068883926 0.15667762 -0.10191171 0.13647477 0.15710245
0.14815013 -0.0891974 -0.13540179 -0.008363888 0.021430805 0.050714865 -0.15230483 0.035813108
0.08197759 -0.16404203 0.021240517 0.12485932 0.1236767 -0.08503306 0.10412775 0.027769014
-0.086254686 0.091013804 -0.023476318 -0.13924026 -0.07830914 0.020753339 -0.13173442 -0.14233816
00000000: ccf0 853d a41f a23d 0033 6e3a 80b1 6bbb
00000010: f118 fbbd fc66 d2bd e347 0d3e 11cb 96bd
00000020: a63f 9c3d 59f2 0d3e f90f 683d 279b 9abd
00000030: 1ce6 2b3e 14ff 27be 9ce3 4dbd 5ea0 023e
00000040: e253 9d3d 5277 b6bd eb72 35be 647a e13d
00000050: f0d8 0a3d d798 2c3e 4814 afbd 5466 03bd
00000060: 9a68 1abe fcb7 32be 4d79 163e dd5b c2bc
00000070: 2686 a43d d140 20be 8988 103d 4215 9dbb
00000080: 3b6b 013e 5fe0 aabd f364 4cbd 1f45 a7bc
00000090: 4975 05bc 7ea9 8a3d 93ca 02be de82 653e
000000a0: 7311 043e 18ea 4fbd 0fb3 493e 060b 94bc
000000b0: dc19 3c3e 9fe7 c9bd e019 e83b 5569 173e
000000c0: 3e95 b1bd 417e b2bd 5719 293e 4686 8f3e
000000d0: f5bc a0bd 5531 21be 946c 7f3d 1f4e 13be
000000e0: d015 253e 50a2 31be 1e5a d73d 3df7 9bbd
000000f0: 7e7d 34be e09a 5e3e 5655 213e cb62 f83b
00000100: 70cd 4fbd d89a e4bd 436f 69bd 558e f53d
00000110: 04c9 19be 3a16 e1bc 771e 6f3d 6f21 403e
00000120: 9e76 aa3d 4d5b 323e 9be2 4a3c 0b67 003d
00000130: 61e0 673d 1f8f 07bd 10eb 5a3c 485f 393e
00000140: 441e 19be cf46 abbc 642a c83d 321b 1d3e
00000150: 2066 25be 2817 f2bd 704e f9bc cc1f 74bd
00000160: f728 ebbc f2ba a03d ed87 86bd fb9c 343e
00000170: b99f aebd 9083 1b3e cc2a 313e e3d3 3b3e
00000180: 5c72 50bd c973 d4bd 0495 923d b30b f73c
00000190: d915 11bd 7327 7bbd b861 123e 2ee6 14bc
000001a0: 8bd8 113e facb 853d 0479 0ebe b096 903d
000001b0: 1a69 d53d 5abe ed3d 302a 683c fafa bebc
000001c0: 522a 0ebe 8d08 8e3c c684 a3bc 9e86 0abc
000001d0: 662b 9d3d 2cd8 04bd 508e 33bd 0076 bebb
000001e0: 283a 0bbe a825 133d 0392 2d3e b776 9ebd
000001f0: a713 0a3e 28c5 0a3d e9b1 8cbd f99e ab3d
00000200: 40d6 993b a4c9 b1bd 16cf b33d 7dc6 ecbd
00000210: b27d dcbd d447 e43c d9bc 083e 6049 883d
00000220: 89e9 05be 84ee 623d 1e88 8fbd 1f0e 26be
00000230: 076f 273e 58e5 c8bd baa4 a73d f7cf 0ebe
00000240: 66a7 a8bd ed0f 323e 6b0e d53c 2a6b acbc
00000250: 1ab7 f03d 5039 b23c 6ce3 2ebd 5f6b 133e
00000260: 2529 f6bd 75af 0fbe de25 11be a6e8 c53d
00000270: d5e8 8abd 4821 23be 2c39 30be f040 f53d
00000280: 009b fd3b 82a6 fd3d 043e f2bd c60a be3d
00000290: 672e 0d3e b945 053e aa5a 21be 1e30 d53d
000002a0: 4b99 343e 061b eb3d 0ffa 9cbd d3cc 2e3e
000002b0: e6de c43d 10a7 f93c 68dd 863c 1c6a b9bd
000002c0: c0bf cebd d2ca e43d f02c 8b3c b6af 2bbe
000002d0: fadd c73d 9daa 333e 3e54 f93d 06a7 5cbd
000002e0: 1e75 63bd bb17 0f3e dec3 b7bd 4879 543d
000002f0: 0493 483d 66e0 efbd bc52 2ebe 7541 303e
00000300: eecd 9d3d 3894 b03c c260 e23d b815 283d
00000310: e0b0 86bb cb18 23be 8b5a 1a3e fa1d 983d
00000320: bbdc 113e 303e f43c 2a52 cc3d 491f 1c3e
00000330: 64a8 853d 6a28 a23d 78a2 0bbe 7fd0 143e
00000340: bbbb 043e ce69 c03d 6062 f6bd c0fe 89bb
00000350: d9f8 223e 054f 15be d023 8ebc e00b 213c
00000360: 6868 8c3c 1f59 8abd c04a d4bb cffe 23be
00000370: 5e0f e93d 4820 d7bd 18cd ccbd 20e3 1d3d
00000380: 8840 ecbc 1320 233e 7874 a73c 0413 8dbd
00000390: 1970 203e 16b7 d0bd 0bc0 0b3e 77df 203e
000003a0: abb4 173e 20ad b6bd c4a6 0abe b008 09bc
000003b0: a88f af3c 64ba 4f3d ccf5 1bbe c4b0 123d
000003c0: dee3 a73d a2fa 27be 9800 ae3c 3eb6 ff3d
000003d0: 364a fd3d d025 aebd ee40 d53d d87b e33c
000003e0: 4ca6 b0bd 7265 ba3d 6851 c0bc 0095 0ebe
000003f0: 8b60 a0bd e802 aa3c 63e5 06be 18c1 11be

grat.grat2.fc.bias f4 [32]
-6.1661194e-07 -0.23327415 -0.05943322 0.22560033 -3.03095e-05 -0.04228191 -0.07862587 -0.16043463
0.61403716 -0.20349413 -0.16451195 -0.11543296 -0.10771715 -0.0871596 -0.16126825 -0.05397929
0.0016953232 -0.061756626 0.9659937 1.3741066 0.8592942 0.50733316 -0.03272973 -0.024974614
-0.036733367 -0.20278873 3.0928047 -0.24406439 -0.2171025 -0.076320335 -0.116880044 -0.099914856
00000000: 4085 25b5 6bdf 6ebe 4070 73bd c603 673e
00000010: 2841 feb7 cc2f 2dbd 9a06 a1bd fa48 24be
00000020: 8a31 1d3f c460 50be d275 28be 1e68 ecbd
00000030: cf9a dcbd bb80 b2bd 8123 25be 6319 5dbd
00000040: 9b35 de3a 84f4 7cbd 5d4b 773f bae2 af3f
00000050: b4fa 5b3f 96e0 013f 9c0f 06bd 9097 ccbc
00000060: ba75 16bd d9a7 4fbe 83f0 4540 04ec 79be
00000070: 1e50 5ebe d64d 9cbd ce5e efbd 29a0 ccbd

grat.grat2.attn_fc.weight f4 [1, 64]
-0.10196768 -0.116173774 -0.025312126 0.04862359 -0.008288588 0.061751556 -0.048708197 0.02864206
-0.015087828 -0.075995535 0.06997631 -0.04615453 0.032837532 -0.008005023 -0.06841181 0.04993
-0.07097693 0.086279005 -0.041900415 -0.08229938 -0.11846195 -0.027564406 -0.006125301 -0.004620999
0.040517293 0.11267534 0.05487646 0.09826303 -0.121336445 0.111161 0.009249579 -0.014839454
0.05360228 7.5929835e-05 -0.040327176 0.21495743 -0.05579683 0.79293776 -0.06697892 0.5926231
0.12155178 0.11982207 0.2656745 0.09714554 0.33191824 -0.051082864 0.0685706 0.06427013
-0.12173112 0.27852446 0.65750587 0.5450882 0.034983132 0.042347386 -0.11892733 -0.08760457
0.79530424 -0.015218928 0.06031318 -0.013079369 0.061938375 0.27132154 0.364862 -0.042733956
00000000: 6ed4 d0bd 84ec edbd 605b cfbc 8829 473d
00000010: dccc 07bc 33ef 7c3d 3f82 47bd c1a2 ea3c
00000020: f032 77bc 8ca3 9bbd bd4f 8f3d 880c 3dbd
00000030: a680 063d 8027 03bc 7e1b 8cbd 6683 4c3d
00000040: 5a5c 91bd 0cb3 b03d c59f 2bbd 948c a8bd
00000050: 2e9c f2bd c0ce e1bc c0b6 c8bb c06b 97bb
00000060: 76f5 253d 54c2 e63d 24c6 603d 213e c93d
00000070: 3e7f f8bd 61a8 e33d 8c8b 173c 2e21 73bc
00000080: 108e 5b3d 853c 9f38 1c2e 25bd cd1d 5c3e
00000090: 388b 64bd f8fd 4a3f 3e2c 89bd 26b6 173f
000000a0: 24f0 f83d 4665 f53d 7d06 883e 3ef4 c63d
000000b0: 30f1 a93e 443c 51bd be6e 8c3d 0fa0 833d
000000c0: 2a4e f9bd c29a 8e3e 4e52 283f e68a 0b3f
000000d0: 794a 0f3d 7474 2d3d 2c90 f3bd 066a b3bd
000000e0: 0f99 4b3f d058 79bc f40a 773d da4a 56bc
000000f0: 18b3 7d3d a8ea 8a3e 31cf ba3e cd09 2fbd

grat.grat3.fc.weight f4 [1, 32]
-0.11389899 -0.2554114 -0.07613394 0.16041707 -0.11068238 0.13619937 0.09111835 -0.1076727
0.54369015 -0.19785403 -0.17555316 -0.10582961 0.0343322 -0.14161013 0.05941833 -0.10714973
-0.018715912 0.15655138 0.8741427 1.3080289 0.8003139 0.43127698 -0.15952761 0.0405892
0.09019394 -0.21324858 2.9488728 -0.28036708 -0.25043026 -0.07139592 0.113984704 0.09923269
00000000: e043 e9bd 48c5 82be 1cec 9bbd 5f44 243e
00000010: 72ad e2bd d977 0b3e 429c ba3d 8183 dcbd
00000020: 472f 0b3f 3f9a 4abe 35c4 33be 32bd d8bd
00000030: ec9f 0c3d 3f02 11be a360 733d 5171 dbbd
00000040: 1d52 99bc 014f 203e d1c7 5f3f 7e6d a73f
00000050: 5fe1 4c3f 56d0 dc3e 355b 23be dc40 263d
00000060: 9ab7 b83d d65d 5abe 55ba 3c40 468c 8fbe
00000070: 6538 80be 0638 92bd d070 e93d 823a cb3d

grat.grat3.attn_fc.weight f4 [1, 64]
0.10677544 -0.50117546 -0.3000285 0.07240404 0.08290853 0.08430515 -0.08036092 0.022857651
0.24796374 -0.40843892 -0.42877463 -0.34150347 -0.008768819 -0.2935347 0.06338486 -0.35233057
-0.02437983 -0.014316831 0.181076 0.2297885 0.20047301 0.0855839 0.012293622 -0.091087654
-0.04771093 -0.5998651 0.6157051 -0.5977054 -0.5754994 -0.06226185 0.04391256 0.12452082
0.11267335 -0.012750303 0.070104994 -0.11604275 0.025008375 -0.039966866 0.04778315 -0.055816084
0.18891458 0.08654218 -0.044911865 -0.06635902 -0.0074194483 0.06774582 0.04328891 0.07628457
-0.04489161 0.09929994 -0.40651312 0.192264 -0.25094295 -0.20157734 -0.11293119 0.048821405
-0.094280966 0.08383137 -0.8630874 -0.0014768699 0.070025705 0.09126659 0.09392918 0.050156936
00000000: 15ad da3d 094d 00bf 569d 99be 9248 943d
00000010: f3cb a93d 2ea8 ac3d 4494 a4bd f83f bb3c
00000020: 35ea 7d3e e81e d1be 5988 dbbe 8bd9 aebe
00000030: 18ab 0fbc 2e4a 96be eccf 813d ac64 b4be
00000040: 36b8 c7bc 2491 6abc fd6b 393e ad4d 6b3e
00000050: cc48 4d3e 9d46 af3d 306b 493c 2a8c babd
00000060: 896c 43bd c290 19bf d99e 1d3f 3903 19bf
00000070: ee53 13bf 4806 7fbd a8dd 333d c604 ff3d
00000080: 49c1 e63d a6e6 50bc 3593 8f3d d2a7 edbd
00000090: 5dde cc3c 4cb4 23bd 44b8 433d 689f 64bd
000000a0: d372 413e 073d b13d 81f5 37bd 3de7 87bd
000000b0: d81e f3bb 52be 8a3d b64f 313d 163b 9c3d
000000c0: 44e0 37bd c45d cb3d 7d22 d0be dbe0 443e
000000d0: 987b 80be 4a6a 4ebe 7848 e7bd f4f8 473d
000000e0: 6116 c1bd c8af ab3d 4cf3 5cbf 8893 c1ba
000000f0: a369 8f3d fae9 ba3d f15d c03d 5c71 4d3d
