FastCover/runs/paper/checkpoints/Checkpoint-epoch-7.pt (torch, 12993 bytes, 8 tensors)

grat.grat1.fc.weight f4 [32, 32]
-0.14431447 -0.0072900504 0.10979645 -0.1714355 -0.17136626 0.03661655 -0.09482459 0.12844254
0.17178608 -0.10694792 -0.14742962 -0.026393488 0.14667888 -0.00710769 0.012298822 -0.08150631
-0.087321736 -0.056921065 0.119029716 -0.13121068 0.16594009 -0.017849803 -0.034272045 0.11322065
0.16942157 -0.06087718 -0.03266774 0.08047728 -0.01745464 -0.09426956 -0.16225412 -0.09045837
0.028995022 0.106650755 0.1609144 -0.08998397 -0.041007668 -0.07969314 0.0734659 -0.12979972
0.15643127 -0.16662507 0.09068288 -0.04043898 0.0843343 0.106668666 0.14993288 -0.06023243
-0.12668438 0.116344705 0.048078224 0.020346288 -0.10232951 0.14087273 0.060311712 0.00017839689
-0.1040964 0.041690424 -0.1420874 0.031951085 -0.15496776 -0.04835303 -0.05020076 -0.054252
-0.15819079 -0.16639113 -0.04556404 0.028904928 0.123796865 0.16413563 0.04489523 -0.15671024
-0.17568628 -0.07101354 -0.09667899 0.017943604 -0.059550174 -0.11242104 -0.14389327 0.042645156
0.14533472 -0.09299017 -0.16474235 0.16006997 -0.124009535 0.09327848 0.03032848 0.12587681
-0.081327654 0.07815595 0.09409104 0.09382366 -0.13812478 0.046117112 0.09261103 -0.14750783
0.09833335 0.06133777 -0.022611147 0.0052078376 0.066095166 -0.13653487 -0.034028992 -0.111749925
-0.044690967 -0.086291276 -0.060107294 0.15129125 0.14576942 0.13593857 0.14373758 -0.10481352
-0.14009413 0.01605001 -0.12160531 0.17296815 0.13783288 0.055167392 0.064979754 -0.06852264
0.016607085 0.027705548 0.060066327 0.05423549 0.18191913 -0.06068136 0.10993948 0.037989605
-0.15804829 0.07464434 0.12074972 0.16029021 0.02470359 -0.04787581 -0.09042565 0.11541407
-0.13779943 -0.12230388 0.1454311 -0.021176057 0.078017816 0.009501661 -0.070117615 0.009350385
0.08784969 -0.022267984 -0.040840928 -0.061493177 -0.18650098 0.03215627 -0.06768633 -0.15488696
0.13213614 0.07252373 -0.007311443 -0.10506053 -0.03952563 0.09842487 -0.060038287 0.07445483
0.107627265 0.26566613 -0.054308362 0.16503422 -0.05996637 0.274643 0.18471323 0.24827807
0.15395342 0.28700957 0.28424513 0.09421203 0.25432304 0.1552477 -0.026909323 0.1957254
0.15341322 0.2096533 0.15266429 0.12285408 0.008523218 0.17581682 0.06544136 0.17164539
0.2825531 0.27174133 0.144967 0.09644709 0.08181421 0.25154322 0.19702835 0.10478493
0.16020887 0.014342092 0.1588185 -0.12507084 -0.028235175 0.16627719 0.16323553 0.037126444
-0.053639255 -0.08128847 0.014082722 0.029376961 -0.14727736 0.07745328 0.10433283 0.15004961
-0.0075054844 -0.1699945 -0.040617146 -0.0010282476 -0.054185875 0.13800122 -0.07730364 -0.015997149
-0.13864638 0.0017333399 -0.0735246 -0.11600066 0.12553395 0.06752526 -0.14599934 -0.17064047
0.21972884 0.1484853 0.12777695 0.19102605 0.12458882 0.21762355 0.16585445 0.22210409
-0.022296472 -0.047785573 0.01327589 0.23025338 0.12375415 0.27949208 0.23703454 0.14441471
0.15706256 0.21375273 0.12314292 0.21730958 0.16371816 -0.05652732 0.19116218 0.22880743
0.06721187 0.181948 0.04103836 0.18254074 -0.05285764 0.1497893 0.07746178 0.20527618
00000000: 2cc7 13be 60e1 eebb f6dc e03d ca8c 2fbe
00000010: a37a 2fbe 3cfb 153d 6533 c2bd 7186 033e
00000020: b1e8 2f3e 8307 dbbd caf7 16be 2837 d8bc
00000030: fd32 163e a0e7 e8bb 0081 493c c8ec a6bd
00000040: bdd5 b2bd 1026 69bd dac5 f33d 185c 06be
00000050: 33ec 293e c039 92bc d860 0cbd 3ae0 e73d
00000060: d97c 2d3e 5a5a 79bd 9cce 05bd 46d1 a43d
00000070: 08fd 8ebc 6610 c1bd f225 26be 3d42 b9bd
00000080: f886 ed3c b66b da3d bfc6 243e 8449 b8bd
00000090: a8f7 27bd 2836 a3bd 4a75 963d 38ea 04be
000000a0: 852f 203e c39f 2abe f2b7 b93d 58a3 25bd
000000b0: 76b7 ac3d 1a75 da3d 0188 193e 48b6 76bd
000000c0: 8db9 01be 2246 ee3d aced 443d 42ad a63c
000000d0: 2292 d1bd f140 103e 6a09 773d 0d10 3b39
000000e0: 7e30 d5bd 94c3 2a3d 5c7f 11be 24df 023d
000000f0: deaf 1ebe d40d 46bd 509f 4dbd 5837 5ebd
00000100: c4fc 21be 7062 2abe 5ca1 3abd 07ca ec3c
00000110: 3689 fd3d 2c13 283e 10e4 373d a678 20be
00000120: 1be7 33be 8c6f 91bd a2ff c5bd 77fe 923c
00000130: e2ea 73bd 013d e6bd c258 13be b0ac 2e3d
00000140: a0d2 143e a171 bebd 38b2 28be 62e9 233e
00000150: b6f8 fdbd ca08 bf3d 6f73 f83c dae5 003e
00000160: 1d8f a6bd 3a10 a03d ceb2 c03d 9e26 c03d
00000170: 9570 0dbe 4ce5 3c3d daaa bd3d 4b0c 17be
00000180: ff62 c93d 503d 7b3d 033b b9bc 82a6 aa3b
00000190: e75c 873d cccf 0bbe fc61 0bbd 25dd e4bd
000001a0: e00d 37bd 7bb9 b0bd 1133 76bd 18ec 1a3e
000001b0: 9444 153e 7b33 0b3e f22f 133e 79a8 d6bd
000001c0: d674 0fbe 507b 833c 340c f9bd 901e 313e
000001d0: 1024 0d3e 34f7 613d 1b14 853d 9955 8cbd
000001e0: 950b 883c bff6 e23c 1c08 763d 0826 5e3d
000001f0: 0249 3a3e 058d 78bd f327 e13d fd9a 1b3d
00000200: 69d7 21be 22df 983d a14b f73d 1e23 243e
00000210: 2f5f ca3c 6d19 44bd 1531 b9bd 365e ec3d
00000220: 4b1b 0dbe 757a fabd e4eb 143e 6979 adbc
00000230: cec7 9f3d dbac 1b3c d399 8fbd 5b32 193c
00000240: 8aea b33d 596b b6bc d148 27bd 45e0 7bbd
00000250: 1dfa 3ebe 4bb6 033d 219f 8abd b09a 1ebe
00000260: b24e 073e 5287 943d d494 efbb fa29 d7bd
00000270: a1e5 21bd fa92 c93d b5ea 75bd c67b 983d
00000280: af6b dc3d 6405 883e 7272 5ebd bbfe 283e
00000290: 4c9f 75bd 029e 8c3e 7725 3d3e 9b3c 7e3e
000002a0: f7a5 1d3e ebf2 923e 9488 913e 3df2 c03d
000002b0: a136 823e 41f9 1e3e f170 dcbc 3d6c 483e
000002c0: 5b18 1d3e 5baf 563e 0754 1c3e eb9a fb3d
000002d0: f8a4 0b3c 5309 343e 1f06 863d cfc3 2f3e
000002e0: cdaa 903e ae21 8b3e 3b72 143e 0d86 c53d
000002f0: 358e a73d 46ca 803e cdc1 493e 7b99 d63d
00000300: cb0d 243e 18fb 6a3c 51a1 223e 9212 00be
00000310: 744d e7bc 9144 2a3e 3727 273e e611 183d
00000320: d6b4 5bbd 927a a6bd 38bb 663c f4a7 f03c
00000330: e0cf 16be d39f 9e3d 73ac d53d 9ba6 193e
00000340: 91f0 f5bb 0a13 2ebe 2a5e 26bd 44c6 86ba
00000350: 02f2 5dbd 3150 0d3e 5f51 9ebd 740c 83bc
00000360: 51f9 0dbe 3c31 e33a 1194 96bd c191 edbd
00000370: f98b 003e af4a 8a3d da80 15be 60bc 2ebe
00000380: 9900 613e 880c 183e f6d7 023e 559c 433e
00000390: 6c28 ff3d b5d8 5e3e c0d5 293e 416f 633e
000003a0: 17a7 b6bc ceba 43bd 1e83 593c 8bc7 6b3e
000003b0: d172 fd3d 9619 8f3e 2fb9 723e 73e1 133e
000003c0: 02d5 203e ffe1 5a3e 5b32 fc3d 6786 5e3e
000003d0: bca5 273e 3189 67bd 05c0 433e 7f4c 6a3e
000003e0: 60a6 893d 9450 3a3e d717 283d f6eb 3a3e
000003f0: 4181 58bd 5e62 193e 48a4 9e3d eb33 523e

grat.grat1.fc.bias f4 [32]
-0.06425894 -0.068129174 0.080734 -0.14770724 0.05976568 -0.0012264483 -0.0023246189 0.0008817666
-0.052004658 0.0023179054 0.14558771 0.040205844 -0.11855531 0.031371914 -0.1276908 0.13750142
-0.066892214 -0.16155525 -0.04306984 -0.055378504 -0.035274904 0.02963276 0.0034405142 -0.1197668
-0.09236257 0.09576462 0.15598895 0.08958036 -0.12724726 0.026636627 0.02481892 0.12555337
00000000: 319a 83bd 4f87 8bbd de57 a53d 9140 17be
00000010: dccc 743d c7c0 a0ba a258 18bb 5b26 673a
00000020: d602 55bd 00e8 173b f214 153e e2ae 243d
00000030: 20cd f2bd d67f 003d 61c1 02be 2ccd 0c3e
00000040: c9fe 88bd bd6e 25be 006a 30bd 92d4 62bd
00000050: 6b7c 10bd 67c0 f23c 407a 613b 4c48 f5bd
00000060: 9628 bdbd 3e20 c43d 91bb 1f3e e875 b73d
00000070: 1b4d 02be 0e35 da3c 0c51 cb3c 1091 003e

grat.grat1.attn_fc.weight f4 [1, 64]
0.122218974 0.0639986 0.06914296 0.029590318 -0.005109891 -0.0047511454 0.12197261 0.116571136
-0.10606856 -0.11456781 0.055055294 0.049985547 0.094713144 0.10470719 0.101775564 -0.03985491
0.054265935 -0.07271535 -0.08649569 -0.023568457 0.0314429 0.09225763 -0.06943635 -0.077983715
-0.11390609 0.002264279 0.04333346 -0.07805794 -0.07122452 0.025395894 0.11266624 -0.011804395
-0.0041568573 0.046580408 -0.12002886 0.052451137 -0.11436627 0.08677439 -0.10224811 0.07877716
-0.044035908 -0.016318088 -0.009361126 0.11156889 -0.09565792 0.015324107 -0.005449414 0.026831532
0.12328827 0.04273117 -0.103702314 0.06348812 -0.025755575 -0.11830001 0.09641076 0.07707269
-0.123945855 -0.08479122 0.111509584 -0.055836927 0.09624649 0.12229339 0.12061032 0.09998839
00000000: f14d fa3d b311 833d d39a 8d3d 6567 f23c
00000010: df70 a7bb 7faf 9bbb c7cc f93d d9bc ee3d
00000020: 793a d9bd 87a2 eabd a981 613d a5bd 4c3d
00000030: f7f8 c13d b970 d63d b56f d03d e73e 23bd
00000040: f545 5e3d c9eb 94bd a724 b1bd a312 c1bc
00000050: 45ca 003d 91f1 bc3d a534 8ebd edb5 9fbd
00000060: 9947 e9bd 4c64 143b 6d7e 313d d7dc 9fbd
00000070: 29de 91bd 0d0b d03c 8fbd e63d 3967 41bc
00000080: 3f36 88bb 19cb 3e3d b1d1 f5bd 01d7 563d
00000090: dd38 eabd c5b6 b13d 7567 d1bd eb55 a13d
000000a0: ff5e 34bd 83ad 85bc 695f 19bc 3b7e e43d
000000b0: 4de8 c3bd f711 7b3c ff90 b2bb cdcd db3c
000000c0: 8f7e fc3d e106 2f3d e161 d4bd 0f06 823d
000000d0: 5bfd d2bc 4747 f2bd 0173 c53d 49d8 9d3d
000000e0: 53d7 fdbd 05a7 adbd 235f e43d 43b5 64bd
000000f0: e11c c53d f574 fa3d 8b02 f73d b7c6 cc3d

grat.grat2.fc.weight f4 [32, 32]
0.06540069 0.07916191 0.0009086579 -0.0035963953 -0.122606166 -0.10273549 0.13796954 -0.073629506
0.076293275 0.1386198 0.056655858 -0.07549124 0.16786999 -0.16405898 -0.050265893 0.12756488
0.07682015 -0.08909477 -0.17719619 0.11009672 0.033898294 0.16855179 -0.0854879 -0.03208001
-0.15078965 -0.17452997 0.1469471 -0.023725444 0.08033399 -0.15649725 0.03528646 -0.004793794
0.12638561 -0.083435446 -0.049887378 -0.02187334 -0.008132079 0.054715157 -0.12772588 0.21256244
0.12897281 -0.05076036 0.19270559 -0.01806362 0.17987734 -0.09858493 0.0070831627 0.14469261
-0.08671044 -0.090367496 0.15455478 0.271391 -0.07848541 -0.15741341 0.062359408 -0.1438527
0.14830391 -0.17346112 0.10517806 -0.07908776 -0.17625996 0.21147205 0.14930171 0.007110528
-0.05073303 -0.11162346 -0.05698722 0.12207198 -0.15018766 -0.03075755 0.058378663 0.18466748
0.08323406 0.17417641 0.008795326 0.03135051 0.057767536 -0.03309512 0.013361707 0.17780676
-0.14952952 -0.018992605 0.09579823 0.15207916 -0.16152239 -0.118208155 -0.03043291 -0.059600636
-0.03038528 0.07848423 -0.06568184 0.17399845 -0.085265584 0.1499182 0.17048398 0.18114564
-0.05089031 -0.10373647 0.07157329 0.029833289 -0.035421226 -0.06452102 0.14295089 -0.011946798
0.14242761 0.06533046 -0.14018647 0.07059991 0.10330584 0.11608572 0.0141702145 -0.024114462
-0.13883331 0.016538417 -0.022589762 -0.010686754 0.07674293 -0.03243272 -0.04383689 -0.0058124065
-0.13914196 0.035924584 0.1695023 -0.07816143 0.1348406 0.032400593 -0.07076394 0.08370008
0.00469473 -0.08681038 0.08779733 -0.11561296 -0.10766162 0.027866282 0.1335329 0.0665462
-0.13077368 0.055403247 -0.07008384 -0.16216324 0.16350947 -0.09809369 0.08185716 -0.1394652
-0.08235054 0.17388888 0.026007852 -0.021047194 0.11753674 0.021755844 -0.042697355 0.14396428
-0.120195664 -0.14031775 -0.14174601 0.09663515 -0.067826904 -0.15930665 -0.1720931 0.119752765
0.0077394247 0.123852745 -0.11828235 0.092793986 0.13787232 0.13014878 -0.15757242 0.10409568
0.17636602 0.11479764 -0.076648824 0.17070322 0.09612827 0.03047517 0.016462997 -0.09053442
-0.10095167 0.111714974 0.016989201 -0.16766247 0.097591355 0.17545553 0.12174271 -0.053870223
-0.055531614 0.13973896 -0.089729056 0.051873475 0.04896833 -0.117127225 -0.17023748 0.1721247
0.077052936 0.021555051 0.11053611 0.041036338 -0.0041104406 -0.15927427 0.15073602 0.074275926
0.14244358 0.02981481 0.09976609 0.1524631 0.065262586 0.079178646 -0.13636196 0.1453266
0.12962238 0.09395181 -0.12030482 -0.004211277 0.1591524 -0.14580925 -0.017351061 0.009829491
0.017139629 -0.0675528 -0.0064786375 -0.1601517 0.11379884 -0.10504204 -0.10000056 0.03854668
-0.028839365 0.15930204 0.020441279 -0.068883926 0.15667762 -0.10191171 0.13647477 0.15710245
0.14815013 -0.0891974 -0.13540179 -0.008363888 0.021430805 0.050714865 -0.15230483 0.035813108
0.08197759 -0.16404203 0.021240517 0.12485932 0.1236767 -0.08503306 0.10412775 0.027769014
-0.086254686 0.091013804 -0.023476318 -0.13924026 -0.07830914 0.020753339 -0.13173442 -0.14233816
00000000: ccf0 853d a41f a23d 0033 6e3a 80b1 6bbb
00000010: f118 fbbd fc66 d2bd e347 0d3e 11cb 96bd
00000020: a63f 9c3d 59f2 0d3e f90f 683d 279b 9abd
00000030: 1ce6 2b3e 14ff 27be 9ce3 4dbd 5ea0 023e
00000040: e253 9d3d 5277 b6bd eb72 35be 647a e13d
00000050: f0d8 0a3d d798 2c3e 4814 afbd 5466 03bd
00000060: 9a68 1abe fcb7 32be 4d79 163e dd5b c2bc
00000070: 2686 a43d d140 20be 8988 103d 4215 9dbb
00000080: 3b6b 013e 34e0 aabd b556 4cbd b82f b3bc
00000090: 693c 05bc 001d 603d 93ca 02be f8a9 593e
000000a0: 7311 043e 18ea 4fbd 9d54 453e 28fa 93bc
000000b0: c431 383e e5e6 c9bd e019 e83b 4d2a 143e
000000c0: 3e95 b1bd 9812 b9bd 9c43 1e3e c3f3 8a3e
000000d0: f5bc a0bd fb30 21be 946c 7f3d 1f4e 13be
000000e0: fbdc 173e cb9f 31be 9867 d73d c3f8 a1bd
000000f0: 7e7d 34be 218c 583e 8ce2 183e 6fff e83b
00000100: 70cd 4fbd d79a e4bd 6e6b 69bd e000 fa3d
00000110: cbca 19be 42f7 fbbc 771e 6f3d 7919 3d3e
00000120: 9e76 aa3d 4d5b 323e 451a 103c 6469 003d
00000130: a79d 6c3d c08e 07bd 10eb 5a3c fa12 363e
00000140: 441e 19be 6196 9bbc dd31 c43d a4ba 1b3e
00000150: 2066 25be 1e17 f2bd 704e f9bc cc1f 74bd
00000160: 8dea f8bc 57bc a03d 3384 86bd a62c 323e
00000170: b99f aebd 2884 193e 5a93 2e3e 3e7e 393e
00000180: 5c72 50bd c973 d4bd 0495 923d f164 f43c
00000190: d915 11bd 9923 84bd b861 123e 81bc 43bc
000001a0: 8bd8 113e facb 853d 0b8d 0fbe b096 903d
000001b0: 0392 d33d 5abe ed3d 302a 683c b18b c5bc
000001c0: 522a 0ebe 937b 873c 2a0e b9bc 7f17 2fbc
000001d0: 662b 9d3d 2cd8 04bd 508e 33bd 0076 bebb
000001e0: 3b7b 0ebe a825 133d 0392 2d3e 1a13 a0bd
000001f0: a713 0a3e 7cb6 043d afec 90bd f36a ab3d
00000200: 40d6 993b a4c9 b1bd 16cf b33d 7dc6 ecbd
00000210: b27d dcbd d447 e43c d9bc 083e 6049 883d
00000220: 89e9 05be 84ee 623d 1e88 8fbd 1f0e 26be
00000230: 076f 273e 58e5 c8bd baa4 a73d f7cf 0ebe
00000240: 66a7 a8bd ed0f 323e 6b0e d53c 2a6b acbc
00000250: 1ab7 f03d 5039 b23c 6ce3 2ebd 5f6b 133e
00000260: 2529 f6bd 75af 0fbe de25 11be a6e8 c53d
00000270: d5e8 8abd 4821 23be 2c39 30be f040 f53d
00000280: 009b fd3b 82a6 fd3d 043e f2bd c60a be3d
00000290: 672e 0d3e b945 053e aa5a 21be 1e30 d53d
000002a0: 4b99 343e 061b eb3d 0ffa 9cbd d3cc 2e3e
000002b0: e6de c43d 10a7 f93c 68dd 863c 1c6a b9bd
000002c0: c0bf cebd d2ca e43d f02c 8b3c b6af 2bbe
000002d0: fadd c73d 9daa 333e 3e54 f93d 06a7 5cbd
000002e0: 1e75 63bd bb17 0f3e dec3 b7bd 4879 543d
000002f0: 0493 483d 66e0 efbd bc52 2ebe 7541 303e
00000300: eecd 9d3d 3894 b03c c260 e23d b815 283d
00000310: e0b0 86bb cb18 23be 8b5a 1a3e fa1d 983d
00000320: bbdc 113e 303e f43c 2a52 cc3d 491f 1c3e
00000330: 64a8 853d 6a28 a23d 78a2 0bbe 7fd0 143e
00000340: bbbb 043e ce69 c03d 6062 f6bd c0fe 89bb
00000350: d9f8 223e 054f 15be d023 8ebc e00b 213c
00000360: 6868 8c3c 1f59 8abd c04a d4bb cffe 23be
00000370: 5e0f e93d 4820 d7bd 18cd ccbd 20e3 1d3d
00000380: 8840 ecbc 1320 233e 7874 a73c 0413 8dbd
00000390: 1970 203e 16b7 d0bd 0bc0 0b3e 77df 203e
000003a0: abb4 173e 20ad b6bd c4a6 0abe b008 09bc
000003b0: a88f af3c 64ba 4f3d ccf5 1bbe c4b0 123d
000003c0: dee3 a73d a2fa 27be 9800 ae3c 3eb6 ff3d
000003d0: 364a fd3d d025 aebd ee40 d53d d87b e33c
000003e0: 4ca6 b0bd 7265 ba3d 6851 c0bc 0095 0ebe
000003f0: 8b60 a0bd e802 aa3c 63e5 06be 18c1 11be

grat.grat2.fc.bias f4 [32]
-6.1661194e-07 -0.23666883 -0.061502047 0.18540618 -3.03095e-05 -0.04228191 -0.07862587 -0.16043463
0.509576 -0.22278903 -0.15528177 -0.097800754 -0.10771715 -0.09726509 -0.16126825 -0.056218352
0.0030192705 -0.061756626 0.80358446 1.197536 0.72368264 0.424792 -0.03272973 -0.024974614
-0.036733367 -0.21010093 2.6152394 -0.24683553 -0.2267949 -0.076320335 -0.116880044 -0.099914856
00000000: 4085 25b5 5059 72be 92e9 7bbd 1edb 3d3e
00000010: 2841 feb7 cc2f 2dbd 9a06 a1bd fa48 24be
00000020: 9373 023f cf22 64be 2f02 1fbe c34b c8bd
00000030: cf9a dcbd eb32 c7bd 8123 25be 3745 66bd
00000040: f4de 453b 84f4 7cbd b6b7 4d3f dc48 993f
00000050: 4443 393f 567e d93e 9c0f 06bd 9097 ccbc
00000060: ba75 16bd b324 57be 1560 2740 74c2 7cbe
00000070: ec3c 68be d64d 9cbd ce5e efbd 29a0 ccbd

grat.grat2.attn_fc.weight f4 [1, 64]
-0.10196768 -0.116173774 -0.025312126 0.048623543 -0.008288588 0.06175021 -0.048708197 0.028640918
-0.015087828 -0.075995535 0.06997609 -0.04615453 0.032837432 -0.008005023 -0.06841181 0.049929764
-0.07097693 0.08627896 -0.041901883 -0.08230026 -0.11846195 -0.027564406 -0.006125301 -0.004620999
0.0405163 0.11267534 0.05487646 0.098262936 -0.121336445 0.11116054 0.009248768 -0.014839455
0.05360228 7.5941054e-05 -0.040327176 0.21909218 -0.05579683 0.82500726 -0.06697892 0.6212443
0.12155178 0.11982207 0.27488938 0.09714554 0.34176627 -0.051082864 0.0685706 0.07108381
-0.12173112 0.28796268 0.6843978 0.5681305 0.034983132 0.042347386 -0.11892733 -0.08760457
0.8278488 -0.015218928 0.06031318 -0.005571328 0.061938375 0.28609902 0.38550395 -0.043088708
00000000: 6ed4 d0bd 84ec edbd 605b cfbc 7b29 473d
00000010: dccc 07bc caed 7c3d 3f82 47bd 5ca0 ea3c
00000020: f032 77bc 8ca3 9bbd a04f 8f3d 880c 3dbd
00000030: 8b80 063d 8027 03bc 7e1b 8cbd 2783 4c3d
00000040: 5a5c 91bd 06b3 b03d 4fa1 2bbd 0a8d a8bd
00000050: 2e9c f2bd c0ce e1bc c0b6 c8bb c06b 97bb
00000060: 6bf4 253d 54c2 e63d 24c6 603d 143e c93d
00000070: 3e7f f8bd 23a8 e33d 2588 173c 2f21 73bc
00000080: 108e 5b3d 8b42 9f38 1c2e 25bd b359 603e
00000090: 388b 64bd ad33 533f 3e2c 89bd de09 1f3f
000000a0: 24f0 f83d 4665 f53d 4dbe 8c3e 3ef4 c63d
000000b0: fdfb ae3e 443c 51bd be6e 8c3d 6394 913d
000000c0: 2a4e f9bd d86f 933e b234 2f3f 0071 113f
000000d0: 794a 0f3d 7474 2d3d 2c90 f3bd 066a b3bd
000000e0: e6ed 533f d058 79bc f40a 773d b08f b6bb
000000f0: 18b3 7d3d 927b 923e c660 c53e c97d 30bd

grat.grat3.fc.weight f4 [1, 32]
-0.11389899 -0.21653262 -0.049350068 0.13121217 -0.11068238 0.13619937 0.09111835 -0.1076727
0.47910532 -0.16420126 -0.14228188 -0.08026653 0.0343322 -0.114448756 0.05941833 -0.07456031
-0.019004986 0.15655138 0.7489067 1.1509691 0.6882549 0.36507508 -0.15952761 0.0405892
0.09019394 -0.16190057 2.5446637 -0.23107168 -0.2014665 -0.07139592 0.113984704 0.09923269
00000000: e043 e9bd baba 5dbe 4c23 4abd 7c5c 063e
00000010: 72ad e2bd d977 0b3e 429c ba3d 8183 dcbd
00000020: 4b4d f53e 6024 28be 57b2 11be c762 a4bd
00000030: ec9f 0c3d 1c64 eabd a360 733d 13b3 98bd
00000040: 58b0 9bbc 014f 203e 59b8 3f3f f552 933f
00000050: 7931 303f 1feb ba3e 355b 23be dc40 263d
00000060: 9ab7 b83d 43c9 25be c5db 2240 0e9e 6cbe
00000070: 3c4d 4ebe 0638 92bd d070 e93d 823a cb3d

grat.grat3.attn_fc.weight f4 [1, 64]
0.10677544 -0.48758814 -0.29473212 0.056446925 0.08290853 0.08430515 -0.08036092 0.022857651
0.18503013 -0.39626825 -0.4186902 -0.33444604 -0.008768819 -0.2867891 0.06338486 -0.34664133
-0.024486762 -0.014316831 0.08908793 0.08607299 0.11799102 0.037540074 0.012293622 -0.091087654
-0.04771093 -0.58572114 0.3177791 -0.5822689 -0.5611321 -0.06226185 0.04391256 0.12452082
0.11267335 0.016391162 0.06493085 -0.09698019 0.025008375 -0.039966866 0.04778315 -0.055816084
0.11743206 0.10198236 -0.02376405 -0.057975154 -0.0074194483 0.08153522 0.04328891 0.08530996
-0.04481071 0.09929994 -0.27650702 0.10964841 -0.13546647 -0.13212585 -0.11293119 0.048821405
-0.094280966 0.11031867 -0.4510316 0.045010142 0.088948205 0.09126659 0.09392918 0.050156936
00000000: 15ad da3d 27a5 f9be 21e7 96be e434 673d
00000010: f3cb a93d 2ea8 ac3d 4494 a4bd f83f bb3c
00000020: 8a78 3d3e ace3 cabe 905e d6be 833c abbe
00000030: 18ab 0fbc 05d6 92be eccf 813d f97a b1be
00000040: 7698 c8bc 2491 6abc bc73 b63d 0947 b03d
00000050: 47a5 f13d 9fc3 193d 306b 493c 2a8c babd
00000060: 896c 43bd d2f1 15bf f1b3 a23e 930f 15bf
00000070: 5aa6 0fbf 4806 7fbd a8dd 333d c604 ff3d
00000080: 49c1 e63d c246 863c 77fa 843d 8d9d c6bd
00000090: 5dde cc3c 4cb4 23bd 44b8 433d 689f 64bd
000000a0: 3880 f03d 21dc d03d d3ac c2bc 5b77 6dbd
000000b0: d81e f3bb f0fb a63d b64f 313d fdb6 ae3d
000000c0: 6f8b 37bd c45d cb3d 5492 8dbe 588f e03d
000000d0: b9b7 0abe 004c 07be 7848 e7bd f4f8 473d
000000e0: 6116 c1bd c1ee e13d 9ded e6be 8e5c 383d
000000f0: 7a2a b63d fae9 ba3d f15d c03d 5c71 4d3d
