Models/runs/optuna_sage_2/SAGE_1_mut_0.5_cross_0.5_type_two_point_iter_150/SAGE1_seed_13_thr_5_date_03-24_19-05.pt (torch, 1443 bytes, 3 tensors)

conv1.lin_l.weight f4 [2, 5]
000000 5d 74 89 40 44 48 6c 40 70 8b 35 3e ed ca 04 41
       4.2954545 3.6919107 0.17728972 8.299542
000010 ac 6d bb be c7 b9 c2 bf aa b1 95 c0 57 b2 f2 c0
       -0.3660711 -1.5212945 -4.6779375 -7.58427
000020 04 ec ef 3e 98 d0 f5 c0
       0.46859753 -7.681713

conv1.lin_l.bias f4 [2]
000000 3b 38 2f 40 6a 1b c2 3f
       2.737807 1.5164616

conv1.lin_r.weight f4 [2, 5]
000000 a0 a3 13 c1 66 59 a2 40 01 3a 62 c0 fc 61 9e c0
       -9.2274475 5.073413 -3.5347903 -4.949461
000010 a1 6c c6 c0 bc 39 0e c1 25 de 13 41 f0 b7 1c 40
       -6.2007604 -8.889095 9.2417345 2.4487267
000020 e6 72 b9 40 e6 2f 0d 41
       5.7952757 8.824194
