Models/runs/optuna_sage_4/SAGE_1_mut_0.5078_cross_0.5528_type_one_point_iter_100/SAGE1_seed_13_thr_5_date_04-06_07-25.pt (torch, 1443 bytes, 3 tensors)

conv1.lin_l.weight f4 [2, 5]
00000000: 1dae bdbf b2d5 b940 e142 c740 a1b5 adbf
00000010: 596e 8340 985c 9ac0 5de4 70c0 698e 5e40
00000020: 2b25 07c0 08b8 b0c0
-1.481876 5.807336 6.226914 -1.3571054 4.10722 -4.823803 -3.7639382 3.477442
-2.1116436 -5.5224648

conv1.lin_l.bias f4 [2]
00000000: adfa 4c40 8221 ff3f
3.2028 1.9932101

conv1.lin_r.weight f4 [2, 5]
00000000: d664 4ec0 cbfd 1fc1 1db4 d5c0 04a6 0041
00000010: de1d e5bf c658 2a40 b3e8 3a40 5592 c93f
00000020: 7ec9 b540 d7f3 e440
-3.2249045 -9.999461 -6.6782365 8.040531 -1.789974 2.6616683 2.9204528 1.5747782
5.680846 7.1547656
