Models/runs/optuna/SGConv_3_mut_0.1_cross_0.4_type_uniform_iter_100/SGConv3_seed_13_thr_5_date_03-15_22-20.pt (torch, 2647 bytes, 6 tensors)

conv1.lin.weight f4 [8, 5]
0	0xc0563bd8	-3.3474026
1	0xc086abe2	-4.208482
2	0x40f857c3	7.760713
3	0xc0065c6e	-2.0993915
4	0xbffbc331	-1.9668943
5	0xc07f35e5	-3.9876645
6	0xc09cfa1e	-4.905532
7	0xc111c7ff	-9.111327
8	0x3f99770e	1.1989458
9	0xc030bf96	-2.7616935
10	0xc10c8a1e	-8.78372
11	0xc001fc9e	-2.0310435
12	0xc1027b9e	-8.15518
13	0xc0cc4b04	-6.384157
14	0xc10547d6	-8.330038
15	0xc0cc0c7b	-6.3765235
16	0x40c8033c	6.250395
17	0xbf11afb2	-0.56908715
18	0x4077a206	3.8692641
19	0x3f2c867b	0.673927
20	0xc0c91593	-6.2838836
21	0xc0a95abd	-5.2923265
22	0xc1195221	-9.582551
23	0x3e829b75	0.2550923
24	0xbed5069e	-0.4160661
25	0x40df63d3	6.9809356
26	0x409803e8	4.750477
27	0x3ee11de0	0.43968105
28	0xc0c1510c	-6.0411434
29	0xc051989a	-3.274939
30	0x40ab3d68	5.351246
31	0x408a2115	4.3165383
32	0x40ebd19b	7.3693366
33	0xc112d302	-9.176516
34	0x405abfc9	3.4179556
35	0xc0ad72cd	-5.420264
36	0xc0176dee	-2.3660846
37	0xc07d07ae	-3.9535937
38	0xc0063719	-2.097113
39	0xbf66c65a	-0.9014641

conv1.lin.bias f4 [8]
0	0xc0663e26	-3.5975432
1	0xc118f201	-9.559083
2	0xc0555721	-3.333443
3	0xc1077740	-8.466614
4	0x3e914859	0.2837551
5	0xbf387ec6	-0.7206844
6	0xc00b8228	-2.179819
7	0xc10494dc	-8.286343

conv2.lin.weight f4 [8, 8]
0	0x40dc9d61	6.8942113
1	0x40a776c7	5.233249
2	0x40ccf9ea	6.405507
3	0xc0c7b9d5	-6.2414346
4	0x3ff751b8	1.9321814
5	0x3f65ca74	0.89762044
6	0xc04adc56	-3.1696982
7	0x411f75a0	9.966217
8	0xc0de1ea4	-6.9412403
9	0x410cab61	8.791841
10	0x403c010e	2.9375644
11	0x40f9a602	7.8015146
12	0x40f3a57e	7.6139517
13	0xc0bf892c	-5.9854946
14	0x4005d86a	2.0913339
15	0xc0a63dab	-5.195028
16	0xbf257ae6	-0.64640653
17	0xc03f100d	-2.9853547
18	0xc0c299ce	-6.081275
19	0xbf902c01	-1.1263429
20	0xc11f8807	-9.97071
21	0xc055efb3	-3.342755
22	0x407826c6	3.8773665
23	0x40b2e39c	5.5902843
24	0x40fe968b	7.955877
25	0x3f4d853c	0.80281425
26	0xbe6ced23	-0.23137335
27	0x40835527	4.1041446
28	0x402711c3	2.610459
29	0x3ff1f1dc	1.8901935
30	0x3dbb7175	0.091524996
31	0xc0d483e8	-6.641102
32	0xbf94b2e2	-1.1617091
33	0x40be96c3	5.9559035
34	0x3fc5b6c0	1.5446396
35	0xc0ba4483	-5.8208632
36	0x3fe22c49	1.7669765
37	0x40c587f2	6.172845
38	0xc0977b0b	-4.73377
39	0xc0b15526	-5.541644
40	0xc08947e4	-4.2900257
41	0x3fb16758	1.3859663
42	0xbfea67c0	-1.8312912
43	0xc106cf40	-8.425598
44	0x41138316	9.219503
45	0x40da0501	6.813111
46	0x40e3c205	7.117434
47	0x405b8d24	3.4304895
48	0xc0946b45	-4.6380944
49	0xbf9c4930	-1.2209835
50	0xc10d84dd	-8.844937
51	0xc09b1198	-4.8458977
52	0xc0a2f337	-5.0921893
53	0xc0a93079	-5.287167
54	0xc111668e	-9.087538
55	0xc0343a77	-2.8160684
56	0xc09cae71	-4.896294
57	0xbffb7396	-1.9644649
58	0x404be3a5	3.1857693
59	0x40d8abf9	6.7709928
60	0xc0693f12	-3.6444745
61	0xc09683f5	-4.703608
62	0xc06c0fc0	-3.6884613
63	0x410dd880	8.865356

conv2.lin.bias f4 [8]
0	0xc0871155	-4.2208657
1	0xc02d2575	-2.7054112
2	0x40844d76	4.1344557
3	0x40c829e6	6.2551146
4	0xc1107cbe	-9.030455
5	0xc0e7ea39	-7.2473416
6	0xbf1d0276	-0.6133188
7	0x3fc1db2d	1.5145012

conv3.lin.weight f4 [2, 8]
0	0x4074d089	3.825228
1	0xc09604e8	-4.688099
2	0xc07d5156	-3.9580894
3	0xc1122bc8	-9.135689
4	0x406fac49	3.7448905
5	0x40950dae	4.65792
6	0x3f7b3467	0.98126835
7	0xbe7665c5	-0.2406226
8	0xc116dfb8	-9.429619
9	0x40c425f7	6.1296344
10	0x40e1cd19	7.0562863
11	0xc0b6ff99	-5.718701
12	0x4026576c	2.5990858
13	0xc0d85888	-6.760807
14	0xbf946cf3	-1.1595749
15	0x40a08cff	5.0172114

conv3.lin.bias f4 [2]
0	0xc10b9987	-8.724982
1	0xbf93b8d2	-1.1540778
