Models/runs/GridSearch/GraphConv_3_mut_0.2_cross_0.4_type_uniform_iter_300/GraphConv3_seed_13_thr_5_date_03-11_11-17.pt (torch, 3979 bytes, 9 tensors)

conv1.lin_rel.weight f4 [8, 5]
00000000: 48ae 0ac0 6015 56c0 c2bd 0ac0 88ff 8040
00000010: 7895 6440 3c79 56c0 c413 d040 1b5e 3a40
00000020: e9c9 1cc1 94aa ebc0 81f6 72c0 86e1 a5c0
00000030: f38a f1bd 3ea2 f040 15b7 3940 2135 f440
00000040: 76e7 1d41 6389 4340 cefd 5fc0 9692 d740
00000050: 39fd edc0 6fd7 cdc0 81f0 13c1 c833 c3c0
00000060: d2a0 bfc0 92ae 97bf 9013 c0c0 e460 1041
00000070: 3521 fac0 9eab 0340 dcf4 66bf 6aee 0f40
00000080: 1112 6ec0 0968 1641 c7e4 01c1 7065 afc0
00000090: 5f1c 1f41 0651 bb40 fa25 8940 7d5b 01c1
-2.1668873 -3.3450546 -2.167832 4.031193 3.5716228 -3.3511496 6.502413 2.9119937
-9.799294 -7.3645725 -3.7962954 -5.1837797 -0.117940806 7.519805 2.9017994 7.6314855
9.869009 3.0552604 -3.499866 6.736644 -7.437161 -6.432548 -9.246217 -6.100071
-5.9883814 -1.185015 -6.002388 9.023655 -7.8165536 2.0573497 -0.90217376 2.2489266
-3.7198527 9.400399 -8.118354 -5.4811325 9.944427 5.8536406 4.285886 -8.084836

conv1.lin_rel.bias f4 [8]
00000000: 8413 02c0 8810 c0bf bc0c 1abf 81fe 7040
00000010: 86c1 00c0 1b53 03c1 3dfd 9fc0 1227 3b40
-2.0324411 -1.5005045 -0.6017568 3.7655337 -2.0118117 -8.207789 -4.999663 2.9242597

conv1.lin_root.weight f4 [8, 5]
00000000: 0c16 50c0 a4b2 8240 c9ec 33bf 6db1 17c1
00000010: ca0d 83c0 b3d2 1f41 b1f3 4040 a383 3f40
00000020: d900 9d40 2c26 ebc0 731f e9c0 0446 a440
00000030: a322 50bf e3a0 f0c0 768a 0ac0 a49a 583d
00000040: 647c b840 8d8c d8be 85f3 54c0 85a2 2440
00000050: f38d b740 fce0 f740 6272 34bf 2fc1 1741
00000060: 469d ee40 5c29 99bf 734e a7c0 9c67 d740
00000070: a8de 1041 a559 8c40 b0d5 edc0 02f3 1041
00000080: d8cb 1dc1 6bd8 9d3e 39cc 0ac1 f267 a53e
00000090: ed33 f9c0 c310 273d fe83 8cc0 8a1b ea3f
-3.2513456 4.0843067 -0.7028318 -9.480817 -4.095433 9.98894 3.0148737 2.9924095
4.9063535 -7.3484097 -7.285089 5.133547 -0.8130285 -7.5196395 -2.164701 0.05288185
5.7651844 -0.42294732 -3.3273633 2.5724194 5.736078 7.746214 -0.70487034 9.484664
7.4566984 -1.1965747 -5.2283263 6.7313976 9.054359 4.385943 -7.432335 9.059328
-9.862267 0.30829176 -8.674859 0.32305866 -7.7875886 0.04078747 -4.3911123 1.8289654

conv2.lin_rel.weight f4 [8, 8]
00000000: 6800 07c1 f6c8 1340 ff49 95bf 9d24 dbbd
00000010: dd00 12c1 7850 f840 7b29 e73f dd97 f940
00000020: d603 a2c0 f0c1 07c1 19f9 d040 d6de 3c40
00000030: 7a4d a7c0 61ec 4e40 b2da 94c0 a421 43c0
00000040: a267 90c0 4db3 1141 8269 b940 9b0a c73f
00000050: 3a0d d23f 7b83 09c1 88f9 43c0 3106 9240
00000060: fd8b b63f ae1e 903f 65a3 f5c0 d588 23c0
00000070: 3176 69c0 3322 f2bf b947 5ec0 dcae 0641
00000080: 3af8 8c40 50bd 4ec0 2dfe 40c0 29ac e5c0
00000090: 6069 18c1 4dd1 ec3f eef2 d840 c793 1c41
000000a0: 7212 ca40 72e3 8bc0 3382 81be 31b6 c5c0
000000b0: 0874 83c0 0d26 1c41 7ee3 09c0 bc9a acc0
000000c0: 588a bcc0 87f4 0940 8c58 11c0 bdcb 9b40
000000d0: ed3c 88c0 de3b 5a3f a9c4 13c0 e026 b140
000000e0: f0b6 0441 d0ea eabf 5444 ef40 8acb 28bf
000000f0: 22fa f340 8c75 05c1 ab4f 163e 7137 4ebe
-8.437599 2.3091407 -1.1663207 -0.10700343 -9.125211 7.759823 1.8059534 7.799788
-5.0629683 -8.484848 6.5304074 2.9511008 -5.2282076 3.2331774 -4.651696 -3.0489283
-4.5126505 9.106275 5.7941294 1.5550112 1.6410286 -8.5946 -3.0621052 4.563256
1.4261471 1.1259363 -7.6761956 -2.5552266 -3.6478388 -1.8916687 -3.4731276 8.41769
4.405301 -3.2303047 -3.0155137 -7.1772656 -9.525726 1.8501374 6.7796545 9.786078
6.3147516 -4.3715143 -0.25294647 -6.17849 -4.107914 9.75929 -2.15451 -5.3938885
-5.8918877 2.1555498 -2.2710295 4.8686204 -4.257437 0.852476 -2.3088782 5.5359955
8.294662 -1.8352909 7.477091 -0.65935576 7.624284 -8.341198 0.14678828 -0.20138337

conv2.lin_rel.bias f4 [8]
00000000: a436 4dc0 89b5 c240 e30e 89bf 7f40 10c1
00000010: 686d abc0 151a 4340 463a 1e40 b037 16c1
-3.20646 6.08466 -1.0707668 -9.015746 -5.3571053 3.048467 2.4723067 -9.388596

conv2.lin_root.weight f4 [8, 8]
00000000: b29c ed40 5822 05c0 8439 5bc0 e835 0abf
00000010: c76f 19c0 48ad 3c40 444a e6c0 8ce7 8840
00000020: f9bf fec0 a92c 37c0 7061 2fc0 a0a1 03c1
00000030: e706 9940 9069 d540 1f47 c1c0 d2ce 1bc0
00000040: 9a59 6c40 1040 a540 ebd4 0341 75c9 eb40
00000050: 8ad2 eec0 926d 0c41 72ec 6fc0 f6c4 79c0
00000060: f182 5940 08ad 0dc1 50f4 8640 57f9 91bf
00000070: 37d1 6dbf 8b59 05c0 584a 8f3f 21ac 7b3e
00000080: 4d92 f2bf fa3f eb3f 9f34 adbf 8e2b 0141
00000090: 06de 1b40 313b fe40 3e0a 8fbf 4efb 81bf
000000a0: 9ab8 fd3f 9c78 52bf 4a2d 6dc0 faa6 e040
000000b0: 5662 d540 cb39 1741 63db edc0 47b0 e3c0
000000c0: be1f 03c1 872d 8340 7bbd 0540 0867 ae3f
000000d0: b73e c240 faba 5fc0 0406 7ac0 337b b8c0
000000e0: bc02 e33f 8cda aa3f b9ad ea40 329a ad40
000000f0: ee99 a03f f192 a83f ad42 b8c0 15d2 5440
7.425378 -2.0802212 -3.4253855 -0.53988504 -2.3974473 2.9480762 -7.1965656 4.278265
-7.960934 -2.8621008 -2.740322 -8.226959 4.7820926 6.669136 -6.039932 -2.4344983
3.6929688 5.16407 8.239482 7.368342 -7.4632006 8.776751 -3.7488065 -3.9026465
3.398617 -8.854744 4.2173233 -1.1404217 -0.9289736 -2.0835903 1.1194563 0.2457738
-1.8950897 1.8378899 -1.3531684 8.073133 2.4354262 7.9447255 -1.1175001 -1.0154817
1.9821961 -0.82215285 -3.7058892 7.020383 6.668254 9.45161 -7.4330306 -7.115268
-8.19525 4.0993075 2.08969 1.3625193 6.0701556 -3.4957871 -3.9066172 -5.765039
1.773521 1.3347945 7.3337064 5.4250727 1.2546976 1.3169843 -5.758139 3.3253224

conv3.lin_rel.weight f4 [2, 8]
00000000: 273e a040 68d7 4d40 6a33 cd40 ea89 9a3d
00000010: dca8 19c1 0318 73c0 97e7 af3f 118d eb40
00000020: 1241 ee40 7bde cebe 5a7c 0541 801d 8740
00000030: 0605 c540 2ac0 1041 a4ff 8fc0 e53a bec0
5.007587 3.2162724 6.412526 0.07545836 -9.603725 -3.7983406 1.3742551 7.36097
7.445443 -0.40404114 8.342859 4.222351 6.156863 9.046915 -4.499956 -5.9446893

conv3.lin_rel.bias f4 [2]
00000000: 3771 efc0 7e50 a840
-7.48257 5.2598257

conv3.lin_root.weight f4 [2, 8]
00000000: 2483 6bc0 8d71 e240 79ef a93f 09b5 f7c0
00000010: 2600 0d41 122b 7fbe 104b 28c0 0fe1 9840
00000020: 9579 7840 f289 fec0 cee8 0741 4858 4d40
00000030: dec4 0c40 5d94 3c40 f28b 22c0 4477 bdbf
-3.6798792 7.076361 1.3276206 -7.740849 8.812536 -0.24918774 -2.6295815 4.777473
3.8824208 -7.954339 8.494337 3.2085133 2.1995158 2.9465554 -2.5397916 -1.4802022
