FastCover/runs/scalefree_MDH/checkpoints/Checkpoint-epoch-3.pt (torch, 12993 bytes, 8 tensors)

grat.grat1.fc.weight f4 [32, 32]
-0.14431447 -0.0072900504 0.10979645 -0.1714355 -0.17136626 0.03661655 -0.09482459 0.12844254
0.17178608 -0.10694792 -0.14742962 -0.026393488 0.14667888 -0.00710769 0.012298822 -0.08150631
-0.087321736 -0.056921065 0.119029716 -0.13121068 0.16594009 -0.017849803 -0.034272045 0.11322065
0.16942157 -0.06087718 -0.03266774 0.08047728 -0.01745464 -0.09426956 -0.16225412 -0.09045837
0.008641392 0.08629714 0.14056085 -0.11033758 -0.06136127 -0.10004675 0.053112283 -0.15015323
0.13607772 -0.18697862 0.070329264 -0.06079258 0.06398068 0.08631505 0.12957932 -0.08058603
-0.1470379 0.09599109 0.027724624 -7.390976e-06 -0.12268312 0.120519176 0.03995815 -0.020175248
-0.124450006 0.021336824 -0.16244096 0.011597484 -0.17532131 -0.06870663 -0.07055436 -0.0746056
-0.1588296 -0.16702995 -0.046202853 0.028266141 0.12315803 0.16349682 0.04425642 -0.15734905
-0.1763251 -0.071652375 -0.09731782 0.017304817 -0.060188986 -0.11305988 -0.14453208 0.042006344
0.14469591 -0.093629 -0.16538116 0.15943116 -0.12464837 0.09263965 0.029689694 0.12523797
-0.08196649 0.077517115 0.09345221 0.09318482 -0.13876359 0.0454783 0.091972195 -0.14814664
0.05964192 0.022646347 -0.06130258 -0.033483602 0.027403885 -0.17522623 -0.072720416 -0.1504414
-0.08338239 -0.1249827 -0.09879884 0.1125999 0.10707807 0.097247265 0.105046235 -0.14350495
-0.17878549 -0.022641411 -0.1602966 0.1342768 0.09914156 0.01647597 0.026288474 -0.10721407
-0.022084331 -0.010985902 0.021374905 0.015544066 0.14322779 -0.09937292 0.07124805 -0.0007018354
-0.18971136 0.042981442 0.089086846 0.12862712 -0.0069593596 -0.07953879 -0.12208856 0.08375116
-0.1694625 -0.1539668 0.113768026 -0.052839 0.046354916 -0.022161268 -0.10178053 -0.022312544
0.05618679 -0.053930927 -0.07250391 -0.09315616 -0.21816406 0.00049329136 -0.09934924 -0.18655005
0.10047306 0.040860828 -0.038974393 -0.13672346 -0.071188614 0.066761956 -0.09170127 0.04279193
-0.07932746 0.07871144 -0.24126306 -0.021920405 -0.24692115 0.08768811 -0.0022413805 0.061323427
-0.033001162 0.10005476 0.09729033 -0.092742704 0.06736853 -0.031706892 -0.21386412 0.008770786
-0.03354136 0.022698723 -0.03429029 -0.064100675 -0.17843154 -0.011137821 -0.12151349 -0.015309267
0.0955983 0.0847865 -0.04198753 -0.09050765 -0.10514056 0.06458866 0.010073744 -0.08216981
0.12586716 -0.01999963 0.12447678 -0.15941256 -0.0625769 0.13193548 0.12889382 0.0027847216
-0.08798098 -0.115630195 -0.020259 -0.0049647614 -0.18161908 0.043111555 0.069991104 0.1157079
-0.041847207 -0.20433623 -0.07495887 -0.03536997 -0.0885276 0.1036595 -0.11164536 -0.05033887
-0.17298809 -0.032608382 -0.107866324 -0.15034238 0.09119224 0.033183537 -0.18034106 -0.20498219
0.0673163 -0.003927212 -0.024635676 0.038613662 -0.027823746 0.06521099 0.013442012 0.06969152
-0.17470905 -0.20019832 -0.13913661 0.077840835 -0.028658394 0.12707938 0.084621996 -0.007997843
0.0046500675 0.061340205 -0.02926961 0.06489702 0.011305699 -0.20894009 0.0387498 0.07639487
-0.08520061 0.02953551 -0.1113742 0.030128263 -0.20527035 -0.0026231539 -0.07495068 0.05286365
00000000: 2cc7 13be 60e1 eebb f6dc e03d ca8c 2fbe
00000010: a37a 2fbe 3cfb 153d 6533 c2bd 7186 033e
00000020: b1e8 2f3e 8307 dbbd caf7 16be 2837 d8bc
00000030: fd32 163e a0e7 e8bb 0081 493c c8ec a6bd
00000040: bdd5 b2bd 1026 69bd dac5 f33d 185c 06be
00000050: 33ec 293e c039 92bc d860 0cbd 3ae0 e73d
00000060: d97c 2d3e 5a5a 79bd 9cce 05bd 46d1 a43d
00000070: 08fd 8ebc 6610 c1bd f225 26be 3d42 b9bd
00000080: a094 0d3c 8ebc b03d 2fef 0f3e abf8 e1bd
00000090: f455 7bbd 4fe5 ccbd 448c 593d c5c1 19be
000000a0: f557 0b3e 5377 3fbe ca08 903d a401 79bd
000000b0: 4e08 833d f2c5 b03d 71b0 043e 4a0a a5bd
000000c0: 1a91 16be fa96 c43d c01e e33c 0000 f8b6
000000d0: 4a41 fbbd c2d2 f63d 28ab 233d 9046 a5bc
000000e0: a5df febd 90ca ae3c ec56 26be 6003 3e3c
000000f0: 6e87 33be 10b6 8cbd ce7e 90bd d2ca 98bd
00000100: 3aa4 22be e609 2bbe 343f 3dbd 658e e73c
00000110: 473a fc3d b66b 273e 3846 353d 1c20 21be
00000120: 918e 34be 7bbe 92bd 914e c7bd d5c2 8d3c
00000130: ba88 76bd f08b e7bd 3800 14be d80e 2c3d
00000140: 2a2b 143e 90c0 bfbd ae59 29be ec41 233e
00000150: a547 ffbd dbb9 bd3d cd37 f33c 623e 003e
00000160: 0cde a7bd 4bc1 9e3d df63 bf3d afd7 be3d
00000170: 0b18 0ebe 7447 3a3d eb5b bc3d c1b3 17be
00000180: 164b 743d d584 b93c 6a18 7bbd 1a26 09bd
00000190: 1d7e e03c 816e 33be 71ee 94bd 4f0d 1abe
000001a0: 63c4 aabd eef6 ffbd 0c57 cabd c79a e63d
000001b0: bf4b db3d 9329 c73d 7b22 d73d f6f2 12be
000001c0: 8b13 37be 7b7a b9bc cb24 24be dc7f 093e
000001d0: bb0a cb3d 9df8 863c ed5a d73c 0d93 dbbd
000001e0: 33ea b4bc 36fe 33bc 6d1a af3c 8aac 7e3c
000001f0: 4eaa 123e 0884 cbbd 7fea 913d 60fb 37ba
00000200: b243 42be 4f0d 303d 2a73 b63d d4b6 033e
00000210: 570b e4bb 3ce5 a2bd 9109 fabd ba85 ab3d
00000220: 9487 2dbe 79a9 1dbe 36ff e83d b56d 58bd
00000230: a7de 3d3d 8c8b b5bc 4f72 d0bd ccc8 b6bc
00000240: 1f24 663d ade6 5cbd ee7c 94bd a8c8 bebd
00000250: 6666 5fbe 3950 013a 9d77 cbbd fa06 3fbe
00000260: d2c4 cd3d af5d 273d 9da3 1fbd 3c01 0cbe
00000270: 56cb 91bd 7eba 883d e0cd bbbd 9746 2f3d
00000280: 6f76 a2bd 7733 a13d aa0d 77be 6c92 b3bc
00000290: e6d8 7cbe d395 b33d 20e4 12bb 462e 7b3d
000002a0: 3a2c 07bd 83e9 cc3d 2740 c73d e3ef bdbd
000002b0: 83f8 893d 16df 01bd 32ff 5abe 58b3 0f3c
000002c0: aa62 09bd acf2 b93c fa73 0cbd 3747 83bd
000002d0: c2b6 36be 687b 36bc 11dc f8bd b8d3 7abc
000002e0: 0bc9 c33d 8ba4 ad3d 1efb 2bbd 135c b9bd
000002f0: ef53 d7bd 0f47 843d 580c 253c a548 a8bd
00000300: 52e3 003e 44d6 a3bc afed fe3d 0c3d 23be
00000310: 5128 80bd 181a 073e befc 033e e07f 363b
00000320: 5f2f b4bd 86cf ecbd 34f6 a5bc 70af a2bb
00000330: 5afa 39be be95 303d 7f57 8f3d 43f8 ec3d
00000340: fa67 2bbd 843d 51be 0984 99bd 1ae0 10bd
00000350: f54d b5bd 6f4b d43d 53a6 e4bd 2230 4ebd
00000360: ca23 31be 5e90 05bd 05e9 dcbd 5af3 19be
00000370: ffc2 ba3d 76eb 073d 54ab 38be dae6 51be
00000380: 21dd 893d d8af 80bb c2d0 c9bc 5c29 1e3d
00000390: a0ee e3bc 578d 853d e23b 5c3c 6dba 8e3d
000003a0: eee6 32be ca00 4dbe d479 0ebe 046b 9f3d
000003b0: 02c5 eabc 1921 023e 4c4e ad3d 6309 03bc
000003c0: 985f 983b de3f 7b3d d2c6 efbc bbe8 843d
000003d0: 8a3b 393c 64f4 55be 1cb8 1e3d ea74 9c3d
000003e0: a87d aebd 74f4 f13c 2818 e4bd 8ccf f63c
000003f0: 6432 52be 38e9 2bbb be7f 99bd 8e87 583d

grat.grat1.fc.bias f4 [32]
-0.06425894 -0.082387365 0.06979162 -0.12653856 0.029219894 -0.108964466 -0.03651629 1.020911
-0.052004658 0.0023179054 0.10987857 0.036866046 -0.17550626 0.025037283 -0.1276908 0.98766166
-0.066892214 -0.20411918 -0.13753916 0.6969326 -0.13724738 0.024150318 0.0034479345 -0.1197668
0.84701514 0.10105211 0.17874597 -0.030185536 -0.12724726 -0.078309044 1.9699143 0.13592558
00000000: 319a 83bd b5ba a8bd e9ee 8e3d 5393 01be
00000010: 8f5e ef3c c328 dfbd 1b92 15bd 36ad 823f
00000020: d602 55bd 00e8 173b 0408 e13d da00 173d
00000030: eab7 33be fd1a cd3c 61c1 02be 65d7 7c3f
00000040: c9fe 88bd 9e04 51be 11d7 0cbe 2d6a 323f
00000050: 948a 0cbe e3d6 c53c bef6 613b 4c48 f5bd
00000060: fcd5 583f 69f4 ce3d 2f09 373e a847 f7bc
00000070: 1b4d 02be 7e60 a0bd 2726 fc3f 1330 0b3e

grat.grat1.attn_fc.weight f4 [1, 64]
0.122219294 0.06399892 0.06914328 0.029590655 -0.005109588 -0.0047508427 0.12197293 0.116571456
-0.10606824 -0.11456749 0.055055525 0.049985778 0.094713464 0.10470751 0.101775885 -0.03985468
0.054266166 -0.07271503 -0.08649537 -0.02356812 0.03144313 0.09225795 -0.06943603 -0.077983394
-0.11390577 0.0022645858 0.04333369 -0.07805762 -0.0712242 0.025396232 0.11266656 -0.011804091
-0.0041565546 0.04658064 -0.12002854 0.05245137 -0.11436595 0.08677471 -0.10224779 0.07877748
-0.044035677 -0.016317751 -0.009360822 0.11156921 -0.0956576 0.015324412 -0.005449111 0.026831869
0.12328859 0.0427314 -0.103701994 0.06348844 -0.025755238 -0.11829969 0.09641108 0.07707301
-0.123945534 -0.0847909 0.111509904 -0.055836696 0.09624681 0.12229371 0.12061064 0.099988714
00000000: 1c4e fa3d de11 833d fe9a 8d3d 1a68 f23c
00000010: 556e a7bb f5ac 9bbb f2cc f93d 04bd ee3d
00000020: 4e3a d9bd 5ca2 eabd e781 613d e3bd 4c3d
00000030: 22f9 c13d e470 d63d e06f d03d a93e 23bd
00000040: 3346 5e3d 9eeb 94bd 7c24 b1bd ee11 c1bc
00000050: 83ca 003d bcf1 bc3d 7a34 8ebd c2b5 9fbd
00000060: 6e47 e9bd 7269 143b ab7e 313d acdc 9fbd
00000070: fedd 91bd c20b d03c babd e63d f265 41bc
00000080: b533 88bb 57cb 3e3d 86d1 f5bd 3fd7 563d
00000090: b238 eabd f0b6 b13d 4a67 d1bd 1656 a13d
000000a0: c15e 34bd ceac 85bc 225e 19bc 667e e43d
000000b0: 22e8 c3bd 3e13 7b3c 758e b2bb 82ce db3c
000000c0: ba7e fc3d 1f07 2f3d b661 d4bd 3a06 823d
000000d0: a6fc d2bc 1c47 f2bd 2c73 c53d 74d8 9d3d
000000e0: 28d7 fdbd daa6 adbd 4e5f e43d 05b5 64bd
000000f0: 0c1d c53d 2075 fa3d b602 f73d e2c6 cc3d

grat.grat2.fc.weight f4 [32, 32]
0.06540069 0.0797681 0.000911563 -0.0018394295 -0.12254286 -0.09467479 0.13798721 -0.116649434
0.076293275 0.1386198 0.05987092 -0.07549812 0.17065354 -0.16405936 -0.050265893 0.13139972
0.07682015 -0.0871225 -0.16968694 0.08186453 0.03390938 0.16855147 -0.0854879 -0.03208001
-0.1521202 -0.17452839 0.1469568 -0.023025865 0.08033399 -0.15186217 -0.046939343 -0.0030300824
0.12638561 -0.058501612 -0.049839176 -0.059848864 0.022172572 0.029608786 -0.11502283 -0.05032535
0.12897281 -0.05076036 0.18500659 -0.018113824 0.12804973 -0.098584116 0.0070831627 0.10035371
-0.08671044 -0.08748551 0.10277152 0.1443831 -0.07152609 -0.15741292 0.06235941 -0.1438527
-0.08069699 -0.17332944 0.105121344 -0.029192254 -0.17625996 0.18187448 -0.008153983 0.06765192
-0.05073303 -0.10145747 -0.056979515 0.10881818 -0.13927342 -0.072449535 0.06326766 -0.07029444
0.08323406 0.17417641 -0.008146189 0.03134877 0.026919963 -0.03309499 0.013361707 0.1129544
-0.14952952 -0.022169769 0.038832717 0.015383031 -0.158823 -0.11820818 -0.03043291 -0.059600636
-0.1924313 0.07848494 -0.0656722 0.17910625 -0.085265584 0.10144344 -0.08759124 0.19961286
-0.05089031 -0.09314382 0.07154239 0.036495194 -0.02582128 -0.00454833 0.14656082 -0.24597614
0.14242761 0.06533046 -0.11388608 0.070535764 0.09740908 0.116084374 0.0141702145 -0.11843096
-0.13883331 0.031820115 -0.013707582 -0.086378194 0.07878485 -0.032433607 -0.04383689 -0.0058124065
-0.25651053 0.03591037 0.16944924 -0.07412004 0.1348406 -0.011282645 -0.26258913 0.113640726
0.00469473 -0.086720556 0.08779733 -0.11532363 -0.10766048 0.029098526 0.1335329 0.06559689
-0.13077368 0.055403247 -0.06959079 -0.16216324 0.16394784 -0.09809369 0.08185716 -0.13948005
-0.08235054 0.1741954 0.027144045 -0.02330116 0.11753674 0.021755844 -0.042697355 0.14396428
-0.1196919 -0.14031775 -0.14174601 0.09670751 -0.067826904 -0.15862414 -0.17166722 0.119985774
0.0077394247 0.117494814 -0.11829876 0.090530574 0.1304083 0.09618975 -0.16034383 0.08389363
0.17636602 0.11479764 -0.0925615 0.17068204 0.09232838 0.030474586 0.016462997 -0.104844764
-0.10095167 0.10296629 -0.0150555335 -0.18767004 0.0960987 0.17545511 0.12174271 -0.053870223
-0.06904464 0.13973226 -0.08975541 0.03863287 0.04896833 -0.1449946 -0.19236726 0.15346786
0.077052936 0.021555051 0.1105359 0.041036338 -0.004110435 -0.15927427 0.15073602 0.06918535
0.14244358 0.02981481 0.09976495 0.15246433 0.065262586 0.07917866 -0.13636196 0.14304024
0.12962238 0.09395181 -0.12030482 -0.011325838 0.1591524 -0.14580925 -0.017351061 0.009829491
0.013581933 -0.067553826 -0.0064801876 -0.1601517 0.11379884 -0.10504204 -0.101730384 0.038564496
-0.028839365 0.15930204 0.020414805 -0.068883926 0.15667762 -0.10191171 0.13647477 -0.0758605
0.14815013 -0.0891974 -0.13540483 -0.0084218765 0.007147424 0.050713755 -0.15230483 -0.06562593
0.08197759 -0.16404203 -0.021712318 0.03459741 0.1236767 -0.08503379 0.10412775 0.027769014
-0.21078856 0.09100212 -0.023520684 -0.1526197 -0.07830914 -0.057842784 -0.32735974 -0.14293689
00000000: ccf0 853d 755d a33d f5f5 6e3a 0319 f1ba
00000010: c0f7 fabd dbe4 c1bd 854c 0d3e e6e5 eebd
00000020: a63f 9c3d 59f2 0d3e 363b 753d c29e 9abd
00000030: cdbf 2e3e 2dff 27be 9ce3 4dbd a68d 063e
00000040: e253 9d3d 486d b2bd 6ac2 2dbe 97a8 a73d
00000050: 90e4 0a3d c298 2c3e 4814 afbd 5466 03bd
00000060: 66c5 1bbe 92b7 32be d87b 163e bda0 bcbc
00000070: 2686 a43d c281 1bbe 7843 40bd 5994 46bb
00000080: 3b6b 013e 639f 6fbd 2a24 4cbd 1524 75bd
00000090: 41a3 b53c 208e f23c 1791 ebbd f421 4ebd
000000a0: 7311 043e 18ea 4fbd 5e72 3d3e 7163 94bc
000000b0: 781f 033e 78e6 c9bd e019 e83b 3f86 cd3d
000000c0: 3e95 b1bd 9a2b b3bd e079 d23d 2ad9 133e
000000d0: 457c 92bd da30 21be 956c 7f3d 1f4e 13be
000000e0: 7744 a5bd 467d 31be dc49 d73d 9824 efbc
000000f0: 7e7d 34be 4e3d 3a3e 4998 05bc 178d 8a3d
00000100: 70cd 4fbd efc8 cfbd 5a63 69bd 11dc de3d
00000110: b19d 0ebe 6c60 94bd 7a92 813d 88f6 8fbd
00000120: 9e76 aa3d 4d5b 323e 9877 05bc 9167 003d
00000130: 4187 dc3c 9d8e 07bd 10eb 5a3c a354 e73d
00000140: 441e 19be 609d b5bc 0e0f 1f3d 1c09 7c3c
00000150: 7fa2 22be 2117 f2bd 704e f9bc cc1f 74bd
00000160: b60c 45be b6bc a03d 257f 86bd a167 373e
00000170: b99f aebd 94c1 cf3d 0963 b3bd 5067 4c3e
00000180: 5c72 50bd 30c2 bebd d184 923d fc7b 153d
00000190: 2687 d3bc 280a 95bb 0a14 163e 2be1 7bbe
000001a0: 8bd8 113e facb 853d 1b3d e9bd 0e75 903d
000001b0: 697e c73d a5bd ed3d 302a 683c ee8b f2bd
000001c0: 522a 0ebe cf55 023d c495 60bc 0de7 b0bd
000001d0: f459 a13d 1ad9 04bd 508e 33bd 0076 bebb
000001e0: 5955 83be c116 133d 1a84 2d3e 3fcc 97bd
000001f0: a713 0a3e d8da 38bc 1572 86be 78bc e83d
00000200: 40d6 993b 8c9a b1bd 16cf b33d cc2e ecbd
00000210: 197d dcbd 0860 ee3c d9bc 083e aa57 863d
00000220: 89e9 05be 84ee 623d 9e85 8ebd 1f0e 26be
00000230: f1e1 273e 58e5 c8bd baa4 a73d dcd3 0ebe
00000240: 66a7 a8bd 4760 323e 305d de3c 13e2 bebc
00000250: 1ab7 f03d 5039 b23c 6ce3 2ebd 5f6b 133e
00000260: 0721 f5bd 75af 0fbe de25 11be 960e c63d
00000270: d5e8 8abd 5e6e 22be 88c9 2fbe 1abb f53d
00000280: 009b fd3b 1fa1 f03d 9f46 f2bd 1868 b93d
00000290: c189 053e 22ff c43d 2c31 24be 6cd0 ab3d
000002a0: 4b99 343e 061b eb3d e290 bdbd 46c7 2e3e
000002b0: a916 bd3d d7a5 f93c 68dd 863c dab8 d6bd
000002c0: c0bf cebd fedf d23d 7cab 76bc 932c 40be
000002d0: 65cf c43d 81aa 333e 3e54 f93d 06a7 5cbd
000002e0: 4767 8dbd f915 0f3e afd1 b7bd 803d 1e3d
000002f0: 0493 483d 7779 14be ecfb 44be ae26 1d3e
00000300: eecd 9d3d 3894 b03c a560 e23d b815 283d
00000310: d4b0 86bb cb18 23be 8b5a 1a3e 0cb1 8d3d
00000320: bbdc 113e 303e f43c 9151 cc3d 9c1f 1c3e
00000330: 64a8 853d 6c28 a23d 78a2 0bbe 2479 123e
00000340: bbbb 043e ce69 c03d 6062 f6bd 0290 39bc
00000350: d9f8 223e 054f 15be d023 8ebc e00b 213c
00000360: c286 5e3c a959 8abd c157 d4bb cffe 23be
00000370: 5e0f e93d 4820 d7bd 0558 d0bd cef5 1d3d
00000380: 8840 ecbc 1320 233e f33c a73c 0413 8dbd
00000390: 1970 203e 16b7 d0bd 0bc0 0b3e c05c 9bbd
000003a0: abb4 173e 20ad b6bd 90a7 0abe e9fb 09bc
000003b0: f034 ea3b 3ab9 4f3d ccf5 1bbe e366 86bd
000003c0: dee3 a73d a2fa 27be 08de b1bc 04b6 0d3d
000003d0: 364a fd3d 3226 aebd ee40 d53d d87b e33c
000003e0: f5d8 57be 525f ba3d 73ae c0bc 5748 1cbe
000003f0: 8b60 a0bd 8eec 6cbd b29b a7be 0c5e 12be

grat.grat2.fc.bias f4 [32]
0.022637874 0.013773652 -0.038118355 0.16862941 0.016318152 -0.049923394 -0.08311335 -0.18518364
1.0156528 -0.1713102 -0.107210845 0.019196194 -0.20642665 -0.0345124 -0.2130833 0.28599456
0.23629536 -0.11680133 0.011094276 -0.020289559 0.32626998 0.12884396 -0.02635834 -0.029510701
-0.07144942 0.19941875 0.004086652 1.536152 0.48864418 -0.076320335 -0.14999954 -0.099914856
00000000: 1073 b93c e2aa 613c fe21 1cbd 30ad 2c3e
00000010: a5ad 853c 797c 4cbd 5537 aabd c8a0 3dbe
00000020: e900 823f f16b 2fbe 5c91 dbbd 5641 9d3c
00000030: 8261 53be e05c 0dbd 8232 5abe e16d 923e
00000040: 69f7 713e 8935 efbd c4c4 353c 4a36 a6bc
00000050: dc0c a73e acef 033e 72ed d7bc 6dc0 f1bc
00000060: 1354 92bd 6e34 4c3e 52e9 853b a1a0 c43f
00000070: 922f fa3e d64d 9cbd 7b99 19be 29a0 ccbd

grat.grat2.attn_fc.weight f4 [1, 64]
-0.10196768 -0.11614705 -0.02531211 0.04862281 -0.008235863 0.061972868 -0.04869742 -0.35708436
-0.015087828 -0.075995535 0.07011131 -0.046154343 0.0021806676 -0.008005023 -0.06841181 -0.109168865
-0.07097693 0.08628632 -0.11907683 -0.23683752 -0.118458904 -0.027564406 -0.006125301 -0.004620999
-0.17341991 0.11267534 0.05487647 0.07588397 -0.121336445 -0.019186258 -0.3127085 -0.014648182
0.05360228 -0.040293556 -0.040271558 0.0777871 -0.054521736 0.11392015 -0.0676549 -0.250695
0.12155178 0.11982207 0.056071896 0.097284086 0.071270086 -0.051080063 0.0685706 -0.20965704
-0.12173112 0.076844886 -0.015208773 -0.044907432 0.03445172 0.042349353 -0.11892733 -0.08760457
-0.0022261664 -0.0151925655 0.060407862 -0.1311891 0.061938375 -0.1882875 -0.29398096 -0.12540448
00000000: 6ed4 d0bd 81de edbd 585b cfbc b628 473d
00000010: b7ef 06bc 43d7 7d3d f276 47bd c3d3 b6be
00000020: f032 77bc 8ca3 9bbd 8596 8f3d 560c 3dbd
00000030: 88e9 0e3b 8027 03bc 7e1b 8cbd ed93 dfbd
00000040: 5a5c 91bd e2b6 b03d 8ede f3bd 8985 72be
00000050: 959a f2bd c0ce e1bc c0b6 c8bb c06b 97bb
00000060: fd94 31be 54c2 e63d 26c6 603d 0e69 9b3d
00000070: 3e7f f8bd 802c 9dbc 541b a0be eefe 6fbc
00000080: 108e 5b3d db0a 25bd caf3 24bd d84e 9f3d
00000090: 2f52 5fbd f84e e93d a78e 8abd 185b 80be
000000a0: 24f0 f83d 4665 f53d a5ab 653d e13c c73d
000000b0: 0df6 913d 5439 51bd be6e 8c3d 56b0 56be
000000c0: 2a4e f9bd da60 9d3d 382e 79bc dbf0 37bd
000000d0: 3f1d 0d3d 8476 2d3d 2c90 f3bd 066a b3bd
000000e0: e0e4 11bb 3dea 78bc 3c6e 773d 6f56 06be
000000f0: 18b3 7d3d 70ce 40be ac84 96be 086a 00be

grat.grat3.fc.weight f4 [1, 32]
-0.028465994 0.25989446 -0.098087035 -0.0706737 -0.11094466 0.13569114 0.08964534 -0.08470582
1.1292565 -0.11885198 -0.037588924 0.0647035 -0.39159608 -0.59668547 -0.053343654 0.22325294
0.24228537 0.1401143 -0.2231739 -0.47436234 0.2640126 0.019568153 -0.16337883 0.022754535
0.1777585 0.26023537 0.115826294 1.4847448 0.4554857 -0.07139592 0.088130586 0.09923269
00000000: 8431 e9bc e310 853e dbe1 c8bd 5fbd 90bd
00000010: f436 e3bd 9ef2 0a3e fa97 b73d 3f7a adbd
00000020: 7a8b 903f ab68 f3bd d8f6 19bd 4583 843d
00000030: 487f c8be 61c0 18bf e07e 5abd 6b9c 643e
00000040: a819 783e 207a 0f3e b387 64be 9fdf f2be
00000050: a92c 873e 644d a03c c84c 27be b867 ba3c
00000060: 5306 363e 923d 853e 5636 ed3d 1e0c be3f
00000070: 6c35 e93e 0638 92bd cf7d b43d 823a cb3d

grat.grat3.attn_fc.weight f4 [1, 64]
0.106772274 0.7278155 0.47421238 0.11609315 0.08290942 0.08430516 -0.08036092 0.053009905
0.14761664 0.3251172 0.0803506 0.39516008 -0.008220627 0.10676531 0.063385665 0.47063655
0.71987885 -0.014316686 -0.008935802 -0.033047352 0.57800436 -0.0089604575 0.012293622 -0.091087654
0.09080228 0.21665531 -0.040097 1.157391 0.71721995 -0.06226185 0.0439127 0.12452082
0.112538345 2.2050269 1.5633851 0.01216851 0.02496471 -0.03996979 0.047054335 0.12578893
0.39938015 1.1599342 0.49665734 1.2930374 -0.005868339 0.288279 0.043995205 1.6211958
1.8248348 0.09929476 -0.11150979 0.06357792 1.5158757 -0.051731903 -0.116985716 0.041973513
0.34361205 1.2073591 0.019648638 3.7289174 2.4457054 0.09126659 0.09387828 0.050156936
00000000: 6cab da3d 1e52 3a3f f7cb f23e 3fc2 ed3d
00000010: 6acc a93d 2fa8 ac3d 4494 a4bd ea20 593d
00000020: d128 173e c375 a63e db8e a43d 6c52 ca3e
00000030: cfaf 06bc c5a7 da3d 58d0 813d 46f7 f03e
00000040: fb49 383f 8990 6abc 7867 12bc a95c 07bd
00000050: 18f8 133f e2ce 12bc 306b 493c 2a8c babd
00000060: 8cf6 b93d e4da 5d3e c03c 24bd 6325 943f
00000070: ba9b 373f 4806 7fbd cedd 333d c604 ff3d
00000080: 817a e63d 291f 0d40 011d c83f 6e5e 473c
00000090: cb82 cc3c 5db7 23bd 0cbc 403d d0ce 003e
000000a0: 8e7b cc3e b978 943f df49 fe3e 4082 a53f
000000b0: 324b c0bb 4e99 933e 5134 343d 5883 cf3f
000000c0: 3094 e93f 0d5b cb3d 3f5f e4bd 2435 823d
000000d0: 3708 c23f d5e4 53bd 3596 efbd 6bec 2b3d
000000e0: ebed af3e be8a 9a3f 2ef6 a03c 95a6 6e40
000000f0: 7086 1c40 fae9 ba3d 4143 c03d 5c71 4d3d
