Models/runs/optuna_sage_2/SAGE_1_mut_0.5_cross_0.5_type_one_point_iter_50/SAGE1_seed_13_thr_5_date_03-24_19-05.pt (torch, 1443 bytes, 3 tensors)

conv1.lin_l.weight f4 [2, 5]
-3.7367082 1.4743425 6.8507223 8.811328 7.196573 -2.9887154 -2.0121105 -4.073826
3.1328475 -9.753027
00000000: 3a26 6fc0 41b7 bc3f 1e39 db40 33fb 0c41
00000010: 534a e640 1d47 3fc0 6bc6 00c0 c85c 82c0
00000020: 9380 4840 660c 1cc1

conv1.lin_l.bias f4 [2]
0.7558866 2.7490819
00000000: c981 413f f5f0 2f40

conv1.lin_r.weight f4 [2, 5]
-5.215778 0.6250191 -3.9073298 -4.761343 -6.245826 6.72987 4.354136 2.7174783
1.4269872 -0.27531928
00000000: a7e7 a6c0 4001 203f b111 7ac0 ec5c 98c0
00000010: cedd c7c0 185b d740 1555 8b40 2aeb 2d40
00000020: 84a7 b63f a6f6 8cbe
