Models/runs/eliminar/SAGE_3_mut_0.1_cross_0.6_type_one_point_iter_10/SAGE3_seed_13_thr_5_date_02-15_17-50.pt (torch, 3979 bytes, 9 tensors)

conv1.lin_l.weight f4 [8, 5]
-4.099472 5.7553945 -9.963691 -5.7845497 0.5962485 0.58357966 -3.7790742 0.4519906
-4.897253 4.9336 -4.987306 -8.694829 -9.028871 6.366865 6.0223417 -3.9963994
3.5934308 8.915242 -1.5360396 -3.0431952 -4.23784 -2.25941 -4.759368 3.5583344
-7.6162486 7.5880976 -2.9206312 8.378495 -6.778944 3.0011861 3.84852 -4.5317426
-8.985389 -4.284546 2.4036078 -2.3092086 4.7765713 -6.41511 7.943874 4.806295
00000000: e02e 83c0 312c b840 476b 1fc1 081b b9c0
00000010: bea3 183f 7a65 153f 5adc 71c0 506b e73e
00000020: 4cb6 9cc0 0de0 9d40 0398 9fc0 051e 0bc1
00000030: 4176 10c1 5cbd cb40 06b7 c040 02c5 7fc0
00000040: c5fa 6540 d5a4 0e41 f29c c4bf b6c3 42c0
00000050: 639c 87c0 2c9a 10c0 be4c 98c0 c0bb 6340
00000060: 4fb8 f3c0 b2d1 f240 9feb 3ac0 510e 0641
00000070: 1ced d8c0 6f13 4040 274e 7640 0904 91c0
00000080: 27c4 0fc1 001b 89c0 b6d4 1940 13ca 13c0
00000090: acd9 9840 9548 cdc0 3734 fe40 2bcd 9940

conv1.lin_l.bias f4 [8]
-2.3172972 4.2030907 -7.2222276 4.153591 4.217665 5.5775604 -7.5848556 7.8856053
00000000: 994e 14c0 b87f 8640 7d1c e7c0 38ea 8440
00000010: 1df7 8640 607b b240 23b7 f2c0 e156 fc40

conv1.lin_r.weight f4 [8, 5]
-3.9819217 -5.32291 -2.2343595 9.7119255 -1.6797767 7.433665 -9.923204 8.6212015
-5.4973474 6.0970726 -0.5790785 -7.3526125 6.2734046 -3.5548518 3.5953271 4.6798196
4.912058 -9.007136 6.7107515 8.603717 4.8339953 -2.906583 7.330101 -4.0860558
-4.1028967 2.0692146 -4.9424076 -3.8241544 6.2868247 9.855168 -7.039616 -6.007209
-7.5569806 -0.109875955 6.0484204 1.4646671 4.65634 7.3598356 -8.136325 3.4546006
00000000: ced7 7ec0 4755 aac0 bfff 0ec0 0c64 1b41
00000010: ec02 d7bf 95e0 ed40 72c5 1ec1 71f0 0941
00000020: 45ea afc0 381b c340 7d3e 14bf 9a48 ebc0
00000030: bbbf c840 b182 63c0 d719 6640 15c1 9540
00000040: 942f 9d40 3b1d 10c1 7abe d640 d3a8 0941
00000050: 17b0 9a40 7505 3ac0 3090 ea40 f8c0 82c0
00000060: ee4a 83c0 036e 0440 3428 9ec0 f2be 74c0
00000070: ab2d c940 c5ae 1d41 8944 e1c0 0e3b c0c0
00000080: c9d2 f1c0 a506 e1bd a98c c140 367a bb3f
00000090: bd00 9540 c683 eb40 632e 02c1 2d18 5d40

conv2.lin_l.weight f4 [8, 8]
0.971602 5.41667 -9.54492 8.251938 2.6392317 7.5214043 -7.779875 -4.7362556
-0.5633801 6.239105 8.132774 1.6819603 9.055963 5.453576 2.1329927 2.3256872
0.53278804 3.1131117 -8.500839 -1.8530182 2.3036997 -2.0873039 -9.625901 3.8040426
-6.517965 1.3068105 -5.072711 -2.9822137 7.6478815 -8.878408 2.3082852 2.8826394
8.547878 -6.9160733 -2.054785 -5.8880234 -8.777447 -2.0075862 5.2230377 -0.8660632
8.6856785 -1.8489958 2.434261 -4.081041 0.43780422 -4.657368 7.8898573 -3.0568771
-6.7039366 9.758716 -0.48923355 -3.0223968 3.8271291 0.23214784 1.7949618 5.307851
3.5703537 2.5565112 -8.926064 -5.520143 -2.6036315 -9.069431 2.3180497 -6.4556437
00000000: e9ba 783f 5c55 ad40 feb7 18c1 f007 0441
00000010: 2ce9 2840 58af f040 bcf4 f8c0 688f 97c0
00000020: ae39 10bf c0a6 c740 d81f 0241 7a4a d73f
00000030: 39e5 1041 b283 ae40 f482 0840 0fd8 1440
00000040: cc64 083f 393d 4740 7003 08c1 b32f edbf
00000050: d16f 1340 6396 05c0 b103 1ac1 6f75 7340
00000060: 2b93 d0c0 9145 a73f a653 a2c0 97dc 3ec0
00000070: 72bb f440 f60d 0ec1 f2ba 1340 2a7d 3840
00000080: 1cc4 0841 7950 ddc0 9981 03c0 b06a bcc0
00000090: 6c70 0cc1 4b7c 00c0 2023 a740 51b6 5dbf
000000a0: 8af8 0a41 e5ab ecbf efca 1b40 e397 82c0
000000b0: e027 e03e 2909 95c0 b679 fc40 e0a3 43c0
000000c0: a686 d6c0 b323 1c41 d27c fabe f36e 41c0
000000d0: afef 7440 2ab8 6d3e 4fc1 e53f ead9 a940
000000e0: ad80 6440 e19d 2340 28d1 0ec1 03a5 b0c0
000000f0: e6a1 26c0 641c 11c1 ed5a 1440 a294 cec0

conv2.lin_l.bias f4 [8]
5.4199624 -3.3230069 7.6866937 6.438206 6.302066 3.4899123 -4.492762 8.511772
00000000: 5570 ad40 25ac 54c0 65f9 f540 c905 ce40
00000010: 86aa c940 b95a 5f40 b5c4 8fc0 3830 0841

conv2.lin_r.weight f4 [8, 8]
1.4741112 -3.773811 -5.0229864 -1.1066881 -5.284217 6.778957 8.867843 -7.6033998
4.7676187 6.784589 -0.85394025 -3.4640405 -2.5253077 -9.298185 -1.7902209 6.0046225
-1.987536 -5.5510807 9.9131155 -2.979499 -1.7241305 -3.5336103 4.810402 -4.195791
-6.023818 2.3904853 4.5507574 -6.1985297 2.0377367 -2.137777 2.520589 2.0342143
7.1744013 -4.028873 -7.5744643 -8.267129 4.4556146 -9.7793665 1.9657358 9.16039
-7.41797 6.186875 9.015028 0.7019945 2.2069848 -5.0200577 -3.4698946 -6.5851655
1.4760891 -8.298245 -9.273978 -0.81442976 6.4817314 -1.2549416 4.0398216 -7.9140806
-7.37857 -4.956791 -7.921065 -8.156395 8.991868 -3.0525172 9.900963 -4.0423374
00000000: adaf bc3f 1f86 71c0 4ebc a0c0 f5a7 8dbf
00000010: 4e18 a9c0 37ed d840 afe2 0d41 0d4f f3c0
00000020: 5590 9840 5a1b d940 d49b 5abf d7b2 5dc0
00000030: a49e 21c0 5ec5 14c1 f525 e5bf de25 c040
00000040: 9467 febf 74a2 b1c0 1f9c 1e41 1db0 3ec0
00000050: 4fb0 dcbf ac26 62c0 d0ee 9940 eb43 86c0
00000060: 1ec3 c0c0 b6fd 1840 ce9f 9140 5b5a c6c0
00000070: 476a 0240 57d1 08c0 5551 2140 9130 0240
00000080: b294 e540 87ec 80c0 0362 f2c0 2946 04c1
00000090: 6594 8e40 4978 1cc1 3b9d fb3f f590 1241
000000a0: 0360 edc0 e1fa c540 8e3d 1041 e9b5 333f
000000b0: 3d3f 0d40 50a4 a0c0 c112 5ec0 adb9 d2c0
000000c0: 7df0 bc3f 9dc5 04c1 3762 14c1 787e 50bf
000000d0: 586a cf40 eda1 a0bf 3846 8140 2640 fdc0
000000e0: 3f1d ecc0 089e 9ec0 5d79 fdc0 9880 02c1
000000f0: b1de 0f41 715c 43c0 586a 1e41 d45a 81c0

conv3.lin_l.weight f4 [2, 8]
-8.659137 0.576486 -4.410493 -0.8002948 -7.031974 4.666486 -4.4580503 -9.58288
3.1900175 7.5018024 1.0847442 -9.472186 -2.2986336 3.6401725 -7.569978 1.54545
00000000: d38b 0ac1 9694 133f c222 8dc0 1fe0 4cbf
00000010: ee05 e1c0 da53 9540 59a8 8ec0 7a53 19c1
00000020: 3f29 4c40 c40e f040 e6d8 8a3f 138e 17c1
00000030: d01c 13c0 96f8 6840 433d f2c0 4ed1 c53f

conv3.lin_l.bias f4 [2]
0.5772937 0.09993793
00000000: 85c9 133f 42ac cc3d

conv3.lin_r.weight f4 [2, 8]
8.880333 -1.5563879 6.9647307 6.6786513 0.26204768 -9.921256 3.5372458 -3.7471457
0.043155927 -9.440577 6.2089863 -3.866825 -5.0891414 -3.1629722 0.7941666 -3.6367416
00000000: d815 0e41 b837 c7bf 13df de40 83b7 d540
00000010: 1d2b 863e 77bd 1ec1 3c62 6240 3cd1 6fc0
00000020: 45c4 303d 9a0c 17c1 04b0 c640 107a 77c0
00000030: 3fda a2c0 236e 4ac0 814e 4b3f 60c0 68c0
