Models/runs/scalefree/Pruebas_GA/TwoLayers/SAGE30_seed_13_thr_5_date_01-21_20-53.pt (torch, 2647 bytes, 6 tensors)

conv1.lin_l.weight f4 [8, 5]
0	0xc090665d	-4.5124955
1	0xbfcb7c02	-1.5897219
2	0x40d7616d	6.730643
3	0xc1187ae5	-9.530004
4	0x4050a4c5	3.2600567
5	0xc10d6c9a	-8.839014
6	0xbf742cf1	-0.95381075
7	0xc01c23ba	-2.4396806
8	0xc03adf49	-2.9198782
9	0xbcb13d99	-0.021635817
10	0x3f7cbea8	0.9872842
11	0xbf8c733c	-1.0972667
12	0x3f9736c1	1.1813585
13	0xc02c37c0	-2.6909027
14	0xc0e7af36	-7.240138
15	0xbf0d00b8	-0.5507922
16	0xbf9c97e9	-1.2233859
17	0xc091f68c	-4.561346
18	0x4119e4ad	9.618329
19	0xc0148eb1	-2.3212092
20	0xc0123ac7	-2.2848375
21	0x409f38d1	4.9756856
22	0x3fdeb725	1.7399641
23	0x3ea71523	0.32633314
24	0xc00ba841	-2.1821444
25	0xc0d2744c	-6.5766964
26	0xc10e998b	-8.912486
27	0xbe3b4ec2	-0.18291762
28	0xc02c397f	-2.6910093
29	0x4107afd5	8.480428
30	0x408e1776	4.440364
31	0x40d10cf0	6.5328293
32	0xc09b7c77	-4.8589435
33	0x40edf893	7.4365935
34	0xc008f3a5	-2.139871
35	0xc0017645	-2.0228436
36	0x4080ac28	4.021015
37	0x40ba1255	5.814738
38	0xc06a6c8e	-3.6628757
39	0x40ee3802	7.444337

conv1.lin_l.bias f4 [8]
0	0x3f2d1c9f	0.676218
1	0x3f1b0dcf	0.60567945
2	0xbf9028c9	-1.1262447
3	0xc0e13040	-7.03714
4	0xc116574b	-9.396312
5	0x40fc78a0	7.8897247
6	0x411959ba	9.584406
7	0xc0aacf20	-5.337784

conv1.lin_r.weight f4 [8, 5]
0	0xc0530b4e	-3.297565
1	0xc00237c6	-2.0346541
2	0xc0f8d29b	-7.7757087
3	0x403acef5	2.9188817
4	0x408cfc5d	4.405806
5	0xc03db81f	-2.9643629
6	0xc0c1dd84	-6.0582905
7	0xbfdc8621	-1.7228433
8	0x409c7e69	4.890431
9	0xc0fd1a9a	-7.9094973
10	0xc0c8536e	-6.2601843
11	0xc1048b25	-8.283971
12	0xbe2ac2b5	-0.16675837
13	0xc0921b45	-4.565829
14	0x410d7301	8.840577
15	0x400d5cb8	2.208784
16	0x40cfd96b	6.4952903
17	0x4097239f	4.7230983
18	0xc0a3f019	-5.123059
19	0xc0de038e	-6.937934
20	0x406bb6f6	3.683042
21	0x401f66ca	2.4906487
22	0x40e4d71f	7.15126
23	0xc08f632c	-4.480856
24	0x40a0b995	5.022654
25	0xbfa640e9	-1.2988559
26	0xbea74ff3	-0.32678184
27	0xc0e60af5	-7.1888375
28	0xc0c205e5	-6.0632195
29	0x4115faef	9.373763
30	0x4060b2fa	3.5109239
31	0xc026c7f4	-2.6059542
32	0xc0fc4100	-7.8829346
33	0xc10a92c8	-8.660835
34	0xc0e99c65	-7.300341
35	0xbfa887d7	-1.3166455
36	0xbd8433a8	-0.06455165
37	0xbf119587	-0.56868786
38	0xc040db62	-3.01339
39	0x401843cf	2.3791387

conv3.lin_l.weight f4 [2, 8]
0	0x41131cbb	9.194514
1	0x3ed287ac	0.41119134
2	0x3fb795cf	1.4342593
3	0xc025ad20	-2.5886917
4	0xc0dc20c2	-6.8789988
5	0x3fc902b1	1.5703946
6	0x407419a4	3.814065
7	0x40e8d5f9	7.2761197
8	0x4119396b	9.576518
9	0xbf7a9292	-0.978799
10	0x40fd15fa	7.9089327
11	0x40ae2ede	5.443221
12	0xbe924be1	-0.28573516
13	0xc0203d8f	-2.5037572
14	0x40dfcca6	6.9937315
15	0x40a9ef09	5.310429

conv3.lin_l.bias f4 [2]
0	0xc0e377a8	-7.1083565
1	0xc0b9a50b	-5.801397

conv3.lin_r.weight f4 [2, 8]
0	0x3f9dd729	1.2331287
1	0x40dce620	6.9030914
2	0xbfa9dc53	-1.3270363
3	0xc04ac001	-3.167969
4	0x3fc479bc	1.534965
5	0xc0871a44	-4.2219563
6	0x40ac2569	5.3795667
7	0xc0a0a57e	-5.0202017
8	0xc0c88904	-6.2667255
9	0xc1064923	-8.392856
10	0x40e1dfac	7.0585537
11	0xbfa5671e	-1.2922094
12	0x3f591560	0.8479824
13	0x4105bcc4	8.358585
14	0xc0899d11	-4.300423
15	0xbf1ed693	-0.62046164
