Models/runs/GridSearch/SGConv_2_mut_0.3_cross_0.6_type_one_point_iter_100/SGConv2_seed_13_thr_5_date_03-11_11-17.pt (torch, 1887 bytes, 4 tensors)

conv1.lin.weight f4 [8, 5]
5.2251596 7.7226496 -5.7507625 0.7392404 6.655201 6.210006 -0.4674795 5.3870025
8.002728 9.919215 5.43377 -2.9139345 -8.809504 1.1845738 0.5768723 -5.2957993
2.118064 -2.5477257 -5.122882 -5.7248487 -3.1011257 8.7761 5.451447 2.236363
7.6915164 -1.1654961 -7.6525598 -5.897427 0.8759201 -5.796756 -1.4606735 -3.4478173
-5.9837675 7.5440836 -1.017662 -1.8273734 3.6478782 -2.411228 -5.075984 -3.1300504
00000000: 8234 a740 f21f f740 3f06 b8c0 dc3e 3d3f
00000010: 68f7 d440 5fb8 c640 7959 efbe 5362 ac40
00000020: 2d0b 0041 1bb5 1e41 72e1 ad40 e77d 3ac0
00000030: baf3 0cc1 1da0 973f e7ad 133f 3077 a9c0
00000040: 5c8e 0740 f00d 23c0 a6ee a3c0 f631 b7c0
00000050: d878 46c0 e86a 0c41 4172 ae40 9220 0f40
00000060: e720 f640 fa2e 95bf c5e1 f4c0 b9b7 bcc0
00000070: 4d3c 603f 067f b9c0 59f7 babf 0aa9 5cc0
00000080: 067b bfc0 2269 f140 c042 82bf 5fe7 e9bf
00000090: d676 6940 8f51 1ac0 766e a2c0 bf52 48c0

conv1.lin.bias f4 [8]
-7.6082044 -9.38235 -0.29243663 0.3568155 9.165701 -2.7213314 0.064507574 4.089197
00000000: 6976 f3c0 1b1e 16c1 41ba 95be 85b0 b63e
00000010: b6a6 1241 4b2a 2ec0 8c1c 843d b4da 8240

conv2.lin.weight f4 [2, 8]
1.6473019 -7.549702 8.486069 4.2348375 2.6117852 -7.9856844 -5.4627285 -5.6711965
8.783133 -1.1167811 3.9107866 -3.9348369 2.2591345 -2.3872619 -3.3838136 -0.8356828
00000000: cada d23f 2997 f1c0 f0c6 0741 ca83 8740
00000010: 7d27 2740 ba8a ffc0 acce aec0 717a b5c0
00000020: b687 0c41 aff2 8ebf 544a 7a40 5ed4 7bc0
00000030: a995 1040 e6c8 18c0 6790 58c0 4fef 55bf

conv2.lin.bias f4 [2]
4.212517 -5.6842136
00000000: f0cc 8640 14e5 b5c0
