Models/runs/scalefree/GA/GraphConv_seed_13_thr_5_date_01-11_22-54.pt (torch, 1864 bytes, 3 tensors)

conv1.lin_rel.weight f4 [2, 5]
000000 8c dc d5 c0 76 ae c5 c0 a6 57 9b 40 6a d9 ad bf
       -6.683172 -6.1775465 4.8544493 -1.3581975
000010 65 a3 ef c0 70 f5 d7 bf 3a 1a 82 3f c0 2f 06 c0
       -7.4886956 -1.6871777 1.0164254 -2.0966644
000020 b1 f8 5f 3e 67 60 e7 3f
       0.21872212 1.8076295

conv1.lin_rel.bias f4 [2]
000000 77 03 ea c0 f4 5d ec bf
       -7.312923 -1.8466172

conv1.lin_root.weight f4 [2, 5]
000000 2a a4 b5 40 f9 4e bd c0 fb 34 27 c0 fe 13 23 3e
       5.6762896 -5.91589 -2.6126087 0.15925595
000010 ea 0e a7 40 f3 04 22 c0 94 5a f8 40 41 c5 80 c0
       5.2205706 -2.531552 7.761057 -4.024079
000020 1f b3 f9 3d c2 a6 1a 41
       0.12192368 9.665712
