Models/runs/scalefree/GA/SAGE_seed_13_thr_5_date_01-12_18-27.pt (torch, 3103 bytes, 5 tensors)

conv1.lin_l.weight f4 [16, 5]
-5.1112547 8.848945 -2.3674695 -4.3930836 4.417137 -4.482492 4.728392 5.8437824
4.9259286 -1.0517176 9.391997 -4.165367 6.7381773 -3.114892 -1.8470422 2.7033079
4.335615 5.0028296 -3.890211 7.5885262 -3.6645546 -8.544131 -1.1350302 -3.2632048
0.43522003 -5.6991844 -2.7960331 -1.0365916 -9.436286 4.156297 6.2122903 -8.050634
-1.4921775 9.817122 -5.2528462 1.1501732 5.709906 3.312215 -2.7734504 6.2489386
3.8178992 1.904255 -6.6324472 -8.922148 -0.9853848 -0.5856395 -3.3114042 -0.011110227
3.1306224 0.6699151 -0.0256794 6.7303734 4.6353455 1.608149 -0.4783126 5.017534
-1.4137282 -1.1460884 3.435748 -3.7665782 -0.985821 0.39570653 -5.686986 -0.625245
6.717984 1.581739 -1.6867074 -1.1715125 -0.15315646 6.112761 -3.7517822 6.9504824
-4.917723 7.177391 2.5359445 5.5459895 -5.751129 -0.16496913 -7.9636703 0.11347981
00000000: 668f a3c0 4795 0d41 9f84 17c0 2494 8cc0
00000010: 3059 8d40 9370 8fc0 fd4e 9740 4400 bb40
00000020: 35a1 9d40 af9e 86bf 9f45 1641 b04a 85c0
00000030: 269f d740 645a 47c0 e16b ecbf ff02 2d40
00000040: 5cbd 8a40 2e17 a040 38f9 78c0 35d5 f240
00000050: 1088 6ac0 c3b4 08c1 ab48 91bf 59d8 50c0
00000060: 29d5 de3e b85f b6c0 35f2 32c0 09af 84bf
00000070: 07fb 16c1 6300 8540 15cb c640 66cf 00c1
00000080: acff bebf ef12 1d41 5117 a8c0 e038 933f
00000090: 8db7 b640 55fb 5340 3680 31c0 4ef7 c740
000000a0: 7658 7440 a1be f33f 023d d4c0 1ec1 0ec1
000000b0: 2e42 7cbf 78ec 15bf 0cee 53c0 ab07 36bc
000000c0: 1e5c 4840 8e7f 2b3f 9b5d d2bc 385f d740
000000d0: c054 9440 d4d7 cd3f 64e5 f4be a38f a040
000000e0: 0cf5 b4bf 06b3 92bf 4ce3 5b40 9e0f 71c0
000000f0: c45e 7cbf 0c9a ca3e cafb b5c0 0e10 20bf
00000100: baf9 d640 6c76 ca3f 07e6 d7bf 1ff4 95bf
00000110: 0cd5 1cbe bd9b c340 331d 70c0 5a6a de40
00000120: fd5d 9dc0 30ad e540 ea4c 2240 bf78 b140
00000130: 4009 b8c0 abed 28be 63d6 fec0 1a68 e83d

conv1.lin_l.bias f4 [16]
-3.3700612 -1.9780618 4.192421 8.564357 -0.17224474 1.4583553 -0.81958264 4.2874017
7.5215707 1.9291081 -2.930267 -5.683743 2.7877402 4.308846 -1.4187924 0.9073488
00000000: 15af 57c0 2131 fdbf 5028 8640 9b07 0941
00000010: ed60 30be 63ab ba3f 2bd0 51bf 6532 8940
00000020: b5b0 f040 04ed f63f 7f89 3bc0 39e1 b5c0
00000030: 566a 3240 11e2 8940 fd9a b5bf 0348 683f

conv1.lin_r.weight f4 [16, 5]
4.3846917 -2.8347528 -6.8575177 -2.4200747 2.8059356 -4.411013 -6.53323 -7.4324355
-4.861183 1.2888386 3.947313 -8.07245 3.487497 -2.6108747 -7.9446216 4.503182
0.10323483 0.97136474 -1.742058 -2.676601 -1.5539411 6.5481057 5.4147058 -2.3207474
-1.668775 5.1708097 -0.5892301 -3.291553 -0.29159793 6.8666153 -1.3005613 -0.27626806
-1.1256685 5.666284 0.5573012 -2.345969 0.4925548 6.447541 3.3107338 5.0822
5.4629827 7.7669272 5.8154364 7.910125 2.699988 0.97190624 -9.54368 -1.6470401
-3.7671967 8.518513 0.9952702 1.7860305 6.5655727 3.5841603 2.6004095 -8.302186
0.10690962 2.0952675 5.0481734 2.8263834 -8.033889 3.8015773 -5.3963113 -0.39199647
3.0276706 7.504764 -5.3986425 -6.9346333 1.7476412 -4.5637827 -4.6967626 -1.8626583
5.1068134 -5.6892123 -5.8077254 5.596164 -6.7059298 2.63498 5.9176545 -5.5142903
00000000: 654f 8c40 976c 35c0 c970 dbc0 81e2 1ac0
00000010: 7394 3340 0527 8dc0 3810 d1c0 83d6 edc0
00000020: d08e 9bc0 aaf8 a43f c7a0 7c40 c128 01c1
00000030: 2733 5f40 9218 27c0 573a fec0 111a 9040
00000040: c86c d33d 5cab 783f c2fb debf 6e4d 2bc0
00000050: 8be7 c6bf 158a d140 4545 ad40 2087 14c0
00000060: 6b9a d5bf 4677 a540 c9d7 16bf cea8 52c0
00000070: 534c 95be 50bb db40 cb78 a6bf 0273 8dbe
00000080: e815 90bf 3352 b540 4bab 0e3f 5b24 16c0
00000090: 2530 fc3e 4252 ce40 10e3 5340 62a1 a240
000000a0: c1d0 ae40 ab8a f840 0e18 ba40 be1f fd40
000000b0: 9acc 2c40 d9ce 783f eab2 18c1 36d2 d2bf
000000c0: c019 71c0 d44b 0841 07ca 7e3f a69c e43f
000000d0: 2c19 d240 e262 6540 1c6d 2640 c1d5 04c1
000000e0: 6ef3 da3d dd18 0640 a38a a140 77e3 3440
000000f0: cf8a 00c1 0b4d 7340 95ae acc0 c3b3 c8be
00000100: 5bc5 4140 0727 f040 aec1 acc0 84e8 ddc0
00000110: b5b2 df3f 820a 92c0 e14b 96c0 966b eebf
00000120: 046b a340 070e b6c0 e3d8 b9c0 c713 b340
00000130: fa96 d6c0 83a3 2840 6d5d bd40 1175 b0c0

conv3.weight f4 [2, 16]
0.108108155 -3.5955896 5.791026 9.999621 7.701992 -4.2788997 1.0459167 -2.4773512
-3.1426246 8.434556 0.3972069 -0.10071205 3.3544161 -2.061438 3.765859 -1.5405191
-6.518796 1.2571789 -1.26585 7.6946754 0.7381882 -2.6211188 -2.4468527 -0.4550748
-0.82678276 -0.55078804 -2.8050852 -1.2495242 -3.3990855 -6.7404523 -2.6456137 7.6732426
00000000: cf67 dd3d 241e 66c0 1650 b940 73fe 1f41
00000010: b876 f640 bfec 88c0 99e0 853f ec8c 1ec0
00000020: c320 49c0 f1f3 0641 b45e cb3e 1f42 cebd
00000030: c1ae 5640 9aee 03c0 d503 7140 bb2f c5bf
00000040: fa99 d0c0 3deb a03f 5f07 a2bf c83a f640
00000050: e7f9 3c3f 69c0 27c0 3c99 1cc0 90ff e8be
00000060: 09a8 53bf 7200 0dbf 8486 33c0 69f0 9fbf
00000070: 9e8a 59c0 c9b1 d7c0 bc51 29c0 348b f540

conv3.bias f4 [2]
3.2522023 6.1045537
00000000: 1524 5040 8158 c340
