Models/runs/optuna/GCN_2_mut_0.3_cross_0.5_type_two_point_iter_100/GCN2_seed_13_thr_5_date_03-15_22-20.pt (torch, 1951 bytes, 4 tensors)

conv1.bias f4 [8]
000000 d2 a6 17 c1 71 f9 e2 bf eb 94 6e 40 5e 3b 79 c0
       -9.478228 -1.7732373 3.7278392 -3.8942485
000010 32 18 fe 40 23 0c 8f c0 5c b0 65 c0 23 38 cb c0
       7.9404535 -4.4702315 -3.5888891 -6.3506026

conv1.lin.weight f4 [8, 5]
000000 5d ce 04 40 95 a5 f4 c0 0b 88 fd 3f ac 51 c7 c0
       2.0750954 -7.6452127 1.9807142 -6.2287197
000010 9c 6f 9e c0 58 46 0d 41 d7 94 0e 41 e6 32 f1 c0
       -4.951124 8.829674 8.911338 -7.537463
000020 05 fe 89 3f 8b 5a c1 c0 a5 c9 fa bf e1 a8 9f 40
       1.0780646 -6.0423026 -1.9592787 4.989365
000030 35 58 b2 40 8b 1c 67 40 ef 51 79 c0 4d ea 86 40
       5.5732675 3.6111171 -3.8956258 4.216101
000040 bd 96 9a c0 68 06 dc bf 25 6e a1 c0 ca 50 b0 40
       -4.8309007 -1.7189455 -5.0446954 5.509862
000050 fc 1b 9f bf 9e 7b 8d 40 f3 a0 ea be b5 97 80 bf
       -1.2430415 4.42134 -0.4582592 -1.0046297
000060 22 d8 be c0 3f c0 28 c0 34 1c 93 c0 50 4e 16 c0
       -5.9638834 -2.6367338 -4.597193 -2.3485298
000070 29 ea 8b c0 f4 d5 24 40 6c 52 a2 bf 82 62 ad bf
       -4.372334 2.5755587 -1.2681403 -1.3545687
000080 ac a6 7f c0 d3 7b 77 c0 ea 56 eb c0 86 d7 69 c0
       -3.9945478 -3.8669326 -7.3543596 -3.6537795
000090 94 24 ca 40 66 86 80 c0 89 a8 18 3f 12 c5 bd c0
       6.316965 -4.016406 0.59632164 -5.9303064

conv2.bias f4 [2]
000000 af 28 65 40 0e d9 94 c0
       3.5806081 -4.651496

conv2.lin.weight f4 [2, 8]
000000 09 e4 2a c0 2c 61 26 40 92 22 3d c0 83 1b 80 c0
       -2.6701682 2.599681 -2.955235 -4.0033584
000010 a3 ff 6e 40 e7 ad 98 40 c2 52 89 40 e7 ea 56 be
       3.7343528 4.7712283 4.2913523 -0.20988046
000020 27 8d 80 3d cd 15 ba c0 72 22 03 c0 a2 0b 4c c0
       0.06276923 -5.815161 -2.0489774 -3.18821
000030 6a ee 76 40 b4 db bc 40 54 98 94 3e 30 d0 49 3f
       3.8583016 5.901819 0.29022467 0.78833294
