Models/runs/Erdos_MDH/SAGE_seed_13_thr_5_date_12-04_17-35.pt (torch, 5143 bytes, 6 tensors)

layers.0.lin_l.weight f4 [100, 1]
-0.072096154 -0.41432884 0.5673876 0.8667826 0.6505358 -0.021746993 -0.18669772 -0.21793608
-0.7595685 0.89655375 -0.83208203 -0.8651508 0.7522325 0.044605374 0.3331924 0.02272519
-0.8161712 -0.28374088 -0.78528017 -0.6439078 -0.74815917 0.84476036 -0.06509836 0.76928097
0.021328552 0.28861117 0.22458711 0.09481821 -0.5397481 0.06429803 0.31646657 -0.0018573363
0.3980168 -0.07732546 -0.57211053 -0.7643286 -0.19893241 -0.18485469 -0.35512707 0.54973865
-0.62600493 -0.8554523 0.6214968 0.08778608 0.64921904 -0.7723023 0.7635453 0.70889634
-0.29906154 -0.1874665 -0.56878716 -0.86968005 -0.13408308 -0.06403065 -0.9456134 0.3568834
0.95103663 -0.122885704 -0.25359082 0.57004666 0.5172339 -0.0064154495 0.46461403 -0.33416504
0.06661688 -0.17721316 -0.6577518 -1.0880508 0.14422202 -0.40441757 -1.0306774 -0.2541721
0.61408854 -0.8558019 0.65154666 -0.6395442 0.8962721 -0.24515045 0.5675366 -0.87846136
-0.19019957 -0.53106415 0.60817796 0.23832181 0.99817574 -0.0093848705 0.01551844 0.14898199
0.31275764 -0.44062364 -0.5986395 -0.7436308 0.23174547 0.21285534 0.29053414 0.05608666
-0.89369893 0.34622133 -0.6658497 0.16959864
00000000: 26a7 93bd e922 d4be 5040 113f 77e5 5d3f
00000010: 8489 263f c026 b2bc b02d 3fbe a32a 5fbe
00000020: 1573 42bf 8c84 653f 5403 55bf 867a 5dbf
00000030: 4f92 403f 20b4 363d 3298 aa3e 2d2a ba3c
00000040: 99f0 50bf 7c46 91be 1f08 49bf 24d7 24bf
00000050: 5c87 3fbf 3742 583f 4a52 85bd 99ef 443f
00000060: 37b9 ae3c d8c4 933e 2afa 653e 0d30 c23d
00000070: ee2c 0abf b0ae 833d e807 a23e dd71 f3ba
00000080: dcc8 cb3e d05c 9ebd d675 12bf 0aab 43bf
00000090: f0b4 4bbe 8c4a 3dbe 37d3 b5be acbb 0c3f
000000a0: dc41 20bf ecfe 5abf 6a1a 1f3f 30c9 b33d
000000b0: 3833 263f 9bb5 45bf b477 433f 3b7a 353f
000000c0: 981e 99be 38f7 3fbe 099c 11bf 5aa3 5ebf
000000d0: 134d 09be 8022 83bd b813 72bf 6cb9 b63e
000000e0: 2377 733f 80ab fbbd a8d6 81be 94ee 113f
000000f0: 7169 043f b138 d2bb e4e1 ed3e ae17 abbe
00000100: 6e6e 883d 5e77 35be 6c62 28bf 4045 8bbf
00000110: f0ae 133e d20f cfbe 3ded 83bf d822 82be
00000120: e834 1d3f d515 5bbf c3cb 263f 2bb9 23bf
00000130: 1772 653f b808 7bbe 144a 113f d8e2 60bf
00000140: adc3 42be d2f3 07bf 8db1 1b3f a20a 743e
00000150: 7288 7f3f 00c3 19bc 0e41 7e3c bc8e 183e
00000160: c521 a03e 6c99 e1be 7040 19bf 975e 3ebf
00000170: af4e 6d3e c0f6 593e e4c0 943e 20bb 653d
00000180: 74c9 64bf ec43 b13e 2075 2abf 44ab 2d3e

layers.0.lin_l.bias f4 [100]
0.3849438 0.5994853 -0.03960724 0.93005884 0.13765028 -0.3797735 -0.92545176 0.48640984
0.9154371 0.076284714 -0.0692153 -0.176875 0.02450905 -0.2826153 0.52472657 0.62992334
-0.6362804 -0.2721362 0.701333 0.7300603 0.04297767 0.5475933 0.64408654 0.59165275
0.40817732 -0.5043967 0.578891 0.3210944 0.1261527 -0.23585463 -0.99574935 -0.2898892
-0.48546195 -0.41782296 0.15977295 -0.1604166 0.019103527 0.99728966 0.16353238 0.7361031
-0.09601387 -0.84388983 0.909173 -0.06934994 0.28012106 0.30485708 0.32788646 0.7829294
-0.18594682 -0.47061896 0.89128226 -0.8891188 -0.04260196 -0.21329045 -0.058882833 -0.51283944
0.8915468 -0.57561743 0.4652906 0.46027693 0.9042906 0.5037272 0.5500564 0.8484558
-0.17464727 0.09789732 0.04475125 0.6384782 -0.4111532 0.5652301 0.49099305 -0.99729323
-0.39780706 0.3803999 -0.4631113 0.3187591 0.5035572 -0.9570999 0.24300869 -0.37431848
0.5012743 0.8871949 0.7312364 -0.25419968 -0.83997613 -0.8600917 -0.35621673 0.6252103
0.8031671 -0.61972606 0.8468013 0.12366477 0.36942142 0.29754138 -0.7665894 -0.16453934
-0.8856373 -0.66437495 -0.33102918 0.2082316
00000000: 5b17 c53e de77 193f 343b 22bd 5618 6e3f
00000010: 32f4 0c3e ac71 c2be 68ea 6cbf b60a f93e
00000020: 165a 6a3f 293b 9c3d c0c0 8dbd b81e 35be
00000030: 34c7 c83c f4b2 90be 7b54 063f a842 213f
00000040: 46e3 22bf 7055 8bbe 8f8a 333f 3be5 3a3f
00000050: 5a09 303d 132f 0c3f dbe2 243f 8e76 173f
00000060: 9efc d03e 2420 01bf 3332 143f 7c66 a43e
00000070: 2c2e 013e e083 71be 6ee9 7ebf 5b6c 94be
00000080: 788e f8be e4ec d5be 859b 233e 4044 24be
00000090: 007f 9c3c 604e 7f3f 0875 273e 4171 3c3f
000000a0: eba2 c4bd 2a09 58bf 90bf 683f 5707 8ebd
000000b0: 076c 8f3e 3a16 9c3e bce0 a73e 106e 483f
000000c0: d868 3ebe f8f4 f0be 132b 643f 4a9d 63bf
000000d0: 657f 2ebd d068 5abe 202f 71bd 7249 03bf
000000e0: 693c 643f aa5b 13bf 923a ee3e 6ba9 eb3e
000000f0: 977f 673f 44f4 003f 7fd0 0c3f 6634 593f
00000100: bcd6 32be 647e c83d 164d 373d 4f73 233f
00000110: ac82 d2be ebb2 103f 7163 fb3e 9c4e 7fbf
00000120: 5ead cbbe c7c3 c23e ed1c edbe 6534 a33e
00000130: 20e9 003f 8004 75bf 45d7 783e aca6 bfbe
00000140: 8353 003f 341f 633f 4f32 3b3f 7626 82be
00000150: ad08 57bf f82e 5cbf 0a62 b6be c80d 203f
00000160: 5c9c 4d3f 5ea6 1ebf f8c7 583f f443 fd3d
00000170: ce24 bd3e 5857 983e 343f 44bf 007d 28be
00000180: 20b9 62bf 7a14 2abf a87c a9be aa3a 553e

layers.0.lin_r.weight f4 [100, 1]
0.7693717 -0.5432153 -0.30335876 -0.2746275 0.8912477 0.050842524 0.17932808 -0.53664786
-0.55530626 -0.6815981 -0.65449584 0.031208396 -0.2323974 0.24036014 0.20140631 -0.89639634
0.92894375 -0.17400813 0.14802474 -0.55950755 1.2783475 0.43874428 -0.8526494 -0.5528738
-0.58943415 -0.3855461 0.062230993 -0.51631385 0.69922286 -0.12648082 -0.15734673 1.2323732
0.15958941 0.44005895 1.1120229 0.029723763 -0.8622445 0.19880435 1.23558 -1.1240883
1.3376068 0.5252172 0.34276024 1.1694212 1.0166377 0.093523934 0.59329224 -1.1305598
0.27460837 0.17030716 -0.8603945 0.5382328 0.5790443 -0.4070053 -0.09324968 0.2047869
-0.90953815 -0.49596274 0.29912466 -0.53169054 -0.5127577 1.1151246 -1.0691749 -0.9484824
0.7344685 0.16332997 1.0256081 0.53544843 -0.69297147 -0.50406736 -0.39088157 0.97373784
0.6255329 0.9130364 0.79958975 -0.4861309 0.76835185 0.6889919 1.0756522 -0.7764338
0.041007645 1.2429494 -0.796997 0.6971327 -0.91396594 0.7475407 1.3811802 -0.22903104
-0.85867554 -0.94263184 -0.7605419 1.2271714 -0.6802333 -0.37678528 0.12223244 -0.11731303
-0.8236468 0.20278001 -0.08655012 0.8437022
00000000: 8bf5 443f 2810 0bbf d751 9bbe fa9b 8cbe
00000010: cf28 643f 4040 503d c8a1 373e c161 09bf
00000020: 8d28 0ebf 377d 2ebf 0a8d 27bf c0a8 ff3c
00000030: 96f9 6dbe f820 763e 753d 4e3e 3b7a 65bf
00000040: 42cf 6d3f 302f 32be cc93 173e e33b 0fbf
00000050: e4a0 a33f 17a3 e03e 3b47 5abf 2389 0dbf
00000060: 28e5 16bf 4c66 c5be ede5 7e3d 252d 04bf
00000070: 4500 333f 3084 01be 801f 21be 68be 9d3f
00000080: 686b 233e 684f e13e c456 8e3f 407f f33c
00000090: 0ebc 5cbf 5e93 4b3e 7c27 9e3f 20e2 8fbf
000000a0: b336 ab3f a274 063f 457e af3e 98af 953f
000000b0: 2f21 823f 7a89 bf3d 00e2 173f 2fb6 90bf
000000c0: 7899 8c3e 0065 2e3e d042 5cbf a0c9 093f
000000d0: 3f3c 143f 0063 d0be b0f9 bebd a8b3 513e
000000e0: 7ed7 68bf d4ee fdbe de26 993e df1c 08bf
000000f0: 1744 03bf 67bc 8e3f b9da 88bf becf 72bf
00000100: 2106 3c3f f93f 273e 2047 833f 2613 093f
00000110: 9466 31bf 8f0a 01bf a121 c8be e246 793f
00000120: ed22 203f c1bc 693f eab1 4c3f 26e6 f8be
00000130: b5b2 443f c661 303f f9ae 893f 5ec4 46bf
00000140: a2f7 273d f718 9f3f ff07 4cbf 4a77 323f
00000150: acf9 69bf d45e 3f3f 83ca b03f 1d87 6abe
00000160: 29d2 5bbf 5250 71bf e0b2 42bf f413 9d3f
00000170: c523 2ebf 00ea c0be 0055 fa3d d041 f0bd
00000180: 84da 52bf 90a5 4f3e 3041 b1bd defc 573f

layers.3.lin_l.weight f4 [2, 100]
0.12987868 -0.052571096 -0.006398325 -0.0042530093 0.1340365 -0.092393614 -0.04795258 -0.039955996
0.09602158 -0.23287986 -0.0445248 0.066909544 0.05294726 -0.041995537 -0.03447576 0.06611862
-0.065163106 0.05575704 -0.051279288 -0.03418606 0.12517038 -0.044572566 -0.1147095 0.037563264
-0.03945919 -0.07476364 0.06843316 -0.05184349 0.19318801 -0.06651149 0.048546918 0.15893543
0.09570474 0.036904342 0.07575206 -0.010720588 -0.010404803 0.09227843 0.034842234 -0.038581476
0.30352902 0.005731508 -0.05695175 0.01857768 -0.00998391 -0.08172515 -0.048750836 -0.082124144
0.015240267 -0.036809646 -0.009206374 0.03439427 0.09982428 -0.043520965 0.04029586 0.091145344
0.09918451 -0.035214387 0.042794436 -0.07082861 0.01713958 -0.054545857 -0.0424537 0.04349341
0.18840604 0.0010707728 0.072154 0.1326782 -0.061369564 0.08326825 -0.058168065 0.0036545843
0.13240221 -0.046265155 0.0022749342 0.16716452 -0.003271147 0.05711811 0.11292202 -0.00472866
0.09697058 0.09092431 -0.079585694 0.116458714 -0.02250827 -0.017154202 0.16331582 -0.07021561
0.1064708 0.0393684 0.013052741 0.11926804 -0.12114 -0.06060948 -0.003709808 0.025623478
0.08377843 -0.038108326 0.0765341 0.07448758 0.028270883 0.05329484 0.008376553 -0.10723309
-0.053498626 0.042453595 0.054065473 0.0473023 0.051389426 0.22314955 0.047449656 -0.07579076
0.0661923 -0.068036236 0.04831052 -0.044016097 -0.096147746 0.072186954 -0.07148835 -0.05242282
-0.1995527 -0.08341782 -0.031347495 -0.020055396 0.049240593 0.033852763 -0.0883066 -0.087967515
-0.0941035 -0.05902238 -0.091915324 -0.15597433 0.07067903 -0.091075234 -0.065750144 0.026656352
-0.080730595 -0.08593837 -0.07209717 0.046867393 -0.14650394 -0.05124099 -0.12020042 -0.13508298
-0.13188994 0.08070929 -0.11729301 -0.11050013 -0.06269852 -0.04962033 -0.051359653 -0.029404208
-0.011503358 0.042479165 -0.065264955 -0.05349641 -0.07418078 0.06205248 -0.016770221 0.068118796
-0.06610634 -0.0365772 -0.018414548 0.044991363 -0.06626661 -0.1034439 -0.15436132 -0.004058103
-0.04721713 -0.06761198 0.01259562 0.022901736 -0.03421625 -0.08873822 -0.06743827 -0.13764468
-0.08659492 -0.02786722 -0.08161497 -0.012967765 -0.062051203 0.0006060258 0.029008618 -0.1721492
0.10731308 -0.09388321 -0.19799611 0.049458012 -0.026923249 -0.021736063 -0.049198817 -0.054190863
0.040256996 -0.006433361 -0.0981843 -0.040605485 0.097166635 -0.05480471 0.031299703 0.022819817
00000000: ebfe 043e ca54 57bd 0aa9 d1bb d45c 8bbb
00000010: dd40 093e dd38 bdbd ed69 44bd e6a8 23bd
00000020: f6a6 c43d 0f78 6ebe a35f 36bd df07 893d
00000030: 3adf 583d 8303 2cbd 7436 0dbd 3369 873d
00000040: 3c74 85bd 7e61 643d 3b0a 52bd af06 0cbd
00000050: aa2c 003e b991 36bd d0ec eabd f0db 193d
00000060: f69f 21bd ae1d 99bd af26 8c3d d759 54bd
00000070: 14d3 453e 2d37 88bd 22d9 463d f8bf 223e
00000080: d900 c43d 0229 173d e523 9b3d 68a5 2fbc
00000090: e878 2abc 79fc bc3d bbb6 0e3d 9c07 1ebd
000000a0: 2868 9b3e 60cf bb3b 3d46 69bd 3830 983c
000000b0: 8e93 23bc 845f a7bd f5ae 47bd b430 a8bd
000000c0: 50b2 793c b6c5 16bd 55d6 16bc 02e1 0c3d
000000d0: ac70 cc3d 0a43 32bd 460d 253d 69aa ba3d
000000e0: 4021 cb3d f63c 10bd 3849 2f3d 970e 91bd
000000f0: 4e68 8c3c 7a6b 5fbd eee3 2dbd 2526 323d
00000100: 83ed 403e 2c59 8c3a 7ac5 933d cbdc 073e
00000110: a75e 7bbd 8b88 aa3d a341 6ebd c081 6f3b
00000120: 7294 073e 8880 3dbd 1017 153b 2d2d 2b3e
00000130: bd60 56bb aef4 693d a943 e73d e0f2 9abb
00000140: 8398 c63d 8636 ba3d d3fd a2bd e881 ee3d
00000150: 4363 b8bc f886 8cbc 433c 273e 34cd 8fbd
00000160: 5d0d da3d c240 213d 2adb 553c cd42 f43d
00000170: 4018 f8bd a541 78bd 4020 73bb 54e8 d13c
00000180: 0794 ab3d 7a17 1cbd e9bd 9c3d f28c 983d
00000190: 5798 e73c b14b 5a3d cf3d 093c 069d dbbd
000001a0: 6021 5bbd d2e3 2d3d c273 5d3d 0ec0 413d
000001b0: b87d 523d 5181 643e 925a 423d 3038 9bbd
000001c0: d48f 873d 9556 8bbd 40e1 453d 394a 34bd
000001d0: 1ce9 c4bd c1d6 933d 7c68 92bd 50b9 56bd
000001e0: 8b57 4cbe f6d6 aabd 3b66 00bd 374b a4bc
000001f0: 81b0 493d 32a9 0a3d 17da b4bd 5028 b4bd
00000200: 56b9 c0bd 73c1 71bd 1a3e bcbd bcb7 1fbe
00000210: 2bc0 903d a785 babd 03a8 86bd 6c5e da3c
00000220: 1556 a5bd 7500 b0bd aea7 93bd 06f8 3f3d
00000230: 2105 16be 13e2 51bd a32b f6bd 3153 0abe
00000240: 280e 07be ea4a a53d 5137 f0bd e44d e2bd
00000250: 1568 80bd b03e 4bbd 805e 52bd 18e1 f0bc
00000260: 9578 3cbc a2fe 2d3d a2a9 85bd 0d1f 5bbd
00000270: 18ec 97bd be2a 7e3d b461 89bc de81 8b3d
00000280: c362 87bd f9d1 15bd 1bda 96bc dd48 383d
00000290: cab6 87bd 65da d3bd e510 1ebe d6f9 84bb
000002a0: c066 41bd 2678 8abd dc5d 4e3c 6c9c bb3c
000002b0: 5726 0cbd 62bc b5bd 131d 8abd baf2 0cbe
000002c0: ad58 b1bd cc49 e4bc c025 a7bd c076 54bc
000002d0: 6729 7ebd b4dd 1e3a 7ba3 ed3c e147 30be
000002e0: f6c6 db3d d745 c0bd 7ebf 4abe 7c94 4a3d
000002f0: 258e dcbc d40f b2bc b384 49bd 3df7 5dbd
00000300: 85e4 243d f2ce d2bb da14 c9bd f051 26bd
00000310: 4dff c63d e77a 60bd 1e34 003d a0f0 ba3c

layers.3.lin_l.bias f4 [2]
0.06074263 -0.025266811
00000000: 44cd 783d 58fc cebc

layers.3.lin_r.weight f4 [2, 100]
-0.078311734 0.18086497 0.22420305 0.0700307 -0.037419673 0.023917891 0.08401268 0.1135782
0.053280707 0.64394516 -0.0945213 -0.015929922 0.07313694 0.044823565 0.0050865686 0.4057675
0.03806368 -0.063461706 0.059257545 0.22026123 -0.33989552 0.057179008 0.3145168 0.02476935
0.28825518 -0.045346893 0.020660905 0.54655486 -0.38452405 -0.024468005 -0.089922845 -0.27253652
-0.07572321 0.0067950636 -0.30419505 -0.09185308 -0.040886726 0.09418495 -0.27069283 0.1864295
-0.42011437 -0.03432192 0.011027798 -0.17826298 -0.12475943 0.02102916 -0.020554291 0.09227151
-0.0672864 -0.06859222 0.19808267 -0.05679307 -0.22917496 -0.089350976 -0.004660845 -0.07391206
0.08628806 0.033482946 -0.013595506 0.06206604 0.13955866 -0.16739924 0.3356575 0.21145064
-0.23563547 -0.09209041 -0.41092518 -0.14671853 -0.08213667 0.33625355 -0.025231661 0.081479795
-0.37454757 -0.28169778 -0.14284246 0.33783108 0.049154423 -0.019751348 -0.12528183 0.028803982
0.0025375385 0.00861863 0.18422234 -0.31229204 0.0077788993 -0.082718596 -0.33519968 0.11752616
0.17245583 0.061556645 0.28675663 -0.347356 0.41148284 0.14088885 0.021744445 -0.07965751
-0.06729312 -0.09479292 -0.03747183 -0.016378758 0.1180003 -0.25593573 -0.29211304 -0.12408901
0.09577179 -0.06702344 0.07211187 -0.2267059 -0.1796564 -0.6044697 0.044949718 0.042839594
-0.045129545 0.06932212 -0.037716355 -0.41697598 -0.0055061835 0.048008986 0.1097083 -0.3200891
0.40326962 0.09016027 -0.3593859 -0.072250955 -0.26692414 0.0006733537 0.045636807 -0.5620513
0.3951505 0.0006476268 0.043155916 0.41385186 0.041696377 0.07729951 0.26324284 -0.08905816
0.04846797 0.036833733 0.18631156 -0.18778308 0.60204786 0.0335133 -0.039699707 0.14861889
0.00062805077 0.12322566 0.025619023 -0.19193587 -0.060913958 -0.09462347 -0.15954432 -0.0009382963
0.21426101 0.010489985 0.06607651 -0.068876125 -0.11073734 0.057974525 0.03947356 -0.14344211
-0.02324378 0.12375603 -0.26304606 -0.38971165 0.34771568 0.047730602 0.4361639 0.16383222
-0.0573689 -0.33250168 0.03134542 -0.070106745 0.2541741 0.13031991 0.13126478 -0.3133303
-0.00800192 0.04069639 0.0565226 0.026502095 -0.08671097 0.16769417 -0.037510216 0.46096697
0.060967125 -0.0060308427 0.32131493 -0.06871833 -0.10032963 0.035727553 -0.4068076 0.23495486
-0.3420451 -0.1883529 0.013244152 0.03664302 -0.045518186 0.029972412 0.012694381 0.18416871
00000000: e761 a0bd ab34 393e 7c95 653e 416c 8f3d
00000010: 5f45 19bd 74ef c33c d70e ac3d b09b e83d
00000020: df3c 5a3d 97d9 243f 6294 c1bd 787f 82bc
00000030: d2c8 953d ea98 373d 3bad a63b c2c0 cf3e
00000040: a9e8 1b3d 36f8 81bd 0ab8 723d 298c 613e
00000050: c906 aebe 8934 6a3d 5908 a13e 18e9 ca3c
00000060: 2f96 933e aabd 39bd 0f41 a93c 05eb 0b3f
00000070: 56e0 c4be 2071 c8bc 7829 b8bd e889 8bbe
00000080: c514 9bbd 20a9 de3b 74bf 9bbe 781d bcbd
00000090: d778 27bd 0ae4 c03d 4098 8abe 60e7 3e3e
000000a0: 3b19 d7be 2495 0cbd f0ad 343c 928a 36be
000000b0: df81 ffbd 5845 ac3c 7961 a8bc d8f8 bc3d
000000c0: 74cd 89bd 147a 8cbd 2fd6 4a3e da9f 68bd
000000d0: d7ac 6abe a5fd b6bd 00ba 98bb 355f 97bd
000000e0: cbb7 b03d 6a25 093d afbf 5ebc f638 7e3d
000000f0: 77e8 0e3e b56a 2bbe 4ddb ab3e 8486 583e
00000100: 6d4a 71be e699 bcbd c964 d2be 623d 16be
00000110: 4537 a8bd 6d29 ac3e a1b2 cebc e1de a63d
00000120: b3c4 bfbe b13a 90be 4b45 12be 32f8 ac3e
00000130: 2656 493d 94cd a1bc e149 00be 54f6 eb3c
00000140: d54c 263b 2735 0d3c c8a4 3c3e bee4 9fbe
00000150: 23e6 fe3b 5e68 a9bd 4b9f abbe 8eb1 f03d
00000160: 4398 303e d222 7c3d c4d1 923e a5d8 b1be
00000170: e1ad d23e 2b45 103e 6821 b23c 7a23 a3bd
00000180: fad0 89bd ca22 c2bd 107c 19bd bf2c 86bc
00000190: 24aa f13d 020a 83be d78f 95be 6122 febd
000001a0: 0024 c43d 9643 89bd 63af 933d 9725 68be
000001b0: d9f7 37be 87be 1abf 321d 383d 9278 2f3d
000001c0: c2d9 38bd c1f8 8d3d 777c 1abd e07d d5be
000001d0: 376d b4bb 12a5 443d bfae e03d b8e2 a3be
000001e0: 5b79 ce3e f3a5 b83d 6e01 b8be 4ff8 93bd
000001f0: 48aa 88be 0084 303a a9ed 3a3d 98e2 0fbf
00000200: 2b51 ca3e 80c5 293a 42c4 303d 64e4 d33e
00000210: d2c9 2a3d 354f 9e3d c4c7 863e 2064 b6bd
00000220: 5a86 463d f8de 163d 75c8 3e3e 354a 40be
00000230: cf1f 1a3f 3e45 093d 299c 22bd 8d2f 183e
00000240: c6a3 243a bc5d fc3d fcde d13c d68a 44be
00000250: ea80 79bd f3c9 c1bd 965f 23be 00f8 75ba
00000260: 3d67 5b3e 30de 2b3c 1f53 873d ed0e 8dbd
00000270: 42ca e2bd b276 6d3d 07af 213d 7de2 12be
00000280: bd69 bebc cd73 fd3d f9ad 86be 4988 c7be
00000290: ca07 b23e 2a81 433d e050 df3e a2c3 273e
000002a0: a7fb 6abd a93d aabe 0e64 003d 2094 8fbd
000002b0: 1c23 823e 9572 053e 466a 063e d46c a0be
000002c0: 7c1a 03bc 42b1 263d 3e84 673d ec1a d93c
000002d0: 8595 b1bd 05b8 2b3e 50a4 19bd dd03 ec3e
000002e0: aab8 793d 609e c5bb 6483 a43e 32bc 8cbd
000002f0: 9f79 cdbd 0e57 123d 1649 d0be 0298 703e
00000300: 8920 afbe 95df 40be 00fe 583c fe16 163d
00000310: 4771 3abd b488 f53c 18fc 4f3c b996 3c3e
