Models/runs/optuna_sage_2/SAGE_2_mut_0.5_cross_0.5_type_uniform_iter_150/SAGE2_seed_13_thr_5_date_03-24_19-05.pt (torch, 2647 bytes, 6 tensors)

conv1.lin_l.weight f4 [8, 5]
-3.388662 -9.4957695 -0.9627134 -6.2260847 5.1879044 -4.7900653 4.278003 1.380228
-1.3386315 3.4644556 -3.601667 -3.7079995 -0.75994384 0.39237934 0.29533198 1.4910262
1.1797107 0.6583339 -6.7384863 -5.3274508 -5.1371293 4.6393843 4.11996 -9.563944
-2.253202 7.736478 -4.739377 6.747716 9.921421 7.578464 -5.4672503 1.073904
-5.7612 -2.1147835 -9.290578 -7.3409834 0.7265475 0.0838356 -6.0653343 -3.535705
00000000: d7df 58c0 acee 17c1 6374 76bf 163c c7c0
00000010: 5003 a640 3748 99c0 67e5 8840 50ab b03f
00000020: 4758 abbf a4b9 5d40 b681 66c0 dd4f 6dc0
00000030: ae8b 42bf f2e5 c83e c135 973e f2d9 be3f
00000040: c300 973f 9288 283f aea1 d7c0 7a7a aac0
00000050: 5d63 a4c0 d675 9440 b6d6 8340 ea05 19c1
00000060: 7634 10c0 3a91 f740 faa8 97c0 4aed d740
00000070: 24be 1e41 c782 f240 b7f3 aec0 b075 893f
00000080: c05b b8c0 9d58 07c0 35a6 14c1 56e9 eac0
00000090: 04ff 393f 00b2 ab3d 3817 c2c0 fe48 62c0

conv1.lin_l.bias f4 [8]
-1.8403405 5.462542 0.17271736 1.3451802 1.2226114 2.1330583 -5.8316193 -7.209205
00000000: 4790 ebbf 25cd ae40 d2dc 303e dd2e ac3f
00000010: 887e 9c3f 0784 0840 a09c bac0 cfb1 e6c0

conv1.lin_r.weight f4 [8, 5]
-3.5027344 0.3635781 0.2806366 7.1920447 1.6637267 0.07988062 9.81431 2.0597935
3.9990208 5.9645314 -1.4751647 -1.9918234 5.211948 6.344512 5.8884916 1.2519104
-5.2820973 -1.6267117 2.4779947 -6.1798 1.164175 7.718402 3.8523858 1.7423326
8.015401 0.010379908 -0.4267515 3.4292994 -7.3389716 4.798647 -3.7789385 7.9604354
-5.932201 -4.6831293 4.926307 8.508436 -4.007016 4.3284326 0.62507945 -2.7422101
00000000: cd2c 60c0 e926 ba3e 9aaf 8f3e 3b25 e640
00000010: fff4 d43f 7398 a33d 6a07 1d41 a8d3 0340
00000020: f5ef 7f40 71dd be40 32d2 bcbf 12f4 febf
00000030: 47c8 a640 3e06 cb40 866e bc40 9a3e a03f
00000040: f106 a9c0 1738 d0bf 7797 1e40 ecc0 c5c0
00000050: b003 953f 26fd f640 7d8d 7640 c104 df3f
00000060: 153f 0041 7d10 2a3c 2c7f dabe a479 5b40
00000070: dbd8 eac0 848e 9940 21da 71c0 e3bb fe40
00000080: 97d4 bdc0 32dc 95c0 4fa4 9d40 8e22 0841
00000090: 7a39 80c0 8582 8a40 3505 203f 5f80 2fc0

conv2.lin_l.weight f4 [2, 8]
-3.7892756 7.3113027 9.551848 -2.6855285 6.9155293 3.192128 2.7613316 -7.8751774
1.3102682 4.50043 5.853786 -5.0303106 -3.3297598 1.2549922 -0.51726454 6.01729
00000000: 7e83 72c0 31f6 e940 5fd4 1841 b3df 2bc0
00000010: 044c dd40 d34b 4c40 a8b9 3040 7401 fcc0
00000020: deb6 a73f 8603 9040 3752 bb40 4ef8 a0c0
00000030: c91a 55c0 96a3 a03f 736b 04bf a48d c040

conv2.lin_l.bias f4 [2]
-0.12074182 -8.220871
00000000: 7d47 f7bd b088 03c1

conv2.lin_r.weight f4 [2, 8]
6.3239985 -7.447706 -2.110979 8.399643 -4.19564 5.0819097 2.9472325 3.3644648
2.443341 0.8484903 0.707615 -2.6234922 3.6986237 0.66793925 -3.793109 -6.8157053
00000000: 325e ca40 9c53 eec0 481a 07c0 f064 0641
00000010: af42 86c0 019f a240 759f 3c40 6453 5740
00000020: b35f 1c40 a936 593f 4226 353f 4ce7 27c0
00000030: 40b6 6c40 11fe 2a3f 4cc2 72c0 421a dac0
