Models/runs/optuna_sage_3/SAGE_1_mut_0.6_cross_0.5_type_one_point_iter_150/SAGE1_seed_13_thr_5_date_04-03_20-58.pt (torch, 1443 bytes, 3 tensors)

conv1.lin_l.weight f4 [2, 5]
0	0x40884a23	4.25905
1	0x3fed306e	1.8530405
2	0x4079797c	3.8980398
3	0x40d12df3	6.536859
4	0xbf4b3377	-0.79375404
5	0xbe2b4244	-0.16724497
6	0xc0a41bd0	-5.128395
7	0xbfb95140	-1.447792
8	0xbf81ba16	-1.0134914
9	0xc0e60312	-7.187875

conv1.lin_l.bias f4 [2]
0	0x404904f3	3.140927
1	0x40234928	2.55134

conv1.lin_r.weight f4 [2, 5]
0	0xc0b44e92	-5.634591
1	0xbe099c88	-0.13438618
2	0x3f5b110b	0.8557288
3	0xc0347f55	-2.8202717
4	0x3fa6568f	1.2995166
5	0x41112284	9.070927
6	0x3dedeeea	0.11617835
7	0x408b5627	4.3542666
8	0x40f3c9d1	7.618386
9	0x40dff9fd	6.999266
