Models/runs/scalefree/Pruebas_GA/SinBC/GAT_seed_13_thr_5_date_01-14_15-26.pt (torch, 2049 bytes, 5 tensors)

conv1.att_src f4 [1, 1, 2]
000000 b4 fb f0 c0 2b be a0 3f
       -7.5307255 1.2558035

conv1.att_dst f4 [1, 1, 2]
000000 50 90 02 c1 bc a4 68 40
       -8.160233 3.6350546

conv1.bias f4 [2]
000000 68 ad 65 40 29 72 bc 3f
       3.5887089 1.4722339

conv1.lin_src.weight f4 [2, 4]
000000 6b 7a 0e c1 c2 d4 96 3f 3a eb d1 40 ed de 19 c0
       -8.904887 1.1783679 6.559964 -2.4042313
000010 c0 cc a0 c0 d3 d5 c2 3f 79 2c 70 c0 db 43 e6 40
       -5.024994 1.5221504 -3.7527144 7.195783

conv1.lin_dst.weight f4 [2, 4]
000000 6b 7a 0e c1 c2 d4 96 3f 3a eb d1 40 ed de 19 c0
       -8.904887 1.1783679 6.559964 -2.4042313
000010 c0 cc a0 c0 d3 d5 c2 3f 79 2c 70 c0 db 43 e6 40
       -5.024994 1.5221504 -3.7527144 7.195783
