Models/runs/optuna/GCN_2_mut_0.4_cross_0.5_type_two_point_iter_100/GCN2_seed_13_thr_5_date_03-15_22-20.pt (torch, 1951 bytes, 4 tensors)

conv1.bias f4 [8]
000000 d3 4e 9d bf f3 90 6a c0 64 3d 11 c0 45 c4 a9 c0
       -1.228968 -3.665097 -2.269372 -5.3052087
000010 b6 02 cd c0 b2 43 60 c0 97 3e d1 40 51 37 b9 c0
       -6.406581 -3.5041318 6.5388904 -5.7880025

conv1.lin.weight f4 [8, 5]
000000 e7 21 27 c0 aa 20 e7 c0 4f f2 05 41 6e f0 88 bd
       -2.6114442 -7.2227373 8.371657 -0.06686483
000010 18 3f 0b 3f a9 dd 5e 3f af 60 a8 c0 b4 33 19 c1
       0.5439315 0.87056977 -5.261802 -9.575123
000020 86 26 f9 c0 f5 5b dc c0 31 a3 c7 40 71 a0 2c c0
       -7.7859526 -6.886225 6.238671 -2.6972926
000030 d8 d0 fc 3f b6 77 10 be 59 2c 9a c0 4d 11 19 41
       1.9751234 -0.14108166 -4.8179135 9.566724
000040 12 0e d5 be cd 14 bd bf cc 26 24 3f 52 63 83 be
       -0.41612297 -1.4771973 0.641217 -0.25661713
000050 3a 19 a4 c0 85 7d 0c c0 8f 8a 04 c0 db bc 2a 40
       -5.1280794 -2.195161 -2.070957 2.6677768
000060 fc 98 ab 40 92 64 0b c1 d2 0d ab 40 b4 6a ba 40
       5.362425 -8.712053 5.345437 5.8255253
000070 66 7b f2 c0 b4 81 ec c0 6a 70 c4 40 ff b4 59 c0
       -7.5775633 -7.390833 6.1387224 -3.4016721
000080 00 fe 2c 40 73 03 3d bf 09 4e 48 c0 b0 53 2c 40
       2.703003 -0.7383339 -3.129763 2.6926079
000090 58 fb 13 c1 d5 86 76 c0 6b c8 f9 40 b5 34 c0 3e
       -9.248863 -3.8519795 7.805715 0.37540212

conv2.bias f4 [2]
000000 24 2f ca 40 2a 77 d9 c0
       6.3182545 -6.7957964

conv2.lin.weight f4 [2, 8]
000000 94 e8 9d 3f 5d db b9 40 cd 58 7e c0 89 1d 95 c0
       1.2336602 5.8080277 -3.97417 -4.6598554
000010 8c 0b a7 c0 68 71 b6 c0 2e 97 15 3f f1 40 bd c0
       -5.2201595 -5.7013435 0.58433807 -5.9141774
000020 69 3a 82 c0 8f 6e b5 40 3f 64 16 41 92 a6 1e 41
       -4.06963 5.669746 9.399474 9.915667
000030 61 34 7d 40 e8 e4 05 41 c4 2f 19 40 4f 49 6b c0
       3.956322 8.368385 2.3935404 -3.6763494
