Models/runs/optuna_sage_2/SAGE_1_mut_0.4_cross_0.5_type_one_point_iter_150/SAGE1_seed_13_thr_5_date_03-24_19-05.pt (torch, 1443 bytes, 3 tensors)

conv1.lin_l.weight f4 [2, 5]
000000 ae d5 fd bf 53 3d 0f 41 ed 85 f3 3f d1 2a f9 3f
       -1.9830835 8.952472 1.9025246 1.9466192
000010 55 cb 96 40 ad 1c 51 bf a9 b0 c4 bf bf 0b 86 3f
       4.712321 -0.8168438 -1.5366412 1.0472335
000020 3d 3a cd c0 33 39 14 c1
       -6.413359 -9.263965

conv1.lin_l.bias f4 [2]
000000 e0 f9 47 bf b3 b3 a1 3f
       -0.78115654 1.2632965

conv1.lin_r.weight f4 [2, 5]
000000 d2 59 92 40 f1 9b e7 c0 9a 38 90 3f f8 ca f3 3f
       4.5734644 -7.237786 1.1267273 1.9046316
000010 70 1f c9 c0 d2 24 00 c0 3b 67 0d 41 39 13 2b 40
       -6.2850876 -2.0022473 8.837703 2.6730483
000020 a3 e5 c7 40 95 59 a2 40
       6.246782 5.0734353
