Models/runs/optuna_sage_2/SAGE_1_mut_0.4_cross_0.5_type_one_point_iter_150/SAGE1_seed_13_thr_5_date_03-24_19-05.pt (torch, 1443 bytes, 3 tensors)

conv1.lin_l.weight f4 [2, 5]
000000 fe 2b e3 be 32 32 06 41 01 8c c6 40 87 ee 0e 40
       -0.443695 8.387255 6.2045903 2.2333086
000010 cb 91 b5 40 25 1b f2 bf 69 af 95 3e 06 54 d0 c0
       5.674047 -1.8914534 0.2923539 -6.510257
000020 5c 43 06 c0 6c b3 85 c0
       -2.0978613 -4.178152

conv1.lin_l.bias f4 [2]
000000 20 a8 81 40 1a 65 0d 40
       4.051773 2.2092957

conv1.lin_r.weight f4 [2, 5]
000000 18 9d e1 c0 16 cf ad 40 00 13 eb c0 b1 4b 00 40
       -7.0504265 5.431529 -7.3460693 2.0046198
000010 4c 93 09 c1 38 d7 12 c1 a5 a9 01 41 b0 3c 91 40
       -8.598461 -9.177544 8.103917 4.538658
000020 80 7a 1a 41 76 db 9b 40
       9.654907 4.8705397
