Models/runs/GridSearch/SGConv_2_mut_0.5_cross_0.6_type_one_point_iter_100/SGConv2_seed_13_thr_5_date_03-11_11-17.pt (torch, 1887 bytes, 4 tensors)

conv1.lin.weight f4 [8, 5]
-7.6797485 3.8425136 -2.4534235 5.5268807 -8.433195 -6.2090425 9.284971 -8.863822
1.4747107 5.5877967 4.978991 4.640161 -7.0626755 -1.0774715 5.874652 5.793704
7.996285 -5.140524 6.895758 2.636573 3.2467678 -3.8184552 0.9858887 1.8923787
-6.780072 2.1561854 6.729576 -6.808769 -0.88185066 9.394725 -7.709485 8.595986
4.7792406 2.7157147 2.0472574 3.4440944 3.786682 0.2398711 -1.5196218 -4.881866
00000000: 80c0 f5c0 beeb 7540 e404 1dc0 35dc b040
00000010: 5eee 06c1 7ab0 c6c0 3e8f 1441 37d2 0dc1
00000020: 52c3 bc3f 3bcf b240 e553 9f40 337c 9440
00000030: 7001 e2c0 96ea 89bf 26fd bb40 0666 b940
00000040: 91e1 ff40 2c7f a4c0 0daa dc40 9dbd 2840
00000050: 0bcb 4f40 9261 74c0 3463 7c3f 7739 f23f
00000060: 5af6 d8c0 f1fe 0940 b058 d740 70e1 d9c0
00000070: f7c0 61bf cb50 1641 1ab4 f6c0 2989 0941
00000080: 8aef 9840 45ce 2d40 4406 0340 0b6c 5c40
00000090: ff58 7240 c5a0 753e f882 c2bf 3f38 9cc0

conv1.lin.bias f4 [8]
-1.5898459 -0.81687725 -9.203173 -4.2460766 5.101264 -1.2297825 5.742531 -2.4807756
00000000: 1280 cbbf de1e 51bf 3240 13c1 dcdf 87c0
00000010: 8e3d a340 8369 9dbf d0c2 b740 07c5 1ec0

conv2.lin.weight f4 [2, 8]
-6.2216983 -0.33005854 8.978374 8.212761 -3.7686534 3.7462463 6.9511895 -7.7549124
5.3008995 9.765706 -2.739034 5.778983 0.55000657 4.2988777 5.9408803 -1.0268291
00000000: 2718 c7c0 6ffd a8be 6ba7 0f41 7867 0341
00000010: 9e31 71c0 80c2 6f40 2570 de40 3e28 f8c0
00000020: f8a0 a940 5540 1c41 554c 2fc0 6eed b840
00000030: 3bcd 0c3f 6890 8940 b11b be40 236f 83bf

conv2.lin.bias f4 [2]
7.430948 -8.859265
00000000: 53ca ed40 8dbf 0dc1
