Models/runs/Erdos/SAGE_epochs_21_seed_13_thr_5_date_12-11_20-47.pt (torch, 7447 bytes, 6 tensors)

layers.0.lin_l.weight f4 [100, 4]
000000 7f 92 70 3e 65 40 ea 3e 52 08 be be 6a 59 00 bf
       0.23493384 0.45752254 -0.37115723 -0.50136435
000010 95 d7 b1 bd ec 63 0b 3f e7 71 dd bd cc f6 43 bc
       -0.08683697 0.54449344 -0.10812741 -0.011960696
000020 f1 d4 b8 be e0 68 a5 3e 15 12 ac 3d 91 11 b2 3e
       -0.3609996 0.32306576 0.084018864 0.34779027
000030 64 59 b4 bd 15 4c b2 3e 87 6b 54 3e 90 b8 01 3f
       -0.088061124 0.3482367 0.20744143 0.50672245
000040 9d ed 93 3e cf 7e bf be 1d 44 e7 bd 92 90 1c be
       0.28892222 -0.37401435 -0.112922885 -0.15289524
000050 54 f5 1b 3f 67 36 3f be 99 84 49 3e 1d 37 49 be
       0.60921216 -0.18673097 0.19679488 -0.1964993
000060 a7 4b c0 3e 38 77 59 be ed a5 e0 3e 90 ca d2 3d
       0.37557718 -0.21236885 0.4387659 0.10292542
000070 48 94 f8 bd 7c 86 cf be 0c 0c d5 3e b2 24 b2 be
       -0.121376574 -0.4053229 0.41610754 -0.3479362
000080 42 e0 6f be 1f e3 98 be 2c 29 a1 3d bf b0 9d 3c
       -0.23425391 -0.2986078 0.07869181 0.019249318
000090 60 c5 83 be 38 2a 45 3e e6 92 8d be a4 9e e9 3e
       -0.25736523 0.19254386 -0.27651137 0.45628846
0000a0 55 6d 91 be 29 e8 43 be 21 4c c6 be b4 39 58 3e
       -0.28403726 -0.19131531 -0.38729957 0.21115762
0000b0 34 c8 c9 be ec c8 a8 be 9b 8a 8f be 28 bc 73 3c
       -0.39410555 -0.3296579 -0.28035435 0.014876403
0000c0 5d bf 0a bd 44 08 de 3e b6 96 77 3d 20 24 05 3f
       -0.033873904 0.4336568 0.060446464 0.5200825
0000d0 19 01 c8 be 21 af 4d 3c 4f 98 b7 3d 9e d3 bd bd
       -0.39063337 0.012553961 0.089645974 -0.092688784
0000e0 60 87 84 3e 34 54 bf be 40 1d dd be 48 d4 3b be
       0.25884533 -0.3736893 -0.43186378 -0.18342698
0000f0 4c b8 12 3f 5e b1 8a 3e e4 82 f6 3e 42 f5 03 3f
       0.57312465 0.27088445 0.48146737 0.5154611
000100 5c 17 bb be 1a a6 8e bd d1 c5 35 3e 66 82 46 be
       -0.3654126 -0.06965275 0.17751242 -0.1938568
000110 c0 2f 07 bc d6 73 d7 3e 60 53 84 3c f6 b8 9d be
       -0.008251131 0.42080563 0.016153038 -0.30805176
000120 a1 bd 04 bc d8 bb ad 3e aa 05 c4 3e d4 55 e5 3e
       -0.008101852 0.33932376 0.3828557 0.44792044
000130 ae a7 97 be 64 b1 15 be 44 e8 41 be 80 fe 77 bc
       -0.29620117 -0.1461845 -0.18936259 -0.015136361
000140 2d dd c8 3e 2c 4f 00 3e b3 36 92 3e cb b4 a9 3c
       0.39231244 0.12530202 0.28557357 0.020716092
000150 38 0b 5e be 36 39 a3 3e ee c4 93 be ac 27 e1 be
       -0.21683967 0.31879586 -0.28861183 -0.4397558
000160 40 52 a1 3e cd a7 80 3e 32 54 1a be 8a 1a 42 3d
       0.31508064 0.25128022 -0.1507118 0.04738859
000170 2e 2c 8f 3e 53 1e c4 bd 64 bb 9c bc fa 15 e4 3e
       0.27963394 -0.095760964 -0.019132324 0.44548017
000180 50 32 64 bd 1d 89 c3 bd cb a1 db 3e 6f 1e 07 be
       -0.055712044 -0.09547637 0.42896876 -0.13195203
000190 1c cc 03 be 14 3f 27 3e f0 e3 0e bd 48 84 e4 be
       -0.1287083 0.16332656 -0.034885347 -0.44632173
0001a0 b8 aa ac be 7d f4 30 3e 3d f2 f1 be 95 77 44 be
       -0.33723998 0.17280765 -0.47255126 -0.19186242
0001b0 f0 fa b0 3e a9 a7 51 be c7 b4 f8 bd 07 ca f2 be
       0.3456645 -0.20474114 -0.121438555 -0.4741976
0001c0 98 cc 57 3e 80 54 f2 3e b8 25 72 be e0 1f 51 be
       0.2107414 0.47330093 -0.23647201 -0.20422316
0001d0 7c bc a9 be e0 85 c8 be dc 89 1a be 0c 86 ad 3e
       -0.33151615 -0.3916464 -0.15091652 0.33891332
0001e0 00 9a 0d be 72 bb 98 be ac 4c 7f be 20 7f a7 bc
       -0.13828278 -0.2983051 -0.24931592 -0.02044636
0001f0 89 df c2 3e 31 d3 ee be 89 50 27 3e 1a 35 7a be
       0.3806117 -0.466455 0.16339315 -0.24434319
000200 50 f1 0e be 2c 97 c9 be 9b 7c ba 3e e1 cf 54 be
       -0.13959241 -0.39373147 0.3642319 -0.20782425
000210 30 9a d1 be b0 f3 f2 be c8 f7 26 3e 24 77 0a be
       -0.40937948 -0.47451544 0.16305459 -0.13522011
000220 f9 0d e5 3e 72 d8 b8 3e 35 35 ff 3e 62 de 82 3e
       0.44737223 0.36102635 0.4984528 0.2556029
000230 4e ad db be 74 1f 89 be bc cd ed 3e 20 7c 88 bd
       -0.42905658 -0.2678181 0.46446025 -0.066643
000240 04 23 85 be d8 ed c1 3e cc d1 a9 be b2 2c 01 bf
       -0.26003277 0.37876773 -0.33167875 -0.50458825
000250 da 79 3e 3e 1f 5d a9 3e 90 cd 97 3e e0 80 01 bf
       0.1860117 0.33078858 0.2964902 -0.5058727
000260 e7 85 d3 be 24 3c b0 3d 06 73 ac bd f4 57 34 3e
       -0.41313097 0.08605221 -0.084203765 0.17611676
000270 88 b8 c3 bc 52 bc 96 3e 9f f9 6d 3d 31 92 93 be
       -0.023891702 0.29440552 0.058099385 -0.28822473
000280 78 2d fe 3d bc b0 8e be d5 18 d9 3e ea c4 da bd
       0.12411016 -0.27869213 0.42401758 -0.106820896
000290 ae 19 f8 bd f8 2c 05 3f e2 9a 88 3e 7f 87 06 3e
       -0.12114273 0.5202174 0.26680666 0.13137625
0002a0 4f 5d 72 be 7d 8e 96 3e 32 72 63 be e7 5b 01 3f
       -0.23668407 0.29405585 -0.22211531 0.50530857
0002b0 d8 3a fe 3e b0 69 3b be 48 e1 77 3e e5 2f 26 3f
       0.4965427 -0.18302035 0.24207032 0.6491683
0002c0 4e 87 64 bd cc b1 97 3c 47 5a 12 be 05 af d0 bd
       -0.0557931 0.018517397 -0.1429225 -0.10189632
0002d0 3d 37 e7 be 2b 49 0e 3e 59 0d d2 3d d5 d8 87 be
       -0.4515933 0.13895099 0.10256452 -0.26532617
0002e0 c8 18 26 be 84 e3 f8 3e 10 74 7a 3e 9e 62 ef be
       -0.16220391 0.4861108 0.24458337 -0.46754926
0002f0 29 12 5a 3e 0e 66 d2 3e 64 dc 7a bc 52 82 3c be
       0.2129599 0.41093487 -0.015311334 -0.18409088
000300 d0 7a e8 3d b7 60 f4 bd 2e 6d 8c bd bb fa a9 3e
       0.113515496 -0.119325094 -0.06856762 0.33199105
000310 df e4 03 bc 06 3f e0 3e 2f a1 87 3e 90 15 78 be
       -0.008050173 0.43798083 0.2649016 -0.24226975
000320 c5 cd db 3d bd b0 98 bd df 42 05 3f f8 88 44 3e
       0.10732607 -0.07455585 0.5205516 0.19192874
000330 48 dd b2 be c4 f3 04 3f 1f e6 8f 3e 26 a3 b8 3e
       -0.3493445 0.51934457 0.28105256 0.36061972
000340 2c 34 64 be 02 a8 99 3e 38 e0 7c be 34 74 b3 3e
       -0.22285527 0.30010992 -0.24694908 0.35049593
000350 3f 10 5b bc a2 bc 1a 3e dd c6 29 3d ba fa b3 3c
       -0.013370573 0.1511102 0.041449416 0.021970142
000360 7a bd f5 bc 52 5a 97 3b 04 e6 0f be 64 cc a6 3e
       -0.029997576 0.0046189213 -0.14052588 0.32577813
000370 93 7d be 3d 98 3c 1f 3e 23 6f bc be e4 31 01 3e
       0.09301295 0.15550458 -0.3680354 0.12616688
000380 b8 eb 78 be 48 d8 87 be f2 de 80 be 9c 5d dd 3e
       -0.2430867 -0.26532197 -0.25170094 0.4323548
000390 04 b5 7b 3e a0 ad 10 3e 30 38 cd 3e 87 58 29 3e
       0.2458077 0.14128733 0.4008193 0.16537677
0003a0 d4 22 cd 3e 0d c9 bc 3e 9f ad 46 bc de 8c 12 3e
       0.40065634 0.3687214 -0.012126355 0.14311549
0003b0 9e e9 81 3e 00 a4 c2 be d0 63 ad bd 1a 88 ff be
       0.25373548 -0.38015747 -0.08466303 -0.49908525
0003c0 7a fc d3 3e 64 62 7b 3e 4c 25 b2 be 54 3d d6 be
       0.41403562 0.24549252 -0.3479408 -0.41843665
0003d0 c4 0e ce be be 1b fc 3e f8 75 8b be 3a b0 a5 3e
       -0.4024564 0.49239916 -0.2723844 0.32361013
0003e0 a1 32 33 3f cf ac 26 be f5 e0 23 3f 3c fa 02 3f
       0.6999913 -0.16276859 0.6401513 0.5116308
0003f0 a2 f7 34 3d 48 45 f1 be 2b cd 0c bd a4 ea fb 3d
       0.044181474 -0.4712317 -0.03437535 0.123006135

layers.0.lin_l.bias f4 [100]
000000 c8 f3 54 3d 6e f8 84 3e 20 42 99 be f0 ff 6e 3e
       0.0519903 0.25970787 -0.29933262 0.2333982
000010 5f 37 11 3e a4 42 46 3e 36 40 bc be 8a 23 85 be
       0.14181279 0.19361359 -0.3676774 -0.26003677
000020 22 95 f3 bd 66 89 c5 3e ab aa 96 3e 33 21 aa 3e
       -0.11893679 0.3858139 0.29427084 0.33228454
000030 52 96 03 3f e0 19 f4 3e 38 f5 89 bd b0 a9 85 be
       0.51401246 0.4767599 -0.06736225 -0.26106024
000040 d5 47 e1 be fe 52 98 be 5b 55 11 3e 64 37 fd be
       -0.44000116 -0.29750818 0.14192717 -0.49456322
000050 7f d0 fb be a6 44 c5 be 72 3a 6c be cb c6 68 be
       -0.49182507 -0.38528937 -0.2306917 -0.22732083
000060 48 3d 39 3e 24 2b ae be b7 6c 3d ba 4c 5e b4 3e
       0.18089783 -0.3401729 -0.00072259776 0.35228193
000070 94 69 ae be ea 68 f1 be 00 76 ad 3a 84 a3 2d be
       -0.34064925 -0.47150356 0.0013234019 -0.16956908
000080 a4 80 bd 3e a6 38 a9 be 42 2f c0 3e a6 47 c4 be
       0.37012208 -0.33051032 0.37536055 -0.38335913
000090 87 83 a4 3e 05 6b ff 3d 30 e1 11 3c 41 b4 b5 3e
       0.32131597 0.12471584 0.008903787 0.35489085
0000a0 f9 58 be 3e 80 0e e5 3d f0 38 4b bd 18 ba e3 3a
       0.37177256 0.11184406 -0.049614847 0.0017374186
0000b0 fd 7d 08 3f 30 02 c3 3d a0 c3 ba be f2 2c bd 3e
       0.5331724 0.095219016 -0.36477375 0.36948353
0000c0 ef 88 98 bd 53 09 e9 3e b8 c8 a5 3e a1 f7 7e 3e
       -0.07447993 0.45514926 0.323797 0.2489915
0000d0 6c 7d ca be 13 76 c3 3e da ab c5 be 47 ed 2a 3e
       -0.39548814 0.3817602 -0.38607675 0.16692077
0000e0 f4 bc 69 be 69 38 d3 3d d4 d7 07 3f c2 36 d9 be
       -0.22825986 0.10313494 0.530637 -0.4242459
0000f0 b0 50 80 3d 6c e5 f1 be 88 4c 2a be 74 6a 8e 3c
       0.0626539 -0.47245347 -0.16630757 0.017384745
000100 50 48 66 3d c0 64 26 be e5 df 34 be 57 41 11 3e
       0.056221306 -0.1624937 -0.17663534 0.14185081
000110 50 84 93 be 53 ac fe 3e e0 c2 42 3d e0 35 3d be
       -0.28811884 0.49740848 0.04754913 -0.18477583
000120 85 d2 b1 3e c9 a0 6a be ce 12 2b 3c df 92 0a bd
       0.34730926 -0.22912897 0.010441495 -0.033831473
000130 ab f6 45 be 48 99 ca bd 44 a2 d5 be 5f 7c a7 bd
       -0.19332378 -0.09892517 -0.4172536 -0.08178019
000140 f6 3b 8e bc 94 97 69 be 16 36 8a be 24 ce c2 be
       -0.017362576 -0.22811729 -0.2699439 -0.38047898
000150 f4 5e 40 be bb 97 d9 3e 0d 53 c1 3e c8 f3 d8 3d
       -0.18786222 0.42498574 0.37758675 0.105933726
000160 92 d2 9d be 2f a0 a7 3e 6a 6d 83 3e 44 5c 00 3f
       -0.30824715 0.32739398 0.25669414 0.50140786
000170 f9 08 68 3e 8f 7a f9 3e e6 8d df 3e f0 e0 fd be
       0.22659673 0.48726317 0.43662947 -0.49585676
000180 7a fb 30 3e f7 9f e7 3e 60 02 d0 bd 79 3c c5 3e
       0.1728343 0.4523923 -0.10156703 0.385227

layers.0.lin_r.weight f4 [100, 4]
000000 c5 1f 14 3f 3b 48 6f be 8c 34 c8 3e be de 8e 3e
       0.57860976 -0.23367397 0.3910259 0.27904314
000010 f3 69 5e be c8 60 18 be 6a 9f 22 be 9f fa 10 be
       -0.21720104 -0.14880669 -0.15881124 -0.14158104
000020 fb b9 5c 3e e1 d4 9b 3e 86 9d 63 3e 05 de 16 3f
       0.21555321 0.3043585 0.22228059 0.58932525
000030 1f 63 7f 3e 80 94 4a 3e e1 64 36 3e 0a 57 e2 3d
       0.24940155 0.19783211 0.1781192 0.11051758
000040 51 db 08 3e 1c 3f 97 3e f7 76 e1 be f6 90 83 be
       0.13364913 0.29540336 -0.44036075 -0.25696534
000050 13 8e ac bc 60 97 8a be 8c 99 ab bd 25 b8 8c 3d
       -0.02106384 -0.27068615 -0.08378896 0.0687106
000060 a6 bb 2f 3f f4 41 be 3c ac 4e 13 3f 81 e8 7c 3d
       0.68645704 0.023224808 0.5754192 0.06174517
000070 50 ae f3 3e 24 f1 8c be 3c 65 a0 be 34 06 bd 3e
       0.47593927 -0.27527726 -0.31327236 0.36918795
000080 d8 0e 2d 3f 91 90 a7 3d 5a 7a 1f 3f fe ed 63 3e
       0.67600775 0.08181871 0.6229607 0.22258756
000090 39 e8 02 bf b4 16 e6 3e bc 81 e0 be 6c d0 05 3e
       -0.51135594 0.44939196 -0.4384898 0.13067788
0000a0 00 aa 1d be 86 10 aa bd 16 50 94 be 66 75 70 3e
       -0.15396881 -0.08303933 -0.2896735 0.23482284
0000b0 09 a9 b0 3e c0 bc a7 3e c8 ae 90 3e ad 26 ee 3e
       0.34503964 0.32761192 0.28258348 0.46513882
0000c0 a8 73 e6 bd 00 fc 33 bf 86 c8 ef 3d 1c b6 a4 be
       -0.112525284 -0.70306396 0.11708169 -0.32170188
0000d0 c9 03 0e be f0 c1 f4 3d 6e c1 06 bf 3e bc a7 3e
       -0.13868631 0.11951053 -0.526389 0.32760805
0000e0 f8 35 ee bd e0 e6 7e bd 7c 3b ab 3e d8 36 94 3d
       -0.116313875 -0.0622319 0.3344382 0.07237023
0000f0 41 7f c7 be b1 39 af be 1e ff c2 be a6 f7 1c 3e
       -0.38964275 -0.34223703 -0.38085264 0.15328845
000100 b5 d1 24 3f 04 56 1d 3f 81 51 12 3f 8a 53 08 3f
       0.6438249 0.61459374 0.57155615 0.5325247
000110 ba 2f d7 3e 68 5b b5 be 70 1c 54 bd b0 1e d3 be
       0.420286 -0.354213 -0.051784933 -0.4123435
000120 bf c9 12 be 2f ce 9e 3e 54 dc 06 3d 5c 14 fd be
       -0.14334773 0.3101668 0.032924965 -0.49429595
000130 d6 b1 c0 be 50 c1 f3 3d ec b1 29 3e b0 e5 8c 3d
       -0.37635678 0.11902106 0.16571778 0.06879747
000140 6c a9 be 3d 40 89 a9 3e 5a 67 24 3f 31 35 19 3c
       0.093096584 0.33112526 0.642202 0.009351061
000150 38 ba 11 3e 18 f7 d7 3d ec a2 ca 3e b6 04 f9 be
       0.14231193 0.10545176 0.39577425 -0.48636407
000160 47 6b 18 3e 16 85 a2 3d a7 9a d3 3e 6c ef a7 bd
       0.14884673 0.079355404 0.41328928 -0.08199963
000170 90 7e 87 bc c7 82 0a 3f 41 ce 12 3f f6 79 a8 bd
       -0.016539842 0.541058 0.5734597 -0.08226387
000180 83 36 0c bf 46 19 56 be 56 dd 1c be 74 53 a4 3e
       -0.5477068 -0.20908079 -0.15318808 0.3209492
000190 f0 26 b5 bd 6e 2c c5 3e 40 df 26 3e a4 a0 65 be
       -0.08845317 0.3851046 0.162961 -0.22424561
0001a0 8a 3d 8e be 59 7b 3d 3e c0 ec 24 3f 82 c7 ee 3e
       -0.27781326 0.18504085 0.6442375 0.46636587
0001b0 ec 7d 05 be a5 4b 8b bd d6 de d6 3e 92 1c a9 be
       -0.13036317 -0.068015374 0.41966885 -0.3302961
0001c0 46 92 f1 3e 0c 22 a5 be 20 dc c7 3c 50 10 04 bd
       0.4718191 -0.32252538 0.024396956 -0.03224212
0001d0 4e 7a 96 be c0 18 90 bc 82 0b d1 be 58 da 9e bd
       -0.29390186 -0.017589927 -0.40829092 -0.077564895
0001e0 c0 48 3a be 0e eb d8 3e f4 5b 94 3e b0 8e f6 be
       -0.18191814 0.42366832 0.28976405 -0.48155737
0001f0 e8 db 8f 3d 64 b7 bb 3d f5 c4 2e 3f eb 1e 05 3f
       0.07024366 0.09165838 0.6826928 0.520003
000200 5c fb 6a be 6b 98 f3 be ab 53 d2 be fb be 8f 3e
       -0.22947448 -0.47577223 -0.4107946 0.28075394
000210 04 77 d7 be 4c 6f 9a 3e c8 42 ce 3d 58 2d d0 bd
       -0.4208299 0.30163038 0.10071331 -0.10164899
000220 b5 3e c0 3e 53 0a 2b 3e 85 73 b2 be ee b9 f4 3e
       0.37547842 0.16703157 -0.3485376 0.47798103
000230 ae 79 b2 3e 30 7a 02 bd 34 c3 c9 be 60 ff 0d be
       0.3485846 -0.03185481 -0.3940674 -0.13866949
000240 b1 d4 1c 3e b4 a0 0d 3f 20 68 cf be 2b c7 00 3f
       0.1531551 0.5532334 -0.4050913 0.50303906
000250 3a b6 e9 bd f1 40 7f 3e 41 5e b8 be 73 84 83 3e
       -0.1141171 0.24927117 -0.3600941 0.25686988
000260 c2 56 52 3e fa 30 8a 3e ec 97 c8 be 5b 70 a3 be
       0.20540908 0.2699049 -0.39178407 -0.31921658
000270 fc 25 b7 3e 91 2d 54 3e 35 d1 83 be 22 ba 02 3f
       0.35771167 0.20720507 -0.2574555 0.51065266
000280 dc 66 d4 bd e4 55 aa be 31 b6 96 bd ca 08 97 bd
       -0.10371181 -0.33268654 -0.07358969 -0.07374723
000290 e6 8f 7f be 90 31 eb be e9 f1 f4 be dd 1d 9f 3e
       -0.24957237 -0.4593625 -0.47840813 0.3107747
0002a0 9d 59 93 3e 51 2a fb 3e 05 69 0a 3f 60 0f b6 3e
       0.28779307 0.49055722 0.540665 0.35558605
0002b0 68 a4 9a 3d 14 12 8b be 93 21 98 be b9 29 80 be
       0.07550889 -0.2716223 -0.29713115 -0.25031832
0002c0 0d e3 0a be 81 aa cf be c7 8f 01 3e 30 d0 1f be
       -0.13563175 -0.40559772 0.12652503 -0.15606761
0002d0 81 47 d4 be 3b 9b 1c 3d 78 1a f6 3e b6 2a c3 be
       -0.41460803 0.038233977 0.4806707 -0.38118523
0002e0 58 fe 7b be b8 d9 c5 be 2c dd 9c be f0 65 50 3d
       -0.24608743 -0.3864267 -0.3063749 0.050878465
0002f0 7c bc 43 3e 4c 28 f7 be b4 0f 8c bd d1 5f 40 be
       0.1911487 -0.48272932 -0.06838933 -0.18786551
000300 94 cd 5f 3e 31 7c 4f be 9e 76 48 3e 48 cf a6 3e
       0.21855766 -0.20262219 0.19576499 0.32580018
000310 9c b6 fb bc 0a 93 c3 be fc 6c 38 bd 55 fa 2b be
       -0.030726723 -0.3819812 -0.04502581 -0.16794713
000320 63 9c bd bd ae 09 80 3e d1 2b 1c bf 8a df f0 be
       -0.09258344 0.25007385 -0.6100436 -0.47045547
000330 bb ae 52 3d 68 e2 c8 be d1 04 a8 be c6 9d ae be
       0.051436167 -0.39235234 -0.32816175 -0.34104747
000340 80 9d 44 bd 06 dd 95 be c8 4a 9a 3d 94 08 dd be
       -0.048001766 -0.2927019 0.07533795 -0.43170607
000350 a2 2d dd 3e 0a 1f c2 3e 31 39 70 be 73 5c b2 be
       0.43198878 0.37914306 -0.23459317 -0.34836158
000360 18 31 a5 3e e1 8b 8f 3e 53 bb a7 3e 2b 56 8b 3e
       0.32264018 0.28036407 0.32760105 0.27214178
000370 2c 8c dc 3e 63 90 ea 3d 53 e7 6c 3e 1b 31 2d 3e
       0.43075693 0.11453321 0.23135118 0.16913263
000380 64 9a 1a be 32 7f 99 3e a0 6a 29 bd 20 f7 4e be
       -0.15097958 0.29979855 -0.04136145 -0.20211458
000390 1f f6 05 bd 87 cb 0a bf 90 59 98 3e 1c f7 94 3e
       -0.032705422 -0.5421681 0.2975583 0.2909478
0003a0 fc bb 89 3e e8 59 fd be 56 09 55 be 18 77 bb bd
       0.26901233 -0.49482656 -0.20804343 -0.09153575
0003b0 40 38 9c 3d e0 4f 72 be 70 e3 3e 3e 70 f9 f8 bd
       0.07627916 -0.23663282 0.18641448 -0.121569514
0003c0 a8 ba d1 bd b4 f5 32 be 92 84 be be 00 14 93 bd
       -0.1024068 -0.17476541 -0.37210518 -0.07181549
0003d0 08 b3 fe be c0 db 24 3e 62 e0 fe be 9c c2 e6 be
       -0.49745965 0.16099453 -0.49780566 -0.4507035
0003e0 cb 12 73 3c 6c 7b cd be 91 45 ab be 6e 7a 23 bd
       0.014836024 -0.40133226 -0.33451512 -0.03991168
0003f0 92 37 1e 3f 94 20 57 be f3 0f c9 3e 97 d1 1d 3e
       0.61803544 -0.21008521 0.3926998 0.15411983

layers.3.lin_l.weight f4 [2, 100]
000000 84 d6 75 3c ba 30 64 3c 0d 4f b3 3d 1b cd c9 bc
       0.015004758 0.013927633 0.08755312 -0.024633935
000010 42 f9 07 bc 1a 71 1f 3d 80 48 22 bc 0e ea 67 3d
       -0.008299174 0.03892622 -0.009904981 0.056619696
000020 e7 a9 8c 3d 72 4b 2a 3d 3f 2d c6 3d 0f 5c 8c 3d
       0.06868344 0.041575857 0.09676599 0.06853496
000030 55 b0 89 bd a6 9b f4 3d 15 2b c6 bd 08 e1 15 be
       -0.06723086 0.1194375 -0.09676186 -0.14636624
000040 1b 07 8e 3d 58 d1 b1 bd 3f ee 93 3d 0a cd 34 3d
       0.06934949 -0.08682507 0.07223176 0.044140853
000050 df 6d 07 bd 63 af ba bd 4a c4 43 bd 5f 8e 48 bd
       -0.033063766 -0.091154836 -0.047794618 -0.0489639
000060 36 2b fa bd 58 f2 5b bc 09 df 94 bc ee 39 0f bd
       -0.12215273 -0.0134244785 -0.018172758 -0.034967355
000070 54 b9 ec 3c dd 37 1f bd 55 d1 c8 bd 1c 28 c7 bc
       0.028896965 -0.038871635 -0.09805552 -0.024311118
000080 02 57 51 3d 2a 11 08 3d 84 34 f4 3c 14 8c 88 bd
       0.051108368 0.033219494 0.029810198 -0.06667343
000090 34 94 0c bd f1 3e 40 bd c9 80 ff bc e2 b8 55 3d
       -0.034321025 -0.046935026 -0.03118934 0.05217827
0000a0 79 e8 38 3e 56 3b 6b bd b0 2a ed 3d fe e0 95 bd
       0.18057431 -0.057429634 0.115804076 -0.073183045
0000b0 74 bd 5c 3d 04 71 72 bd 14 5e 8d bc 28 5c 0f 3d
       0.053891614 -0.05918981 -0.017256774 0.034999996
0000c0 64 8b c5 bc 9f 9f 0f bd 9c 23 ae bc 86 38 9e 3d
       -0.024114318 -0.035064336 -0.021257214 0.07725625
0000d0 18 4a 72 3c 54 a2 18 3e 28 8e 1e 3c 15 5e 4e 3c
       0.014788173 0.14905673 0.009677447 0.012595673
0000e0 22 23 06 3d f2 97 85 bd 41 d3 b4 3d c8 b3 af 3c
       0.03274835 -0.06523122 0.08829356 0.021448031
0000f0 d3 e1 4e bd 5a cb 23 3d 1a 77 0d be 55 ae 4a 3d
       -0.05050833 0.039988853 -0.13814965 0.049482662
000100 37 be 86 3d 79 cb d2 3c 41 31 31 3e 73 ad 66 bc
       0.06579249 0.025731789 0.17303945 -0.014079439
000110 74 fd 0b bd 8e d6 e2 3c fe 58 3f 3d 88 b6 a3 bd
       -0.03417726 0.027690198 0.04671573 -0.079937994
000120 94 90 ee bb 64 8f 1a be 91 31 6e 3d 9d 65 4b bd
       -0.0072804186 -0.15093762 0.05815274 -0.049657453
000130 8c b5 04 3d e8 97 b7 bd e2 f8 36 3d 7e 25 04 3e
       0.0323997 -0.08964521 0.044670947 0.12904927
000140 5e 4e 99 bd a0 02 00 bd 9d b1 50 bd ce a9 83 bd
       -0.074856505 -0.031252503 -0.050950635 -0.06428872
000150 a8 79 9d 3d ce 2f e2 bb 76 7e b6 3d 28 7b ad 3c
       0.0768922 -0.0069026714 0.08910839 0.02117689
000160 77 a2 c4 3d fc da c9 bc ab 59 8e 3d 48 c9 d2 3d
       0.096013 -0.024640553 0.069506966 0.102922976
000170 7c d8 89 3d 24 d7 f2 3b b8 c1 ae 3d 52 cb 09 3d
       0.06730744 0.0074109007 0.08533043 0.033641167
000180 39 cf b3 bd 78 4c 5f 3d a1 b7 c0 3d ed 9e 10 3e
       -0.08779759 0.054516286 0.094100244 0.14123125
000190 61 76 47 bd e8 3c 20 bd 99 68 90 bd b8 3e c9 bd
       -0.04869688 -0.039120585 -0.070512004 -0.09826416
0001a0 54 1a 04 bb ea 24 fd bd 9a 5b 06 be 12 c4 69 3d
       -0.0020157294 -0.123605564 -0.1312088 0.057071753
0001b0 e1 20 18 be 07 de d1 bd 5a d1 ce bd 71 b4 56 bd
       -0.14856292 -0.102474265 -0.100985244 -0.052418176
0001c0 59 e4 55 bd e7 55 b5 bc 23 a6 c5 3d 46 e4 02 3d
       -0.052219722 -0.022135688 0.09650829 0.03195598
0001d0 21 a7 52 3c f0 d9 06 3c e4 43 51 bd c7 e1 5c bd
       0.012857229 0.008230671 -0.051090136 -0.053926256
0001e0 99 bd 3a bd fe 5c a9 bd ff 55 23 3d da 4f 15 bd
       -0.04559097 -0.0826969 0.039876934 -0.036453106
0001f0 d2 73 75 3d b7 c3 bc bd 1a 96 7a bc 7c 27 58 3d
       0.059924908 -0.09217017 -0.015294576 0.05277203
000200 12 4b 23 3d 18 b9 c0 bc 14 48 c5 bc 51 b9 15 be
       0.039866515 -0.02352576 -0.024082221 -0.14621474
000210 a5 da 92 3d a3 46 48 bd d6 05 99 bd c0 9d 2d bd
       0.071706094 -0.04889549 -0.07471816 -0.04238677
000220 12 18 73 3b f8 ce 41 bc d6 81 90 3d f5 65 05 be
       0.0037093204 -0.01182913 0.07056014 -0.13027175
000230 ee 79 30 be b7 93 4c bc 52 1a 56 3d e0 4c 20 3d
       -0.17234012 -0.01248639 0.052271195 0.039135814
000240 1e 55 09 be f0 17 04 3d 60 dd 69 3b d4 ba 68 bd
       -0.13411376 0.03224939 0.0035684928 -0.0568188
000250 05 90 1f 3d 4f f2 9c bc 81 10 0e be af 74 94 bd
       0.038955707 -0.01915851 -0.13873483 -0.07248818
000260 0e 4d 39 3d 7e f8 26 be 56 93 dc 3c c7 f1 e6 bc
       0.0452395 -0.1630573 0.026925724 -0.02819146
000270 e0 c3 ad 3b f5 86 66 bd 97 66 09 3d 7a c5 05 bd
       0.005302891 -0.05628105 0.033545103 -0.03265903
000280 23 06 55 bd ab 4e c9 3d 87 2c 0f 3e a6 b6 1c bd
       -0.052007806 0.09829458 0.1398183 -0.038260125
000290 75 08 ca bd 91 1f 73 3b b8 f7 68 bd b6 44 07 bc
       -0.09864894 0.0037097672 -0.056876868 -0.008256128
0002a0 cd b5 8d bd d9 12 2c be d7 19 8f 3d 58 fd aa bd
       -0.06919441 -0.16804065 0.069873504 -0.08349103
0002b0 5f f5 0d be b8 56 0e 3e aa c0 a3 bc d9 ec 01 3e
       -0.13863133 0.13900268 -0.01998933 0.12688006
0002c0 3e e1 cc bb 29 f1 a8 3d e0 a6 cb bb 11 30 46 3d
       -0.006252437 0.08249123 -0.0062149614 0.048385683
0002d0 9f fa ff bc e5 52 c3 3d bc 93 07 bd 60 69 ec bc
       -0.031247435 0.09537295 -0.033099875 -0.02885884
0002e0 ee a1 57 bd c1 97 a4 bd fb ce 3b 3d a7 29 b1 bd
       -0.052644663 -0.08036757 0.04585169 -0.08650523
0002f0 62 00 06 3d 0f 20 7f bb 47 55 aa bd 27 34 82 bd
       0.03271521 -0.003892902 -0.083170466 -0.063576035
000300 1d ad f2 bb ea b0 32 3c 1a b4 c2 bc 88 1e b7 bd
       -0.0074058906 0.010906437 -0.02376752 -0.0894137
000310 eb 3b f8 3d a3 66 01 be e8 bd 07 3c ec 3d 06 be
       0.121208034 -0.12636809 0.008285023 -0.13109559

layers.3.lin_l.bias f4 [2]
000000 13 a5 ef 3c a7 18 c5 bd
       0.029253518 -0.09623843

layers.3.lin_r.weight f4 [2, 100]
000000 d9 8c 58 be ea 1c 81 3e ea 71 02 be d6 6c 7f 3c
       -0.21147479 0.25217372 -0.12738767 0.015589913
000010 c0 77 e1 3c db a1 c4 3e 22 38 f5 bd d8 a7 a6 bd
       0.027522922 0.38404736 -0.11973597 -0.081374824
000020 b5 08 2a be d0 5e c2 3d 21 0f 6f 3e 7e 76 ab bd
       -0.16604884 0.0949074 0.23345615 -0.0837221
000030 b9 ef 2f 3e 4d b8 0f 3e 20 d2 73 bd a3 d6 c5 3e
       0.1718129 0.14035149 -0.059526563 0.38640317
000040 d1 c0 7b be 9a 9f ad bd 1b 2d f8 bb c2 f9 c2 bd
       -0.24585272 -0.08477707 -0.0075737364 -0.09520294
000050 5d e3 29 be 60 68 c3 bd 4c cc 1a be e3 4b 20 be
       -0.16590638 -0.09541392 -0.15116996 -0.15653948
000060 5f 2e 57 3e 44 3f e7 3c 2b d7 80 be 03 59 e5 3d
       0.21013783 0.02822841 -0.2516416 0.11198618
000070 7a 84 77 3d a2 b9 3e 3d 52 c0 19 3d 71 9e 7f be
       0.060429074 0.046563752 0.037536927 -0.24962784
000080 55 12 22 bd cf e6 9a 3d 21 d4 54 bd c5 1a c4 bd
       -0.039568264 0.075635545 -0.051960114 -0.095754184
000090 f1 ce f8 bd 61 a8 8c 3d f1 96 c1 bc 25 01 21 bd
       -0.12148846 0.06868053 -0.023631545 -0.039307732
0000a0 82 ef 86 3e 2f b8 89 3e 85 99 24 bc 4c d5 b8 3e
       0.26354605 0.26898333 -0.0100463675 0.36100233
0000b0 0c 07 a5 3e 96 fd c6 3d e8 f2 5f bc f9 72 28 3e
       0.3223194 0.097163364 -0.013668753 0.16450109
0000c0 01 fa 0a be e6 45 17 3e 1c 04 48 3e 42 ac 88 3e
       -0.13571931 0.14772758 0.19532818 0.26693922
0000d0 40 d1 3c bc e3 ec c9 bc 1c 01 94 bd b3 f3 2a bd
       -0.011524498 -0.02464909 -0.07226774 -0.041736316
0000e0 34 d2 ec bc b1 c6 34 bd 11 bb 14 3e 00 24 e4 3a
       -0.028908826 -0.0441348 0.14524485 0.0017405748
0000f0 3d b7 b7 bd c1 db be 3d 38 40 e2 3e 52 97 8b be
       -0.08970497 0.093192585 0.4418962 -0.27263886
000100 02 76 01 3d 49 85 6f be 46 14 b7 be a1 fa 11 bd
       0.03160668 -0.23390688 -0.35757655 -0.03563941
000110 70 97 43 3c 43 20 c7 3e 46 a1 37 3d 47 e5 96 3d
       0.011937961 0.388918 0.044831537 0.0736795
000120 f1 38 be bd f4 6a 96 3e bb 28 9d 3d d7 a9 ce 3e
       -0.092882045 0.29378474 0.07673784 0.40363953
000130 11 7f 8e be 70 77 44 bd 98 1e af 3c fa b7 6c be
       -0.2783132 -0.047965467 0.021376893 -0.23117056
000140 c0 22 81 bd cd 28 37 bd 80 44 43 bd c1 37 c7 3d
       -0.06305456 -0.044716645 -0.04767275 0.09727431
000150 3a 84 d2 bd 5f 59 26 3e 99 28 0e bd 55 8b c1 3d
       -0.102791265 0.1624503 -0.034706686 0.094504036
000160 ec c3 f0 3c e5 12 78 3e 0e 0c 0c 3d 51 8c bc 3d
       0.029390298 0.24225958 0.034191184 0.09206451
000170 2f fe 59 bd 94 57 4e 3e 58 b9 3f 3d e8 62 fc bc
       -0.053220924 0.20150596 0.046807617 -0.03080888
000180 7d 83 9a 3e 37 ca cb 3c 7e c3 16 3d c3 18 7e 3e
       0.30178443 0.024876697 0.03680753 0.24814133
000190 18 02 be 3d fa 48 91 be 42 18 ca 3d 04 11 fc 3c
       0.09277743 -0.2837599 0.09867908 0.030769832
0001a0 94 68 c0 3d 0e 90 b8 be 77 9a 3d 3e 7a db 0d bd
       0.09394947 -0.36047405 0.18515955 -0.034633137
0001b0 dc 90 a2 3e 8f 86 ad bc 5d fe ea bd ca 23 10 3e
       0.31751144 -0.021182327 -0.11474297 0.14076152
0001c0 3c ed ee bd 65 14 bc bd f2 84 80 bd 05 23 b0 be
       -0.116663426 -0.091835774 -0.06275357 -0.34401718
0001d0 ee a0 8a 3e 64 3b 84 bd 79 d3 f2 bd aa 48 bf bd
       0.27075905 -0.0645664 -0.118567415 -0.093400314
0001e0 9f 45 73 3e eb ef cb 3d 84 72 32 3e 1e e4 f5 3d
       0.23757027 0.0995787 0.17426497 0.120064005
0001f0 84 86 0d be e0 9c 1b bd f3 84 a6 3e 89 dd 32 3d
       -0.13820845 -0.037991405 0.32523307 0.043668304
000200 e0 fd da bb 80 fe ac bc 00 07 0a bd 1b 51 6f 3e
       -0.0066830963 -0.021117449 -0.033698082 0.23370783
000210 11 2a 39 bd ba 52 6b 3d 35 9e c8 bd 73 e7 77 bd
       -0.045206133 0.05745194 -0.097958006 -0.06052346
000220 69 04 9f 3d 1c 15 51 3d 6f d2 f7 bc 44 c3 66 3d
       0.07764513 0.051045522 -0.03025171 0.056338564
000230 7c 7e aa be b2 ba 9f be 7e fb d1 3d a4 63 e6 be
       -0.33299625 -0.31197125 0.102530465 -0.44997895
000240 f9 b6 ae be cb ee 93 3c a3 78 59 bd b4 73 bb bd
       -0.34123972 0.018058201 -0.053093564 -0.09152928
000250 d4 0e 17 bd f5 cd 7e bd 70 2a 29 be 41 99 37 be
       -0.036879376 -0.062208135 -0.16520095 -0.17929555
000260 50 2e f7 3b 1a b8 ba 3c 23 a1 0f 3e 09 4c 08 3d
       0.0075433627 0.022792865 0.14026313 0.033275638
000270 30 63 b5 bd 60 1b 92 bd 2a eb ef bc f4 93 f6 3c
       -0.08856809 -0.071341276 -0.02928694 0.030099846
000280 a0 8c 9e bb 80 6e ec 3a c3 b3 a6 be 60 a4 b4 3e
       -0.004838541 0.0018038303 -0.32559022 0.35281658
000290 cd b4 31 bd f5 49 9c 3e bf f6 90 3e a0 71 30 3e
       -0.043385316 0.30525175 0.28313252 0.17230844
0002a0 90 c6 46 bc 44 d5 8d be b0 57 51 bc d6 0d 13 bd
       -0.012132302 -0.2770177 -0.012777254 -0.035901867
0002b0 de 23 9e 3d 67 ce 98 be f2 d2 c7 bd 2a 8d 69 be
       0.07721685 -0.29844972 -0.097570315 -0.22807756
0002c0 1e ad 88 3e 1d 9f b2 bd 93 84 b9 3d 8c 74 42 3e
       0.26694578 -0.08721755 0.0905849 0.18989772
0002d0 94 70 06 3d 60 f4 04 bb 6c 13 8b bc 2a 97 01 3d
       0.032822207 -0.002028726 -0.016977035 0.031638302
0002e0 57 d3 ef 3d b2 ce 3e bd ab 1a 1b bc bd 20 bc 3d
       0.11710232 -0.04658384 -0.009466807 0.09185932
0002f0 d2 01 34 3d 6c e0 2c be b5 e8 6a 3d 19 0a 9f bd
       0.04394705 -0.16882485 0.057350833 -0.07765598
000300 70 5e 02 3e 2b 09 a0 be eb 25 54 3d ce 72 3d 3d
       0.12731338 -0.31256995 0.051793974 0.046252064
000310 ab d3 9f be 07 2a 96 3d 9d 40 48 bd f2 f4 bd be
       -0.31216177 0.07332235 -0.048889745 -0.3710094
