Models/runs/optuna/SGConv_2_mut_0.3_cross_0.5_type_two_point_iter_100/SGConv2_seed_13_thr_5_date_03-15_22-20.pt (torch, 1887 bytes, 4 tensors)

conv1.lin.weight f4 [8, 5]
00000000: d728 a73d 09bc c7bf 732d f240 315f 0d41
00000010: ff8f 2ec0 f430 6ec0 1d15 50be 123c ab3f
00000020: b323 7a40 b8b5 cbc0 2daf 323e e454 8bc0
00000030: 699b a240 45fa a440 cfd8 bac0 d980 f340
00000040: 69d4 0ac1 581c 0bc0 b8e8 4640 02ab 93c0
00000050: b04b 1c40 8fb4 4640 fb41 10c0 9476 dcc0
00000060: 00ef b140 7050 5fbf 9141 11c1 2f21 3ec0
00000070: ed79 2cbe 41ab 6bc0 d24c 2c40 d6b0 a5c0
00000080: fd21 1f41 a38c 76c0 62a4 8ebf 3444 973f
00000090: 5647 fc3f cbad bbc0 2ffe 3abf fce3 10c1
0.081620865 -1.5604259 7.568048 8.83574 -2.7275388 -3.7217379 -0.20320554 1.3377707
3.908429 -6.3659325 0.17449637 -4.3541126 5.081471 5.1555505 -5.838966 7.6094785
-8.676858 -2.173605 3.107954 -4.614625 2.4421196 3.1047704 -2.2540271 -6.889475
5.560425 -0.8723211 -9.078507 -2.9707754 -0.16843386 -3.6823275 2.6921887 -5.1778364
9.945798 -3.8523338 -1.1143916 1.1817689 1.970927 -5.864965 -0.73044103 -9.05566

conv1.lin.bias f4 [8]
00000000: 0d32 db3e 8e48 c43f 502d 7fc0 f8f3 9c40
00000010: 8b14 0cc1 8f16 c240 fbfc 8840 8795 793f
0.42811623 1.5334642 -3.9871407 4.9047813 -8.755015 6.0652537 4.2808814 0.97493786

conv2.lin.weight f4 [2, 8]
00000000: 1102 c940 49b3 8140 1194 12c0 621f 44c0
00000010: cf1f b540 08ff dcc0 2549 1641 1e84 9c40
00000020: f532 0e41 5493 b9c0 63cb fec0 7ed1 5840
00000030: 5f1b e440 bbf5 09c1 2f66 f140 4471 ab40
6.2815022 4.0531354 -2.2902873 -3.0644155 5.660133 -6.9061317 9.392858 4.8911276
8.887441 -5.7992344 -7.9623275 3.3877864 7.128341 -8.622493 7.5437236 5.3575764

conv2.lin.bias f4 [2]
00000000: 261b 07bf c5ee 1cc1
-0.527758 -9.808293
