Models/runs/optuna/GCN_3_mut_0.4_cross_0.3_type_one_point_iter_100/GCN3_seed_13_thr_5_date_03-15_22-20.pt (torch, 2711 bytes, 6 tensors)

conv1.bias f4 [8]
000000 3d 81 73 c0 f7 b2 df c0 24 ad 09 41 b2 d2 1b c1
       -3.804763 -6.9905963 8.604771 -9.738939
000010 12 bf e2 c0 a2 32 d6 3f ce db f6 40 bd 23 1a c1
       -7.085824 1.6734202 7.7143316 -9.633725

conv1.lin.weight f4 [8, 5]
000000 63 5b 1e c1 da 61 44 40 be 1c d3 bf 51 04 9b 40
       -9.897311 3.0684724 -1.6493146 4.844277
000010 81 f3 14 40 cd e6 e3 40 41 2c 9c 3f db fe f9 bf
       2.3273623 7.121924 1.2201005 -1.9530901
000020 11 2a bc 40 7e a4 cd c0 6b 71 7f c0 7a 63 f6 c0
       5.880135 -6.4263296 -3.9912975 -7.699643
000030 7e 87 89 40 9f 60 dd 40 4a c8 0d c1 7e 8d c2 c0
       4.2977896 6.9180446 -8.861399 -6.079772
000040 1e 58 0b c0 39 d7 55 bf 0d c4 c2 bf b1 e9 c8 c0
       -2.1772532 -0.8353153 -1.521608 -6.278527
000050 e4 8e 7c c0 92 12 f7 c0 4b 18 d3 bf 5b 42 ba c0
       -3.9462214 -7.721017 -1.6491789 -5.8206
000060 e9 64 b2 c0 40 9a d5 c0 ed bc 3d 40 31 32 b6 c0
       -5.574818 -6.6750793 2.964656 -5.693627
000070 07 29 6d 3d 0e ce a8 40 0e d9 8a bf bf 6c b9 c0
       0.057900455 5.275153 -1.084749 -5.7945247
000080 35 f4 93 3f 62 c4 50 40 ed 63 83 3f 15 9c 6a 40
       1.1558901 3.2619863 1.026487 3.6657765
000090 20 db 38 40 bf ec b7 40 5f ad 9a c0 3a cf 82 40
       2.8883743 5.7476497 -4.8336635 4.087796

conv2.bias f4 [8]
000000 69 1b b2 c0 f9 3f 1c 41 b8 ad aa c0 ab de 2f 40
       -5.565846 9.765618 -5.333706 2.7479656
000010 10 44 2e 3f db 37 21 c0 f6 70 ce 40 d4 b2 ba 40
       0.68072605 -2.5190341 6.451289 5.8343296

conv2.lin.weight f4 [8, 8]
000000 b6 0f df 3f ab df d9 c0 16 4e ed 40 5d 5a d4 c0
       1.742667 -6.808553 7.415782 -6.6360307
000010 c2 7f 4d c0 03 66 5f be 4b 79 12 c1 8d 56 e5 bf
       -3.2109227 -0.21816258 -9.154613 -1.7917038
000020 3f f6 23 c0 e5 95 54 40 9f 59 cb c0 60 55 99 40
       -2.5619047 3.3216488 -6.35469 4.7916718
000030 63 c4 c9 c0 6e fa ce be d3 df 49 40 43 60 c9 bf
       -6.305223 -0.40425438 3.1542861 -1.5732502
000040 50 6f 1f c1 9c cd 40 40 b7 f5 88 c0 29 17 fd 40
       -9.964676 3.0125494 -4.2799945 7.909077
000050 0a d8 08 41 9f 63 ce 3f a2 6b b3 c0 b4 4a a0 c0
       8.552744 1.6124152 -5.606889 -5.009119
000060 ee 6d 64 40 6c 97 42 c0 dc 19 66 bf 85 90 8d 40
       3.5692096 -3.040492 -0.8988321 4.4238915
000070 78 02 a6 40 78 b7 9c c0 f1 70 3d c0 5f 5d aa 40
       5.1878014 -4.897396 -2.9600184 5.323898
000080 15 65 12 c1 b1 49 7d c0 83 0f a6 3f aa 8e ad c0
       -9.149678 -3.9576228 1.2973484 -5.423665
000090 fc 20 3c c0 35 5e f5 40 60 bb bc c0 0c fe e1 3f
       -2.9395132 7.66775 -5.897873 1.7655654
0000a0 40 f4 f9 40 b8 1f 99 40 90 38 0a 3f a2 cc e1 3e
       7.8110657 4.785122 0.5399256 0.44101435
0000b0 76 f7 55 c0 7d 65 f8 40 41 90 53 3f 4f 81 8b 3f
       -3.3432288 7.7623887 0.8264199 1.0898837
0000c0 48 91 29 40 40 f3 c8 c0 a7 7b e5 c0 f1 0d 11 41
       2.6494923 -6.2796936 -7.1713443 9.065904
0000d0 ff 2b 51 40 71 da a5 40 f9 8d 84 40 75 31 67 40
       3.2683103 5.182915 4.1423306 3.6123936
0000e0 0e eb d0 bf d4 51 98 40 a6 7f af 3f 85 45 c7 bf
       -1.6321733 4.759989 1.371083 -1.5568091
0000f0 4b 74 d3 c0 22 71 67 be d4 c1 d6 c0 42 3a e1 3f
       -6.607946 -0.2260175 -6.7111607 1.7595904

conv3.bias f4 [2]
000000 1e 9d 7d 40 ae 3f da bf
       3.9627147 -1.7050683

conv3.lin.weight f4 [2, 8]
000000 17 94 b5 c0 a8 6c d7 c0 94 15 0b 41 aa 00 0c 40
       -5.6743274 -6.7320137 8.692768 2.1875405
000010 fb 45 ea 40 eb 75 e1 3f a8 0d ce c0 90 da 7f bf
       7.3210425 1.7614111 -6.439167 -0.99942875
000020 7a d2 f4 40 21 f7 0f 40 30 2d 2b 3f cf a2 df 3f
       7.650693 2.2494586 0.66865826 1.747156
000030 a9 22 e7 3f 1a 44 fb 3f 04 f5 ea c0 9f cb 1f c1
       1.8057452 1.9630158 -7.342409 -9.987212
