Models/runs/optuna_sage_2/SAGE_1_mut_0.5_cross_0.6_type_two_point_iter_50/SAGE1_seed_13_thr_5_date_03-24_19-05.pt (torch, 1443 bytes, 3 tensors)

conv1.lin_l.weight f4 [2, 5]
000000 b1 1f 8e bf 79 3e 5a 3f 07 79 08 41 f0 b2 90 3c
       -1.1103421 0.85251576 8.529548 0.017663449
000010 5a c6 00 41 d4 af b6 40 09 eb 06 c0 4e 2f 1f c1
       8.048426 5.7089634 -2.1080954 -9.949049
000020 c3 f5 70 3f bf ed 4e 3f
       0.94125 0.8083152

conv1.lin_l.bias f4 [2]
000000 0d 5e 15 41 28 90 00 41
       9.335462 8.035194

conv1.lin_r.weight f4 [2, 5]
000000 ad 7a 0c c1 9c 7c 8b c0 4f 4b 13 c1 32 cf de 3f
       -8.77995 -4.358961 -9.205886 1.7406981
000010 78 48 c8 c0 b6 7d 0c 41 09 1b ac c0 c3 d9 49 40
       -6.2588463 8.780691 -5.3783 3.1539161
000020 5d 24 68 40 f5 7b 3c 3f
       3.6272194 0.73626643
